model_save/deap_mlp.pth (torch, 23315 bytes, 10 tensors)

0.weight f4 [32, 6]
00000000: 2484 d23e 60da 7f3d 3974 84bb 923f 8dbf
00000010: 86a0 5fbe 2566 0dbc 35a9 6f3e 2466 dbbe
00000020: c420 ee3a 314c 26bf cf3f 423f 16a5 fa3c
00000030: 93c8 eb3e 1d49 9f3f 3981 3c3d 83e9 303d
00000040: ac81 82bd 3a77 febb b54a a23e 0847 a73f
00000050: 4e8f 14bd 944d 103d 2031 d33d b859 3dbb
00000060: 74e7 233e 37cc ee3e 760a 303c 56ed 5b3d
00000070: 168e 173f dac6 093d 56e3 7a3e 17c8 313f
00000080: 0fcc 94bd 3299 aa3e 1a93 383e ae0e 64bc
00000090: fac7 97be da7e f23e d856 9ebd 14e8 943e
000000a0: ed84 f53e 83e2 dabb 31c5 17be 13b4 e7bd
000000b0: 1073 99ba ed5e 0fbf f0e1 08c0 4a48 843b
000000c0: 3858 173d 8df2 38bf 105c fc3c 8d3a 06bf
000000d0: 5e22 9cbf f6b2 a6ba 2584 d7be 4635 d4bd
000000e0: ea8f 883d c93f 0ebd fd52 64be 79ed 653d
000000f0: 542b cf3e 8486 323f 93dc 9f3d efb0 4dbe
00000100: 1d90 c53e cf07 913c 8131 8ebd 1235 05bf
00000110: da57 2dbc bcfa db3d d085 d7bf 06d0 f53c
00000120: 8366 90be 30fd c5be 8e2f b63b 39c3 c23e
00000130: f169 983f 1079 113a faf1 e23e b85c b43f
00000140: 0695 8fbd 4aba 2a3e 7824 2cbf 798a 643c
00000150: 025a 81be 9c47 cc3d a0b4 10bc 246a f3bd
00000160: 3db5 e0bf 9ec2 26bd 5718 7dbe 3062 6dbe
00000170: e7f6 883b fba4 883e 99b0 c03f 8992 323d
00000180: d6dc 973e 64ed a23f 0ee9 c13d f3de 583f
00000190: a87c 17be b798 4d3c e2e9 19bd 3439 79bf
000001a0: 2dd7 9e3d c5a8 54bf a275 bf3b eaa3 a23b
000001b0: 792c 31bf b889 98bf b9b0 073c 65de 17be
000001c0: 3af7 353f 71c9 453d cc74 863d c5cf 73bc
000001d0: 521f 08bd 3a75 edbb cde2 5c3f 7137 56bd
000001e0: e06e 063f 461e 0a3f 2c46 4fbd fe5d 053e
000001f0: 99e1 4dbf b788 31bb cb55 cebe ad62 bfbe
00000200: f227 233d 3f9d 9d3b 1e5f a73f 9a88 733d
00000210: b6f9 a23e 2bda 8e3d 68a2 bf3b 29cb bb3c
00000220: 9a30 913f b440 3d3d 0921 91be 1510 16bf
00000230: 8511 c2bc c51b 04bf cfc2 9c3f b37c 3ebd
00000240: 5cc4 15be be52 40be 0332 06bc ea93 cc3e
00000250: 7ff6 983f db64 28bd 5167 373e 2631 163e
00000260: 67b4 c13b 525f 643d a4d8 dc3f e3a7 9dbd
00000270: 8d95 93be 1e7c 95be ec88 e1bc fb85 44bf
00000280: 1cc3 9b3f da2e 373d 1c2e 473e e705 e33e
00000290: 6299 433a be63 343f ba86 a23f ce1d ea3a
000002a0: f955 9abe 5d8d 403c f3b9 9abd b930 a3bf
000002b0: 0811 abbf e325 3cbc 336e aebe 6331 d4be
000002c0: 2a06 3dbc 5f35 8f3e bdfd 363f 2018 d83c
000002d0: 0b9d 44be 0781 b8be d457 f83b 5fd6 a03b
000002e0: b6ae e6bf dd1f fabc e3cf f5be 2fde cdbe
000002f0: f90a 4fbc 1b51 00bf a126 823f cdb6 3bbd
0.4111644 0.062464118 -0.004042175 -1.1035025 -0.21838579 -0.00863031 0.23404391 -0.42851365
0.0018167724 -0.6496001 0.75878614 0.030596297 0.46051463 1.2444187 0.046021674 0.043191444
-0.06372389 -0.0077656778 0.31697622 1.3068552 -0.03626948 0.035230234 0.10312104 -0.0028892588
0.16006261 0.4664018 0.010744682 0.053693138 0.5920118 0.033636905 0.24500784 0.6944594
-0.072654836 0.33320004 0.18024865 -0.013919516 -0.29644758 0.47362405 -0.07731408 0.29083312
0.47952977 -0.0066798343 -0.14821316 -0.11313643 -0.0011707265 -0.5600422 -2.1387901 0.004036938
0.036949366 -0.72245103 0.030805618 -0.5243309 -1.2197988 -0.001271813 -0.42093006 -0.103617236
0.066680744 -0.0347288 -0.22297283 0.056134675 0.40462744 0.69736505 0.07805743 -0.20087026
0.38586512 0.017703919 -0.06943036 -0.52034104 -0.0105800275 0.10741183 -1.6837711 0.03000642
-0.2820321 -0.3866973 0.005559868 0.38039568 1.1907331 0.0005549351 0.44325238 1.4090796
-0.07010846 0.16672626 -0.67243147 0.01394903 -0.25263983 0.09974596 -0.008832127 -0.11885479
-1.755531 -0.040712945 -0.24716316 -0.23181987 0.0041798237 0.2668837 1.5053893 0.043596778
0.29660672 1.2728696 0.0946828 0.84715194 -0.14793646 0.012548617 -0.037576564 -0.9735291
0.07755885 -0.8307002 0.0058428803 0.0049633877 -0.69208485 -1.1917028 0.00828188 -0.1483093
0.7108036 0.048287813 0.06565246 -0.014881079 -0.033232994 -0.0072466405 0.8628357 -0.052298967
0.5251293 0.53952444 -0.05060403 0.13024136 -0.8042236 -0.0027089545 -0.4029983 -0.3737997
0.039833017 0.004810005 1.3075902 0.059456445 0.3183114 0.06975206 0.0058482178 0.022924023
1.1342957 0.046204284 -0.28345516 -0.5861829 -0.023689995 -0.5160487 1.2246951 -0.04650564
-0.14625686 -0.18781564 -0.008190635 0.399566 1.1950225 -0.04111181 0.17910506 0.14667186
0.005911398 0.055754967 1.7253613 -0.076980375 -0.28825036 -0.29196256 -0.02753111 -0.7676694
1.2168918 0.044722416 0.19451183 0.4434044 0.00074615155 0.70464694 1.2697365 0.0017861666
-0.30143717 0.011752454 -0.07554998 -1.2749244 -1.3364573 -0.011483642 -0.3406845 -0.4144393
-0.011537114 0.27970406 0.71480924 0.026378691 -0.19200532 -0.3603594 0.0075788293 0.0049083675
-1.8022068 -0.030532772 -0.48010167 -0.40208575 -0.012636893 -0.5012376 1.0168039 -0.04582863

0.bias f4 [32]
00000000: cb5f 803e 9518 27bc 78db 39bf 7249 42bf
00000010: f769 c7be e6ec 00bf a23f 27be 9630 4a3f
00000020: 359c c33e f2ff febe b093 c7be 5108 a63e
00000030: 0214 1fbe bbde 27bf 2fcb 353e 2235 23bf
00000040: 978f 44bf d309 15bf 06f7 b6bd ee1d 60be
00000050: 1f9a e9bd e57f e1be 2443 1abf 57c5 963d
00000060: b31b 15bf adff 20bf c810 bbbe 8ee2 2fbf
00000070: 256e 94be c1c3 d1bd abfb d73d 6470 2dbe
0.25073084 -0.010198732 -0.7260051 -0.7589332 -0.38948032 -0.5036148 -0.16332868 0.78980386
0.38205114 -0.49804646 -0.38979864 0.3242822 -0.15534976 -0.65574235 0.1775329 -0.6375295
-0.767816 -0.58218116 -0.08933835 -0.21886417 -0.114063494 -0.44042888 -0.602587 0.07361858
-0.5824539 -0.6289013 -0.3653624 -0.6870507 -0.28990284 -0.10242415 0.10546049 -0.16937405

3.weight f4 [64, 32]
00000000: 4679 33be eb02 2abe 79d5 b6be d23a 20be
00000010: cd41 20be e0da 703c e370 59bd 914e b7bd
00000020: 08e9 01be 0cc2 45bd df2b aebe d945 eb3e
00000030: d963 443d 6101 113d c63f f9bd 9d26 56be
00000040: be90 9bbe f333 debc 7e11 713d 9732 59bd
00000050: 898f 4cbd e42f 3fbe 52e9 22be 9e06 373e
00000060: 8e7b 0f3e 9ab7 9abd 8bf1 dfbd 6ce8 5ebd
00000070: 7a10 c5bc ff47 69bd fcd4 0c3e 4872 9a3d
00000080: a7b6 58bd 333b f53d c475 f93b a48c a23d
00000090: 3e11 fa3d fab8 b83d 96aa 953d de1e 7abf
000000a0: f1ed 66be e30b 07be 3388 8a3d dbc6 49be
000000b0: 7d81 033e 46cc 08bd 6344 75bd f0eb 8b3d
000000c0: b62a d7bb 9cff 733c 45a2 8a3d 74bd efbc
000000d0: 70a8 f5bc b396 e33d cb5f 093d 67bc 043d
000000e0: 741e 2c3e 46ed 843e 0500 373e 541b 403e
000000f0: c589 89bd 8071 3f3c e097 e0bd 1b17 133e
00000100: a3ad 183d 401a eabc 5d54 0bbe 580e d03c
00000110: 37b1 e8bd b97d b8bb 727d 4a3d 3903 c4be
00000120: 1335 67be 2095 983c f713 573d 6fb3 7cbe
00000130: beb1 fdbd 2ba6 82be 36ee 81be 4e1f cd3d
00000140: 6402 8ebd 6c63 df3b f676 46bd 87bf cf3d
00000150: 7c3e 88bc 37da 8a3e 7c24 8d3d a448 d13d
00000160: 85be 943e 1217 0dbe eb89 8cbd 1552 683d
00000170: f6e7 be3b 0de2 48be 8fab a6bb 00d4 c9bb
00000180: b24f e3bd 8548 38be 2444 a43d e3d4 db3d
00000190: 9a9b 633d 0d27 f7bc 07ac f63c c4d3 2fbc
000001a0: 783b 3cbe c7ed 10be a2a8 2d3b ebcd b83d
000001b0: ef64 c3bd ae15 60be 61ed 06bd 0320 29be
000001c0: cdd4 40bd 9dd5 4ebd 1af3 553c 8f5e b0bd
000001d0: 2352 5abe 77d6 a1bd a718 be3d fda0 4cbe
000001e0: 11b1 dfbb 3f75 32bd f9cb c33d ee3c 9d3d
000001f0: 7dc0 f13d 7355 05be 8434 03be 0608 293d
00000200: 7f59 00be 79c7 333e a070 363d c431 303e
00000210: eaa5 dc3b fc00 1c3d 2182 193d 8101 22bf
00000220: 5ae1 66be 86a4 10bd 998c 0f3d ddac bfbd
00000230: f1f2 d93d 3d0d 05be 92f0 64bb dc1c 293e
00000240: 3b87 9ebc 61cc 083d 1a10 fd3d 5d3b 29be
00000250: 8c9c 133d 9f0d e03d 9a2f 043e 10b1 30be
00000260: cc2a 2e3c 7679 bdbe af4a fd3d 3f3f af3d
00000270: 475f 63bd a938 8f3d 921a 133e ae73 d33d
00000280: 8d7e 14be 204d 0c3d dda2 483d c763 b7be
00000290: a1b4 993d e74c bdbd 76df b2be da24 a8be
000002a0: 5f32 87bd c682 ea3d 5b51 c8bb f3f6 82be
000002b0: 0716 1b3e b1e7 34bf f52f 7cbe 8772 8c3d
000002c0: a62c 583d c0dd afbd 408d 8b3d e828 613d
000002d0: 9945 0dbf a5b8 853d dbb6 ca3d 4c3e 6abe
000002e0: ac79 d3bd d5d2 afbe ccbe d1bd 5264 c63d
000002f0: b7cc 963d a388 2e3e 2981 293c 8cc5 5fbe
00000300: cfd1 95be ef6a 113e 079c 9bbe be49 b5be
00000310: 146c b23c 3907 02bf 90cb c6be 4103 b7bd
00000320: 0b9b b13d 77c3 27bc 602a 07bd c0fe 2dbd
00000330: 2ad6 ac3d 2494 b1be 35b5 94bd 5fb6 0dbd
00000340: 045d aebd 67a2 bc3d f769 253e ab7e e5bd
00000350: 40c1 86be a5fc 9bbd a496 973d 6232 92be
00000360: 127a 88be 6fff fcbd 139f b2bd 7293 d6bc
00000370: 1b9c 30be 6eca 853d 9764 013e 955e 68be
00000380: ef88 bf3d 118e 7cbb a802 24bf 66f6 91bd
00000390: 51a7 90be 7ad1 8a3c 525d 693c 05dd eabd
000003a0: 8b12 a9bd ef81 24bd 1f39 6bbe 4e7b 3a3e
000003b0: c305 363e 8ee0 fe3b 3858 2cbe 127f a9be
000003c0: 74cf ddbd 71c8 d9bd fdac 9bbe 4854 4fbc
000003d0: 30bf f63c e2ab 7fbe ebad 9dbe d299 073e
000003e0: 52ee 5abe 2005 10bd 7482 3d3d 1612 1abd
000003f0: 9f3c acbb 8cd8 213d 18bd fbbd d0b1 893d
-0.17526731 -0.16602676 -0.35709742 -0.15647438 -0.15650101 0.014700621 -0.053086173 -0.08950532
-0.1268655 -0.04828076 -0.34017846 0.45951727 0.047946785 0.035401706 -0.12170367 -0.20913167
-0.30383867 -0.02712438 0.058854572 -0.05302676 -0.049941573 -0.18670613 -0.15909317 0.17873618
0.14011976 -0.075545505 -0.109347425 -0.054420874 -0.024055708 -0.056953426 0.13753122 0.07541329
-0.052908566 0.11974182 0.0076129157 0.07936981 0.1221032 0.090196565 0.07307927 -0.9770335
-0.22551705 -0.13188128 0.06764259 -0.19704764 0.12842365 -0.033397935 -0.05987967 0.06832111
-0.006566371 0.014892485 0.06769232 -0.029265143 -0.029987544 0.11112728 0.03353862 0.032406237
0.16808492 0.25962275 0.17871101 0.18760425 -0.067157306 0.011684775 -0.10966468 0.14364283
0.037274968 -0.02857697 -0.13606401 0.025397465 -0.11361926 -0.0056302217 0.04943604 -0.3828371
-0.2257884 0.018625796 0.052509274 -0.24677823 -0.12387417 -0.255174 -0.25377053 0.100157365
-0.0693405 0.006817272 -0.048453294 0.10143953 -0.016631357 0.2711961 0.068917245 0.10218933
0.29051605 -0.13778332 -0.06862243 0.056718905 0.0058259917 -0.19617482 -0.0050863693 -0.0061593056
-0.11099185 -0.17996414 0.08020809 0.10733964 0.055568315 -0.030169988 0.030111326 -0.010731641
-0.1838206 -0.14153205 0.0026498218 0.09023651 -0.09540736 -0.2188327 -0.032941226 -0.16516118
-0.047077943 -0.050496686 0.013058448 -0.086117856 -0.21320395 -0.07902234 0.09282046 -0.19983287
-0.006826528 -0.043568846 0.09560389 0.07677637 0.11804292 -0.13020878 -0.12813002 0.041267417
-0.1253414 0.17556562 0.044541 0.17206484 0.0067336457 0.038086876 0.037477616 -0.63283545
-0.22546902 -0.03531315 0.035046194 -0.09359143 0.106420405 -0.12993331 -0.003493343 0.16514915
-0.019351592 0.033398036 0.12356587 -0.16526552 0.036037967 0.10940098 0.12908784 -0.17255044
0.010630321 -0.3700673 0.123677604 0.08556985 -0.055510785 0.06993229 0.14365605 0.103247985
-0.145014 0.03425324 0.048983444 -0.35818312 0.07505155 -0.092431836 -0.34936112 -0.32840616
-0.066014044 0.11450724 -0.006113214 -0.25579032 0.15145122 -0.70666033 -0.24627669 0.06857782
0.052776955 -0.08587217 0.06814051 0.054970652 -0.5518432 0.06529359 0.09898158 -0.22875327
-0.103259414 -0.3434054 -0.1024147 0.09687103 0.07363265 0.1704431 0.010345736 -0.21852702
-0.29261634 0.14200948 -0.30392477 -0.35407823 0.021780051 -0.5079227 -0.3882718 -0.089361675
0.0867215 -0.010239474 -0.032999396 -0.042479277 0.08439286 -0.34683335 -0.07261125 -0.03459775
-0.08513835 0.09210663 0.16153704 -0.112058006 -0.26319313 -0.076165475 0.07401779 -0.28554064
-0.26655632 -0.123534076 -0.08721747 -0.026193354 -0.1724705 0.06532751 0.12636028 -0.2269233
0.0935229 -0.0038536827 -0.64066553 -0.07127075 -0.28252652 0.01694559 0.014243441 -0.114679374
-0.0825549 -0.040162977 -0.22971009 0.182111 0.17775635 0.007778234 -0.16830528 -0.3310476
-0.10830584 -0.10633934 -0.30405417 -0.012654372 0.030120462 -0.24967912 -0.3079675 0.13242272
-0.21379974 -0.035161138 0.046266988 -0.037614904 -0.00525625 0.039513156 -0.12291926 0.06723368

3.bias f4 [64]
00000000: 3f03 833e 66d6 9ebe 9eb3 f53b 65af 15be
00000010: 225e bebd eb6e ed3b 9a34 7f3e 53d8 103e
00000020: 99b2 253b 4f0a 54be 68ac bfbd 8ced bdbd
00000030: 8ac7 fd3d 0124 bc3c 2224 7c3d 081e 48be
00000040: f472 debd 5673 a63c 66b2 ea3d 7f83 19bd
00000050: dfc1 f7bd d7c7 10be 9838 4cbe a5a8 d5bd
00000060: 2806 09be 3031 743d 6a7f 26be 4841 6abe
00000070: 5ccd 88bd 061b 8abe 14da a7be 3b28 61bd
00000080: 5d64 3abe e122 84be bd7c aebd 5873 36be
00000090: c092 a7be a6db 9cbe 6ef2 03bd 7e1a 0dbc
000000a0: 4aef c8be 2781 e7bd 6115 473e 4ef0 1abe
000000b0: e5f8 81bb ec2a 2c3e 80b7 29be 233b 57bd
000000c0: 7952 023d fe8b 4abd 10b8 0dbd ad6b 00bc
000000d0: d289 043e 5b9e c53e 129a 75be 65e9 25be
000000e0: fefb 2bbe 9c6f 24be 26ca 7ebe 386b bfbd
000000f0: e0fd 57be 5e4b e8bd 8b00 42be 132b 48be
0.25588414 -0.31022948 0.0074982187 -0.14617689 -0.09295298 0.0072458885 0.2492241 0.14145021
0.0025283454 -0.20707057 -0.09359056 -0.09273824 0.12391575 0.022966387 0.061557896 -0.19542706
-0.10861769 0.020318668 0.11459808 -0.03747892 -0.12097525 -0.14138733 -0.19943464 -0.10432557
-0.13381255 0.05961722 -0.16259542 -0.22876465 -0.06679794 -0.26973742 -0.32783568 -0.054970007
-0.18202348 -0.2580786 -0.08519886 -0.17817438 -0.3272915 -0.30636328 -0.03221362 -0.008612273
-0.39245063 -0.11303931 0.19441749 -0.15130731 -0.003966438 0.16813248 -0.16573906 -0.05254663
0.031816933 -0.049449913 -0.034599364 -0.007838172 0.129432 0.38597378 -0.23984554 -0.16202314
-0.16795346 -0.160582 -0.24881801 -0.09346622 -0.2109294 -0.113425 -0.1894552 -0.19547682

6.weight f4 [32, 64]
00000000: 425f 23be d244 ccbd 0501 80bb 972b 56bd
00000010: 7c19 3a3d eecc e2bd a5a8 06bd 92a0 b13c
00000020: 3ba0 b6bb 10e1 a9bd 90c3 d6bd 0fd5 733c
00000030: 4316 c03d 6102 6e3c b273 e33b b0da a7bd
00000040: 99b2 82bd 8a77 013d f8f7 f4bc 91d3 91bd
00000050: 49c9 0a3c 7f34 0d3c 2a29 d83d a5d0 15be
00000060: fffd cbbd 90e7 9dbc dde6 03bd ff87 2fbd
00000070: 871c 3ebd a5c3 1c3d b8da 15be fd97 9bbd
00000080: 7ae4 c5bd a8dc f0bd fb9b 43bc fcd9 b53c
00000090: 7f38 c3bd e783 863d f107 0dbd a3dc 873d
000000a0: 8af8 823d c982 d5bd 3d6c 983d 92f6 363c
000000b0: 05f0 9b3d 43f4 84bd f667 0ebd 094e 5f3d
000000c0: b35c 0cbb f42e c6bd 7c93 a03c 4b69 a2bd
000000d0: e67a 6cbd 4f61 cabd 9a12 c9bd 6bf5 fdbb
000000e0: 2a7a 083d d90e b93c 2222 49bd 8129 863d
000000f0: 10e0 893d 5dd9 4fbc f3a4 c3bd e6b0 2bbd
00000100: 17d4 37bd 442a 89bd 550f 453d c18c b93c
00000110: 7f3f 05bc 79f1 5dbd 459f dbbd 9487 0ebd
00000120: 7ed1 ea3c 56f3 94bb 1802 b3bd 5770 07be
00000130: 2842 a6bd e7ac e5bd 5f1b b4bc 87dc 19be
00000140: 5933 82bd 9b88 e1bd 11d4 0fbd bf3c 0fbe
00000150: 9e90 7f3d ea0d f9bc bfe0 c1bd cf25 edbd
00000160: 57c1 8f3c a0b8 8cbb 1955 dbbd 8be7 02be
00000170: 2fb4 9b3d 5ef5 3abd 9016 873d 2b6b 943d
00000180: 8ef8 6cbd 4b01 d7ba 0875 f6bd ea2e e6bd
00000190: 621b fbbb 16bf 003d d3a8 123d 9589 f2bd
000001a0: a0e3 8f3d 1a4d d5bd 67d9 efbc af20 523c
000001b0: a0db 86bd ac60 4cbe 57d9 793d 507f ab3d
000001c0: 2ea5 a8bd ba28 a63c 9118 8a3b 297a d9bd
000001d0: 3adb d7bc eada 033e b310 bbbd dda4 a03d
000001e0: 971a 83bc 78bd e83c 51fa 59bc 0aad aa3d
000001f0: 2773 70bd 5096 5fbc 59d3 a7bd e187 a83b
00000200: a8e9 91bd af27 b2be 7992 9b3c bccd 95bd
00000210: cba9 12bd 7077 b93d d8af 843d 2c1e e2bd
00000220: 7a29 24bd 7b08 713e 0e6e d33c ad95 77bd
00000230: a6fc 22be 071f a6be 4263 29be aa17 053e
00000240: c621 c83d 7b08 3ebd efeb c43d f30e c5bc
00000250: ef74 013e bf45 da3c 3b61 80bd 471f 8f3c
00000260: 26bf e03d 96ae 2dbd abc5 c8bd 7bbd 7d3d
00000270: e248 dfbd 9cc4 313e 67e8 adbe 238b 23be
00000280: 26ef 2fbe c450 2cbd 3fad f0b9 6e14 f23c
00000290: 66dc afbd 8e6b bc3d 4e57 b0bc b909 213e
000002a0: b0db 71be 02c1 86bd 4bed 833d cd34 8bbb
000002b0: edae d53c 9901 3dbe ae71 f7bc 7963 043e
000002c0: 7249 fd3d 655f cebd e9ac 353e eabd 8cbd
000002d0: e2a8 03bd 41eb 003d 654e b5bc 61b5 bbbe
000002e0: 224b 42bd f2f1 503d 0186 98bd 8ccf 22bd
000002f0: 5c12 a238 54ee 72bd a07c 97be a021 3bbc
00000300: c74a 17be c1f3 023d 9c89 313c 29a8 e73c
00000310: df55 bdbd a2d3 e4bd 849f e0bd cc2f febd
00000320: 222b 25bc b3a0 5cbd b560 f0bd 8545 f83d
00000330: 9332 62bd 552c 2bbd 28d7 b9bd 4ce6 23bd
00000340: 8e8b 473e f44e b1bc 23ee 53be 0dab 99be
00000350: 6e43 043e f911 983d d72c 93bc 0f00 01be
00000360: 9773 a2bc 6cbd a63d 039b 9c3d 63b0 12be
00000370: cae3 da3d 1760 1dbe 5bca 9dbd a876 88bd
00000380: 2ecc 133e 075a a2bb 34df abbd 479a 0bbe
00000390: 5c8f e2bd fc88 753d 3c93 213e 2ffe 16be
000003a0: cedc cbbd 6504 89bd 14dd 25bd b5b6 2ebd
000003b0: 9c59 253d e6fe fcbd 918b a13d 1820 84bd
000003c0: 4912 28be 23e2 f9bd 644e e3bb 7398 c9bd
000003d0: 1bdd 0d3e 9f20 253c 016d a6bd d54a 20be
000003e0: 9c2f 9abd 79d8 90bd 329c 7cbc 7544 90bd
000003f0: 6de3 c9bd c162 bf3d 8856 9cbd f029 6d3e
-0.15954307 -0.09974064 -0.0039063715 -0.052287664 0.04543446 -0.110742435 -0.032875676 0.021683011
-0.0055733 -0.082948804 -0.10486519 0.01488234 0.09379246 0.014526934 0.006941282 -0.08196008
-0.06381721 0.031608142 -0.029903397 -0.07120431 0.008470842 0.008618473 0.105547264 -0.14630373
-0.09960555 -0.019275457 -0.03220259 -0.042854305 -0.046413925 0.03827252 -0.14634216 -0.07597349
-0.09662719 -0.11760837 -0.011939044 0.02219867 -0.0953226 0.06568127 -0.0344314 0.0663388
0.06395061 -0.10425336 0.0744252 0.011167185 0.076141395 -0.06491902 -0.034767114 0.05451778
-0.0021417558 -0.09676924 0.019601576 -0.07930239 -0.057734393 -0.098818414 -0.09818001 -0.0077502034
0.03331963 0.022590088 -0.049104817 0.06550885 0.0673219 -0.012686101 -0.09552946 -0.04191675
-0.04488 -0.06697515 0.048110325 0.022650125 -0.008132814 -0.054185364 -0.107237376 -0.034797266
0.028664347 -0.0045456095 -0.08740634 -0.13226448 -0.08118087 -0.11214619 -0.021985708 -0.15025531
-0.0635745 -0.110123836 -0.03511435 -0.13988017 0.062393777 -0.030402143 -0.09466695 -0.11579477
0.017548246 -0.00429447 -0.107095905 -0.12783639 0.07602727 -0.045644157 0.065961 0.07247003
-0.057854228 -0.0016403584 -0.12034041 -0.11239417 -0.0076631764 0.031432234 0.035805535 -0.11842648
0.07025838 -0.104150966 -0.02927847 0.012825175 -0.06584859 -0.19958752 0.060998287 0.08373892
-0.082346305 0.020283092 0.0042143543 -0.10619003 -0.026349653 0.12876478 -0.091340445 0.07843945
-0.01600389 0.028410658 -0.013304309 0.08333786 -0.058703568 -0.013646677 -0.08194608 0.005143151
-0.071246445 -0.347959 0.018990742 -0.07314631 -0.03580646 0.09055984 0.06478852 -0.11040911
-0.040078618 0.23538391 0.025809314 -0.060445476 -0.1591669 -0.32445547 -0.1654177 0.12997308
0.09772067 -0.046394806 0.09615313 -0.02405498 0.12642263 0.026644586 -0.06268545 0.017470969
0.10973959 -0.042402826 -0.09803327 0.06194828 -0.10902573 0.17360157 -0.3396637 -0.15971045
-0.17181072 -0.04206921 -0.00045905446 0.029550757 -0.085869595 0.09200202 -0.021526005 0.15726365
-0.2361896 -0.06579782 0.064417444 -0.0042482377 0.026084388 -0.1845764 -0.030205574 0.12928571
0.12367524 -0.10076789 0.17741741 -0.06872161 -0.03214348 0.031474356 -0.022132108 -0.3666182
-0.047434933 0.051011987 -0.07447434 -0.039748713 7.728182e-05 -0.05930932 -0.2958727 -0.011421591
-0.14774619 0.031970743 0.010836031 0.028278427 -0.09244894 -0.11173178 -0.10967925 -0.1241146
-0.010081084 -0.053864192 -0.117371954 0.12122635 -0.055224013 -0.041790325 -0.09074241 -0.04001455
0.1948683 -0.021644093 -0.2069631 -0.30013314 0.12916347 0.07425303 -0.017965717 -0.12597679
-0.019830508 0.08141598 0.07646754 -0.14325099 0.106879786 -0.15368687 -0.07704612 -0.06663257
0.14433357 -0.0049545798 -0.08392182 -0.13633071 -0.110625 0.05994509 0.15778822 -0.14745401
-0.099542245 -0.06690291 -0.04049404 -0.04265471 0.04036866 -0.123533055 0.07887948 -0.06451434
-0.16413225 -0.12201335 -0.006936835 -0.098435305 0.13853876 0.010078578 -0.081262596 -0.15653546
-0.07528612 -0.07072539 -0.015418099 -0.07044307 -0.09857831 0.09345008 -0.07633692 0.23160529

6.bias f4 [32]
00000000: 99a5 e1bd 21e0 d9bd d82c 973d 32e4 abbd
00000010: f3de 00be 32b2 bf3b 46ac 05be 596c f1bd
00000020: c9de 8ebd a9f0 653d 68e5 1f3e c1c1 803d
00000030: d5c7 083e b85e b63d 5a07 c23c 81ff a0bd
00000040: 97d0 edbd 13a7 be3d 4034 09be 63f3 783c
00000050: fdb7 12be 822e 073e f03c 23bd db85 fa3c
00000060: f6b5 f7bd 1cbb d53d cb86 8e3d 8f0a 933d
00000070: 5490 a3bd 0b14 b03d bda7 07bc afbc 43be
-0.11017913 -0.10638452 0.073816 -0.08393134 -0.12585048 0.0058501 -0.13053998 -0.11788244
-0.06976087 0.056137715 0.15614855 0.062869556 0.1335748 0.08904785 0.023685146 -0.078612335
-0.11612051 0.09309211 -0.13398838 0.015194747 -0.14327998 0.13201335 -0.039853036 0.030581405
-0.12095253 0.10436079 0.069593035 0.07179748 -0.07986513 0.08597573 -0.008279738 -0.19114946

9.weight f4 [16, 32]
00000000: c3cc d03c a1f6 19be f074 973c c636 82bd
00000010: b295 423e 9cdd 7dbe 4ad1 3abe a56b 13bd
00000020: 7f93 ba3c 2368 a1be 0fd1 c33c e107 6abe
00000030: 8553 b5bd fa2c 0fbe 1ccc 97be c2f1 c73d
00000040: c315 273e 2d47 3ebe 6c0a f13d 907a 543d
00000050: db49 99bc 62a4 1c3e d581 05bd c530 a2bd
00000060: 005a 2ebd e922 083e 3ce8 043e 6162 eabc
00000070: f690 9abe 2f16 06bd 683b 573c cd5d 37be
00000080: 8181 18be ec48 91bd f57f 4abe cf56 95bd
00000090: 30db aa3b 864a 07be c782 acbd 3df1 0abe
000000a0: 6056 09be 4be1 1abe f48d 48be 8941 7c3d
000000b0: 95f3 69bd 1577 64bc 6c99 12bd a563 c5bd
000000c0: e090 0a3e 6a2c ddbd 8418 173d 3ea7 6ebd
000000d0: 079c 693d 9185 c53d f7a4 263d 2891 46bd
000000e0: f5ad b2bc a725 58be 1843 4f3d 9f56 5fbd
000000f0: a566 13bd b9c9 4bbe f328 f2bd 79d2 6cbd
00000100: 387b 423d b503 84bd 1f46 dbbb 7b7c 5c3c
00000110: e39c b4bd 7155 523b 5f08 a53d 9c90 25be
00000120: ec9c 12be 6d10 aebd 824b c23d 65ad 41be
00000130: cf7e cf3d 28c0 5fbd 888d 19be 152c 723c
00000140: f875 1d3d 7ca7 65be 88d6 a03d 3097 27be
00000150: b7e7 f03d eddc bb3d 4477 9bbc a214 41be
00000160: 558c 19bd 2dd2 bdbd e21a 053e ea75 183d
00000170: eaa3 ad3d c20d 44be 64d3 b6bd cfa6 003e
00000180: 24e0 dabd aaa6 2dbe d07f 94bd bc9c 54be
00000190: d6f3 a73d b823 2bbd f70c 303e d60a b23d
000001a0: a171 ebbd 234a 15be e836 6ebc 57e8 d53d
000001b0: 7486 38be b5e9 863d 0b5c 5abe 14e2 11be
000001c0: eea0 5dbd 086b 07be fb99 19be b850 52bd
000001d0: 9b54 e73d cbb6 2bbe 53fa 4cbe 0df6 273d
000001e0: 4255 97bd bdd9 85bc 3cfd a3bd d7a2 2ebe
000001f0: c6fb 00be 5b9e 993d 044b 33be 07a9 9bbd
00000200: 297e 5fbd e1b4 de3d 7972 91be 860b 96bd
00000210: 8f7f 83bd a72c 09bc c4e1 acbd 2e00 69bd
00000220: 50d3 12bd 8db0 d3ba c7c9 113e d96a 8d3d
00000230: d0f1 75be 771a 653e e908 893c a9d9 de3c
00000240: 6c4d f2bd 212f 78bc 5ba3 093e 609e 9dbe
00000250: cc5b 873a f9bf cfbe b2a0 223c b5c0 0abe
00000260: bf0b 41be adc7 bfbe ef75 08be cc57 c63d
00000270: c092 a6bd 733a cc3b bbe0 50be 1012 07be
00000280: 1d86 a63c 919c 03be 2313 93bc fe14 17bd
00000290: 4d51 cdbd 42dc c7bd d773 0dbe f9ca f5bd
000002a0: 923b 12bd c691 cbbd 10fa 063e 3d3d d9bc
000002b0: 9cb0 613d 7c71 8cbe cbb5 94be ba1b 68bd
000002c0: d67c f63d 257f 05bd f7c2 01be ca8b 85bd
000002d0: 68a4 6cbe a176 f63d 087f 8cbe c2d5 2b3d
000002e0: 08e4 d2bc 92e1 0c3e 5ef4 563c f54f 61be
000002f0: 9f2b 79bc 53ff f73d 0bfb c5bc 18ae a8bd
00000300: 7872 08be 8aa0 523a d736 21be 8ae3 e23d
00000310: a78e 23bd dde6 04be a64a 18be 4d94 e23b
00000320: c985 d2bd 2bbe 013d 6bda 5bbd 10ad 313e
00000330: d937 73bd 6676 943d 4940 25be be3c 2dbe
00000340: 31b6 063e be89 9e3d 08e2 b4bb 3507 823d
00000350: 5783 3dbb 6503 9f3d cf4a 6f3d 0afa 143e
00000360: 2061 2c3d da9c ec3d ecb4 953c 1d14 af3d
00000370: 7bb7 1cbd 7ad6 c1bd ec30 713d d92d c23d
00000380: ca0f 1b3e 0c73 d33d c119 ff3c 231f f13c
00000390: bb4c 883d d849 05be 8637 bd3d 8602 69bd
000003a0: c747 24be 2148 a03c 4e30 1ebe 8f46 93bd
000003b0: 8a81 21bd a808 853c 69f3 50bd 0ec6 7bbd
000003c0: 5593 ee3d 64f0 36be 8d99 f3bd 6ade 3ebe
000003d0: 89bc e23c f1b2 16be c5a1 44bd 72c7 23be
000003e0: 4456 e8bd 3b28 8a3c 74c0 da3d ff28 80bd
000003f0: 8de8 b13d 9204 96bc 0803 d9bd cf67 f3bd
0.025488263 -0.15035488 0.018488377 -0.063581035 0.19002417 -0.24791569 -0.182439 -0.03599133
0.02277541 -0.31524763 0.023903398 -0.22854568 -0.08853821 -0.13982001 -0.2964791 0.097629085
0.16316895 -0.18581839 0.11769566 0.051874697 -0.018711975 0.15297082 -0.03259452 -0.07919458
-0.0425663 0.13294567 0.12979215 -0.028611364 -0.3018872 -0.032736 0.013136722 -0.17906876
-0.14893152 -0.07093987 -0.19775374 -0.07291948 0.0052141175 -0.13212022 -0.08423381 -0.13568588
-0.13411856 -0.15125005 -0.19585401 0.061585937 -0.057117064 -0.013944407 -0.035790846 -0.09638146
0.13531828 -0.10799487 0.036888614 -0.058264963 0.057033565 0.096446164 0.040684666 -0.048478276
-0.021811465 -0.21108113 0.050601095 -0.054525968 -0.03598656 -0.1990117 -0.11824217 -0.05781791
0.04748079 -0.064460196 -0.0066917087 0.013457413 -0.08818986 0.0032094384 0.08058237 -0.16168445
-0.14317673 -0.08499227 0.09487058 -0.18913801 0.10131609 -0.054626614 -0.14995396 0.014781018
0.038442582 -0.22427171 0.078534186 -0.16366267 0.11762946 0.091729976 -0.018977769 -0.18855527
-0.037487347 -0.092686035 0.12998536 0.037221827 0.0847853 -0.19145873 -0.08927038 0.12563632
-0.10687283 -0.16958109 -0.07250941 -0.20762914 0.08200805 -0.04178211 0.17192446 0.08693473
-0.11496282 -0.14579062 -0.014539458 0.10444706 -0.1802004 0.06587545 -0.21324174 -0.14246398
-0.054108553 -0.13224423 -0.15000145 -0.05134651 0.11295434 -0.16768949 -0.20017366 0.041006137
-0.073893085 -0.016339177 -0.08007285 -0.17054306 -0.12596044 0.07500907 -0.17509085 -0.07600599
-0.054563675 0.10874344 -0.28407648 -0.07326417 -0.06420814 -0.008372462 -0.08441499 -0.056884937
-0.035846055 -0.0016150639 0.14237128 0.06905145 -0.24018025 0.22373377 0.016727882 0.027203398
-0.11831173 -0.015147955 0.13441221 -0.30784893 0.001032704 -0.4057615 0.009926008 -0.13550074
-0.18852137 -0.37457028 -0.13326238 0.09684715 -0.08133459 0.0062325536 -0.20398228 -0.13190484
0.020327622 -0.12852694 -0.017953461 -0.036885254 -0.100252725 -0.09758808 -0.1381372 -0.120016046
-0.035701342 -0.099399135 0.13181329 -0.026518459 0.05510007 -0.27430332 -0.29044947 -0.056667067
0.12035529 -0.032591958 -0.1267203 -0.06520803 -0.23109591 0.120343454 -0.27440667 0.041951902
-0.0257435 0.13757923 0.013119785 -0.22003157 -0.015208154 0.12109246 -0.024167558 -0.08236331
-0.13324916 0.00080347864 -0.15743576 0.11078556 -0.039930966 -0.12978692 -0.14872226 0.0069146515
-0.10279424 0.0316755 -0.053675096 0.17351174 -0.059379432 0.07249145 -0.16137804 -0.16917703
0.13155438 0.07741116 -0.005520109 0.06349031 -0.0028917396 0.07764319 0.058420952 0.14548507
0.042084813 0.115533546 0.018274747 0.08548758 -0.038260918 -0.09464736 0.058884546 0.09481401
0.15142742 0.10324678 0.03114021 0.029433792 0.0665526 -0.1301645 0.09239106 -0.056887172
-0.16043006 0.019565644 -0.15448114 -0.07191192 -0.03943018 0.01623948 -0.051013384 -0.061468177
0.11649195 -0.17865139 -0.11894522 -0.18639532 0.027677791 -0.14716698 -0.048005838 -0.15994051
-0.11344579 0.016864887 0.10681239 -0.062578194 0.08686934 -0.018312726 -0.10596281 -0.11885034

9.bias f4 [16]
00000000: ac98 3e3d dc9a 0dbd bcc4 8fbd 2513 01bd
00000010: 2188 3a3d bb4d 173d 48f3 1fbe d144 9dbd
00000020: 130c febc 3c46 1f3d 6020 a33c 5b66 04be
00000030: 0f1c 46be f915 2dbe 604f 383c d9c3 1abe
0.046532318 -0.034571514 -0.07019946 -0.0315124 0.04553998 0.036939364 -0.15620148 -0.07679141
-0.031011617 0.03888534 0.019912899 -0.1292967 -0.19346641 -0.16902913 0.011249393 -0.15113772

12.weight f4 [2, 16]
00000000: 1b4d 5bbd 9ebb b53d afc7 403e f479 3cbd
00000010: b28a 4f3d 6dc6 65bb 4db8 c1bd 69a4 09be
00000020: d3a0 3f3e 2006 413d 4700 b8bc 5671 8cbd
00000030: a38e d9bb a8ab bc3c ec0c cfbb e27a 83bb
00000040: 335e 5d3c d539 c4bd 210e 98bd fabb 9bbd
00000050: 9206 06bd 2e81 553d f623 75bc 6e5d 0ebe
00000060: 531e 0ebe a5db 0a3d 96c3 eabc f42f 50be
00000070: f400 253c 2b82 b83d bb8a 80bc 75db 433e
-0.05354033 0.08873676 0.18826173 -0.04601474 0.05066938 -0.0035060898 -0.09458981 -0.13441624
0.18713693 0.047124982 -0.02246107 -0.068575546 -0.006639318 0.02303107 -0.006318679 -0.0040124515
0.013511228 -0.09581343 -0.0742457 -0.07604213 -0.03272111 0.05212515 -0.014962187 -0.13902828
-0.13878755 0.033900876 -0.028657716 -0.20330793 0.010071028 0.090092026 -0.015691152 0.19126685

12.bias f4 [2]
00000000: b500 c63b 2100 9f3b
0.0060425648 0.0048523103
