model_save/LSTM2.pth (torch, 34003 bytes, 9 tensors)

encoder.lstm.weight_ih_l0 f4 [120, 1]
00000000: 7d79 b83c 3ed5 cdbd ecf4 bdbd cfeb 2bbe
00000010: c778 e93d 813c 08be 1b89 20bd a6f0 203d
00000020: b5de 983c 777b e63d 710d e6b9 f9cb 03be
00000030: 37d2 a13c 4dbb b6b9 d8f6 06bd a95b 183e
00000040: 60c1 9b3c dfc4 043e a679 21be 3804 473c
00000050: 5b77 b53d 0df7 3e3d e693 ecbc 38ea b03d
00000060: 460f 5dbc d9f8 d9bd 9c89 6a3d 3305 52bd
00000070: 944a 1bbd 14ad b8bd 6bb9 ea3d 556e 413e
00000080: 5855 243e e5ba ce3d 8438 4dbc 0066 393e
00000090: 3a92 a6bd e46f f53c 8135 e43d e6c6 b5bd
000000a0: 8bb3 20be 54d7 053e c442 3dbd 7924 91bc
000000b0: e7b5 583d 1efe 4dbe 39e7 3b3e 6c9e ca3c
000000c0: e3c0 26be 4182 86bc 98aa ccbd 8f08 98bd
000000d0: a6a8 f13d 7db4 da3d 4722 1fbd b0ef 2a3e
000000e0: 31e8 5dbd 9fe2 69be 602c 043e 8d1c 353d
000000f0: c2d2 d5bc c7ea 283b 7644 ddbd 9267 76bc
00000100: 5d44 6fbc a4aa 293b 1311 a83d 9ea3 fdba
00000110: d6c1 953d d7c5 143c b3f5 89bd f4f0 073c
00000120: afaa 71bb 1874 143c a98c c3bd 1b48 cf3b
00000130: bb4a 433c 2232 253e b9c3 0bbc 5ec7 f83d
00000140: da38 40bd 539f abbd d9ca 883d 29b9 d63c
00000150: 9c67 0abd 5a28 d53d c56c ee3d dd61 92bc
00000160: 6ad1 97bd 4d8b 323c bf61 593d bc14 24bd
00000170: 736c 8d3d 00f3 12be 209f 9f3d f35a 693e
00000180: ea40 db3b fe95 80bd 8a91 49bd 7316 12be
00000190: f1d9 80bd d636 453e 1e26 14be a147 a93d
000001a0: 775a f83c f078 e93a ce60 edbb 2b24 abbc
000001b0: 91ca c13d 1a17 92bd 8ef8 40be b53b a4bd
000001c0: a6b2 373e 9a6c 17be f66b 423d 2f45 f4bd
000001d0: 5a7e 78bc 711a 353c d673 483d a68b f5bd
0.022518868 -0.10050438 -0.09275231 -0.16789173 0.113999896 -0.1330433 -0.039193254 0.039292
0.018660882 0.11254018 -0.00043879033 -0.12870778 0.019753559 -0.00034853295 -0.032950252 0.14878716
0.019013107 0.12965725 -0.15769061 0.012147002 0.08860656 0.046622325 -0.028879117 0.08638424
-0.013492411 -0.10643167 0.05726014 -0.05127449 -0.03791292 -0.09017387 0.11461147 0.18889745
0.16048181 0.10094241 -0.012525681 0.18105316 -0.08133359 0.02996058 0.111430176 -0.088758275
-0.1569349 0.13070422 -0.04620625 -0.017717587 0.05290785 -0.2011647 0.18349923 0.024733745
-0.16284518 -0.016419532 -0.09993476 -0.074235074 0.11799745 0.10678957 -0.03885105 0.16692996
-0.054176513 -0.22840355 0.12907553 0.04421668 -0.026101474 0.0025774704 -0.108040735 -0.0150393415
-0.014603701 0.0025889063 0.08206382 -0.001935113 0.07312362 0.009080372 -0.067363165 0.008297194
-0.0036875417 0.009060882 -0.09548313 0.0063257343 0.011919673 0.16132405 -0.008530551 0.12147401
-0.046929218 -0.08379998 0.06679315 0.026211338 -0.033790216 0.10408087 0.1164184 -0.01786893
-0.074129894 0.01089747 0.053071734 -0.040058836 0.06905451 -0.1435051 0.077940226 0.227886
0.006691088 -0.06278609 -0.049211062 -0.14266376 -0.06291569 0.192592 -0.14467666 0.08265615
0.030316574 0.0017812531 -0.007244206 -0.02089127 0.094624646 -0.071333125 -0.18844816 -0.08019201
0.17939243 -0.14787522 0.04746624 -0.11927258 -0.015166843 0.011053667 0.048938595 -0.119895265

encoder.lstm.weight_hh_l0 f4 [120, 30]
00000000: 2a25 d8bd 3323 fbbc 9ffd 40be 1228 df3d
00000010: e505 0a3d 08f9 363e 404a f1bd 4b2f 283d
00000020: 7c48 d83c 6a2a 043e e4f7 e6bd 200d 383e
00000030: 4eb8 a03d 1598 18be b1f1 293e 09cf abbd
00000040: 6597 9c3d b11f 313e a9c9 10bd c84a dcbd
00000050: dd65 97bd 939d 233e f512 44bd 039d cd3d
00000060: 8b5e 19be ebe4 5b3e 25c5 1a3e 4e1f 733e
00000070: ff80 d33d f710 1e3e 4941 68be 6bb6 f7bd
00000080: 326e cfbd 75f7 27bc c43e 44bd e11d e83d
00000090: 55bb cbbc 37b4 9f3d 0530 2bbd 7f74 72bd
000000a0: 7f71 e33c 593f 2cbe 2140 b8bc 5e1f 14be
000000b0: 868d 4e3c bffc 073c 4a74 ee3d db62 11be
000000c0: 1bdd 313d 2205 c8bb e770 993d f375 b03d
000000d0: efe7 8dbd eb9c 00be 2d05 be3d 67f2 143e
000000e0: 9278 303d 7e09 9c3d 413b 3b3d 009a 293e
000000f0: b436 a63c 50c4 5b3d e7ac 17be 4b13 653e
00000100: 473a 4dbe a1fb 55bd 0420 babd 2273 1cbe
00000110: d1b4 4a3d 1df5 84bc 1fa4 4c3b 1f86 2f3e
00000120: f930 903d b94b 0e3e 9f0d 07be a55d 193e
00000130: b852 1f3e 74f5 73bd d71a a33d d05c a23d
00000140: 1fc6 cb3d d08e 463e c3dd 433e cd33 693d
00000150: 108e fbbc 53dd f63d f199 283e b17d 9a3d
00000160: 369e d2bd 3811 653d 5943 43bc aefb 5abd
00000170: 334a 2abe 7763 483e 0602 563d 5493 1a3e
00000180: f62e 2dbe a651 4ebe 14bd 3e3e acee d93c
00000190: d9df 183e f828 a9bd 8576 f5bd c9e4 34be
000001a0: 1218 e8bc 578e 343e aab0 9f3d d06f ac3d
000001b0: 4dd8 5c3e 7182 c0bc 0a76 18bd 76fd 003e
000001c0: 6c06 683d 48a9 10be d120 003e 2d63 1ebe
000001d0: aa1e 1b3e 41c0 513c 743f 2a3e 0761 18be
000001e0: 162c 9dbe 6656 6b3e 0698 693d 7fcc 3e3e
000001f0: b33b 22be d59b ce3c 0c0d c13d 1fd7 3fbe
00000200: 5dd2 92ba 6233 8ebd 189e 12be 791f db3d
00000210: 7a2f 103e 893b e43d 6903 3abe 7509 263e
00000220: 3b95 dbbd 5421 df3b 784d 163e b976 7c3d
00000230: 4592 85bd 08e3 023e 5963 813e 8912 37bd
00000240: 31f5 953d 8090 643d d5ed c9bd b276 083c
00000250: b997 b23d f314 4b3d 9601 33be 91aa 863e
00000260: 3830 303e 7168 923e 3e6f 1dbe 1c29 063e
00000270: 7979 16be 9d0f acbd 279f df3d 8b81 d2bd
00000280: cc67 653b 589e a43d bb40 60bd d221 20be
00000290: beb8 7cbd f8e6 9c3c 3139 0b3e 6623 c0bc
000002a0: 43c7 1e3e 56fd 1e3e c38a ad3d 206c 2e3e
000002b0: f823 84bd 6cbd bd3c c826 2f3e 9e73 123e
000002c0: f5c1 743d e072 e53d 3d91 873d 55c8 d23d
000002d0: 6a44 d4bd ce9a b53d dbdd 7bbe 84ec ad3e
000002e0: f0b3 b83d f93b 153e c060 5cbe a002 d6bd
000002f0: c936 053e 7028 4bbe 8a77 993e 120a 1c3e
00000300: 2e47 f33d 534c 3cbc afbf 153e 0a17 b23e
00000310: 3d04 833e ceda 19be 42c3 8abd 4acd eb3d
00000320: c7a5 d5bd 2383 f03d 4a1e 433e 0cfd 3ebe
00000330: 6fe3 9c3d c0fc 933e 0be7 7cbd 8190 903e
00000340: 3381 863e aab5 f0bc 52f1 97be d189 063e
00000350: 849b 73be ae43 d43d f928 aebd 0753 403c
00000360: 3509 8d3d a0cb f1bd 08c8 293e ed18 44bc
00000370: f55c fe3c 21d7 533b a00a 02bd 6825 d6bd
00000380: 0907 a2bd b72c ac3e 2823 6f3e 40cd 01be
00000390: c1b4 43bd 295f 6abd 8b6a 103d f714 823e
000003a0: d959 1d3e 60ae b13c abb4 93bd fca3 8f3e
000003b0: 5050 943c f446 0dbc 9b8f 553d 51ef ac3e
000003c0: 83b2 8ebe b5a0 703e c618 cebc ecac 6d3d
000003d0: 77ae 09be 7432 a3bd 36fe 22be ec46 4cbe
000003e0: ce6e 9c3e cd2e 64bd a01f f9bc 0d7a c53d
000003f0: 5b89 0fbe 65be acbd 7f8f d23d 98a1 1a3e
-0.105539635 -0.030656433 -0.18846749 0.10896315 0.033697028 0.17868435 -0.1178174 0.041060727
0.02640175 0.12906805 -0.1127775 0.17973757 0.07847653 -0.14901765 0.16596104 -0.08389098
0.07646064 0.17297246 -0.035348568 -0.10756451 -0.07392476 0.15978079 -0.04786964 0.10039713
-0.14977472 0.21474044 0.15114267 0.2374241 0.103273384 0.15436159 -0.22681154 -0.1209534
-0.1012844 -0.010251869 -0.04791142 0.11333824 -0.0248696 0.07798045 -0.041793842 -0.05919313
0.02776408 -0.1682104 -0.022491517 -0.1446509 0.012606984 0.008300005 0.11643274 -0.14197867
0.043423753 -0.0061041275 0.074922375 0.08616247 -0.069290034 -0.1255986 0.09278331 0.14545594
0.043083735 0.07618998 0.045710806 0.16562653 0.020289756 0.053654015 -0.14812051 0.22370641
-0.20041762 -0.052241925 -0.09088138 -0.15278295 0.049488846 -0.01623016 0.0031225753 0.17141007
0.07040591 0.13896073 -0.1318879 0.14977129 0.15558898 -0.059560254 0.07964104 0.07927859
0.09949898 0.19390416 0.19127564 0.056934167 -0.03070739 0.12053933 0.16464974 0.07543505
-0.102840826 0.055924624 -0.011917912 -0.053462677 -0.16629867 0.19569193 0.052248023 0.15095264
-0.16912445 -0.20148334 0.18626815 0.026603065 0.14929141 -0.08259767 -0.119854964 -0.176654
-0.02833179 0.17632423 0.07797368 0.08419764 0.21566887 -0.0234997 -0.037221946 0.12596688
0.05664675 -0.14127076 0.12512518 -0.1546752 0.15148416 0.012802185 0.16625768 -0.14880763
-0.30697697 0.22982177 0.057029746 0.18632697 -0.15843086 0.02522079 0.094263166 -0.18734406
-0.0011201609 -0.06943394 -0.1431812 0.10699362 0.14080611 0.11144168 -0.18165363 0.16214545
-0.10721823 0.006809393 0.1467799 0.06163666 -0.06522039 0.12781918 0.2527111 -0.04469541
0.07322157 0.05580187 -0.09859816 0.00832908 0.08720345 0.049580526 -0.17481074 0.26302007
0.17205894 0.28595307 -0.15374467 0.1310162 -0.14694776 -0.084014155 0.10919028 -0.102786146
0.0035004495 0.08038014 -0.05474923 -0.15637901 -0.06169962 0.019153103 0.13596036 -0.02345438
0.155057 0.15526327 0.08473732 0.17033434 -0.06452173 0.023161612 0.17104638 0.14301917
0.059755284 0.11203551 0.06619499 0.102921166 -0.103646114 0.08867417 -0.2459635 0.3396951
0.09018695 0.14573659 -0.21521282 -0.104497194 0.1300918 -0.19839644 0.29974014 0.15238217
0.11878811 -0.0114928065 0.14623903 0.34783202 0.2558917 -0.15024874 -0.06775524 0.11513765
-0.1043201 0.11743762 0.19054523 -0.18651217 0.07660567 0.2890377 -0.061743777 0.28235248
0.26270446 -0.0293835 -0.296763 0.1313851 -0.23789793 0.103644714 -0.08503909 0.011738545
0.06886522 -0.118064165 0.16580212 -0.011968833 0.031050185 0.0032324272 -0.031748414 -0.104563534
-0.07911498 0.33627865 0.23353255 -0.12675953 -0.047779802 -0.057219658 0.035257857 0.2540662
0.15366305 0.021689594 -0.07212194 0.28054798 0.018104702 -0.008622874 0.052138906 0.33776334
-0.2787057 0.23498805 -0.025158297 0.05802624 -0.1344546 -0.079686075 -0.15917286 -0.1994893
0.30553287 -0.055708695 -0.030410588 0.0964242 -0.1401724 -0.084347524 0.10281276 0.15100706

encoder.lstm.bias_ih_l0 f4 [120]
00000000: a401 2dbe 7897 15be f8a5 a6bd 5e56 50bd
00000010: 2d7a 2fbe 82b5 73be d15d d0bd b264 43be
00000020: c5c4 8ebe c2d1 93be a6f3 86be 0d35 fdbd
00000030: 858a 58be 8450 63be 9f2a ecbd e468 273e
00000040: 187c f23d 4fbd 7bbe 7c9e 653c a6ba b0bd
00000050: c823 ccbd ac8a 743d 0e94 bfbd 4705 62be
00000060: b2ef b7be 490b 0f3e d3eb 16be 0c23 013e
00000070: c99c 20be 868d 75be 3a70 c6bd c2c7 43bd
00000080: bb67 00bd b7fa bf3c 8105 80be 801b 71bd
00000090: 8d75 82be e6e9 5fbe 9a2b 0ebe f7bb 03be
000000a0: 7c67 7abd 1f26 82ba 1101 83bd 4139 83be
000000b0: 8d16 42be bfe4 f43d ef3e 403c f5e6 70bc
000000c0: fec9 29be b586 81be 5b53 88be eb09 29be
000000d0: 929d 8b3d 4743 4bbe 9554 8e3d 7b8b 003e
000000e0: 36fd 07be cf2d 10be 8108 f9bd 008e 3bbe
000000f0: 44b8 263e 1988 0e3d 8d5a 8b3d 712a 24be
00000100: 8e28 8f3d e9c0 ff3c 2e71 5e3d e5e7 653c
00000110: 3b26 d13c f49c d73d 547e 13bc f17f d93d
00000120: b809 72bd 428c 99bd 4b49 6fbc d73b 86bd
00000130: aca5 2bbe 0e62 ddbd 3833 e33d 42e0 f23d
00000140: 4ca0 dc3c f924 b7bd dc38 e6bd c00f 8cbd
00000150: c0fd 4c3d 3288 0dbe 011d 56be 2dff 4abe
00000160: edd7 cebd 0b93 60bd 91ea d43d a5f6 033e
00000170: f8bd debd f80f 29bd edc7 9dbd 5d05 b33d
00000180: 5f62 d6be af96 4abd 7c9c 143e 34f9 98bd
00000190: 365f 1e3b e4fb 66be 61d9 2a3e 0ced b2bd
000001a0: 9b77 35bd 0a43 6b3d 4350 efbd 668d 98be
000001b0: 7ade 64bd 91bc 06be 064a 40bd bc31 7cbe
000001c0: 6a70 5cbe f259 b2bc df93 18bd df9e 60be
000001d0: 3a37 1d3d cd1f 1e3e d696 30be aeba 0d3e
-0.16895157 -0.14608562 -0.08137125 -0.050863616 -0.1713645 -0.23799708 -0.10174144 -0.19081381
-0.27884498 -0.2887097 -0.26357764 -0.12363634 -0.21146591 -0.22198683 -0.11531567 0.16348606
0.11840075 -0.24583934 0.014014836 -0.0862935 -0.09967762 0.05970256 -0.09354411 -0.22072326
-0.3592506 0.13969149 -0.14738397 0.12611026 -0.15684809 -0.23979768 -0.09689374 -0.047797926
-0.031348925 0.02343498 -0.250042 -0.058864117 -0.2548031 -0.21866569 -0.1388382 -0.12864672
-0.061133847 -0.0009929574 -0.06396688 -0.2562962 -0.18953915 0.11957692 0.011733755 -0.014703502
-0.1658096 -0.25298086 -0.26626095 -0.1650769 0.068171635 -0.19849883 0.069497265 0.12553208
-0.13280186 -0.14079975 -0.12159825 -0.18315887 0.1628123 0.03479776 0.068043806 -0.16031815
0.06990157 0.031219916 0.054307155 0.014032339 0.025530925 0.10527983 -0.009002287 0.10620106
-0.0590913 -0.07497455 -0.014604877 -0.06554382 -0.16762418 -0.10809718 0.110937536 0.1185918
0.026931904 -0.08942599 -0.11241314 -0.068389416 0.050046682 -0.13821486 -0.20909502 -0.19823904
-0.10099778 -0.05482773 0.103963025 0.12887056 -0.108760774 -0.041274995 -0.077041484 0.08741257
-0.41871926 -0.04946011 0.14512819 -0.07469407 0.0024165637 -0.22557026 0.16684486 -0.08736619
-0.044303518 0.05743698 -0.116852306 -0.29795378 -0.055876233 -0.1315787 -0.046945594 -0.24628347
-0.21527258 -0.021771405 -0.037250396 -0.21935605 0.038382746 0.15441819 -0.1724504 0.13840744

encoder.lstm.bias_hh_l0 f4 [120]
00000000: 4c4c 803c e5b7 8a3b e85c 5ebd e34f b8bd
00000010: 4ad1 51bb 31f0 f5bc ccef 41be 49cd 04be
00000020: 3d45 28be 849c 3fbe 7cc9 2fbd a883 7bbe
00000030: fcaa 39bd 3408 88be abec 833a 2e72 153d
00000040: 2750 4bbd 881d a9bd 1841 843d a4c4 cbbd
00000050: c8d5 5dbe d7a5 7b3c 5436 d63a f108 d7bd
00000060: d707 42be c572 07be d463 823d 7ffb dabd
00000070: fcee 7fbe 452b adbd 081f 08bd 987f acbc
00000080: 2aa4 c4bd 4ce6 94bd f11f 80be 91ed 36bd
00000090: 6c04 b5be 9cde 46be 0623 81be 8e11 1e3d
000000a0: dcd1 5dbe 3845 83be bb05 383d 0ad3 04be
000000b0: eccb cfbd 9d16 df3d 2952 c7bd 52ef 3abe
000000c0: 8021 8e3d e9c6 7bbd 1fa9 6cbe cdfb 913d
000000d0: f007 46be 1573 3fbe c49b 74bd 23fc d23d
000000e0: d551 9dbd 4e2f 46be cdef 03be 4383 89bd
000000f0: 78fb 2c3d 4dab ebbd 6396 f13c 8719 9bbd
00000100: 22f0 383d 78ec 15bd a612 a83d 4aa2 f53b
00000110: 03fe e7bd 224a a1bd 2af4 51bd a4c3 debd
00000120: 8ec0 c53d f3ff 6e3d 97e7 06be 6c4d a0bd
00000130: 5eed 01be 3a52 313e b64a 9abd 0470 34be
00000140: 2ba4 8e3d 2f33 4dbe cdf9 05be 3dcb ad3a
00000150: 7e63 84bd 78ce 54be 603b 2cbe bd81 333d
00000160: 140c 3abc b349 ba3c 5a5b a23c 2ab1 8abc
00000170: 4d00 7cbe 354c b4bd 73f7 3cbe 55ed 80bd
00000180: 6c1f a9be dda7 463e 8dda d0bd 988c 163d
00000190: ac9f b9bc 3509 5ebe 7a37 083d 541b 7abe
000001a0: 04bf fbbd d0ac 33be 2293 13be a2de 86be
000001b0: b847 23be 8279 48be 5fd5 febd 49ac aabd
000001c0: fc03 3cbe 544a 3e3d 2608 2cbe 0f4e a5bd
000001d0: 2b97 00be b9a8 1f3e 17b8 0ebd fdb6 ec3d
0.015661381 0.0042333477 -0.05428782 -0.08999612 -0.0032015615 -0.030021759 -0.18939131 -0.12968935
-0.16432662 -0.1871205 -0.04291676 -0.24561942 -0.04532908 -0.26568758 0.0010065039 0.036485843
-0.049636986 -0.08257586 0.06457728 -0.099496156 -0.21663582 0.0153593635 0.0016343095 -0.10499752
-0.18948303 -0.13227375 0.06366697 -0.106925 -0.24993509 -0.08455519 -0.03323272 -0.021056935
-0.09601624 -0.07270488 -0.2502437 -0.044660155 -0.35354936 -0.19420856 -0.25222033 0.03859096
-0.21662086 -0.25638747 0.04492734 -0.1297113 -0.10146317 0.10892985 -0.09732468 -0.18255356
0.06939983 -0.061468992 -0.2311139 0.07128105 -0.19338965 -0.18696244 -0.059718862 0.103019975
-0.07681624 -0.19353983 -0.12884445 -0.06714489 0.042232007 -0.115072824 0.029490655 -0.07573228
0.045150883 -0.036602467 0.08206682 0.007496153 -0.11327746 -0.07875468 -0.051258244 -0.10877159
0.096558675 0.05834956 -0.13174282 -0.07827267 -0.12688205 0.17316523 -0.07533781 -0.17620856
0.06964906 -0.20039056 -0.13083573 0.0013259422 -0.06464289 -0.20781887 -0.16819525 0.0438249
-0.011355419 0.02274022 0.01981895 -0.016930182 -0.2460949 -0.08803598 -0.1845377 -0.062952675
-0.33031785 0.19399972 -0.10197935 0.036755174 -0.022659145 -0.216832 0.03325603 -0.24424487
-0.12292293 -0.17546391 -0.14411595 -0.2634173 -0.15945327 -0.19577602 -0.12443041 -0.08333642
-0.18360895 0.046457604 -0.16799983 -0.08071529 -0.12557666 0.15591706 -0.03484353 0.1155834

decoder.lstm.weight_ih_l0 f4 [120, 1]
00000000: d95f 5cbf 5d33 023e 213d ef3d 2cff e9bf
00000010: e2df b7bf b252 52bd d72d a83b c26f fd3e
00000020: 7d4d 67bf edf8 f7be 2f7c 28bf d233 a4bd
00000030: 5dcb de3e c24b 073e cebb 88bf 3a99 8f3e
00000040: c37e 53bf 6d9f a7bf 87a2 dd3d 1b86 9cbf
00000050: a2ca ae3e a843 c2bf a565 b2bf 9e30 ccbe
00000060: 0b38 953e b68e 603f f65f 90bf bd81 80bf
00000070: 5811 8cbf b79a 8a3e 3ff2 8bbf 39f4 1bbe
00000080: 4ee9 3f3e 97e7 efbf 59e8 cbbf 564a 6f3d
00000090: 673b 403d a3b9 1b3f 065a a5bf 7e60 3fbe
000000a0: b409 bfbf 4192 73bd a2cc eb3e a982 7c3d
000000b0: ea26 98bf 2be7 24bf c97d 3dbf daba 95bf
000000c0: 0011 ac3c fe55 c7bf 4a86 283e b6fb c4bf
000000d0: c465 b1bf 2d8b 63bf 303d 1d3d fff7 52bd
000000e0: 6209 e1bf 0ce5 6ebf e564 a8bf 51fa a43e
000000f0: e4a1 96bf 2837 4c3f 00fa e5be 1025 e13f
00000100: a732 a3bf 4b32 a43e 5b47 9c3e 9b99 25bf
00000110: 39df 943f fe6e 073f 4a8f 51bf 76a9 73bb
00000120: 4b41 f63e 881a c93e fdfa 913f 88be 4a3f
00000130: 7dc5 8f3f d73d 9ebf ff86 c33d 56a6 b33f
00000140: ee3a d63e 4dec c53f a600 933f e163 2cbf
00000150: 0df6 d7be 4012 5f3f 792c b03f b5da 9e3f
00000160: 8180 b63f 886e b93e b798 153d 918b 92bd
00000170: 33f3 d73e 9e92 98bf 9e74 0dbf f8b6 c43d
00000180: 4a38 543d f18c 3b3e 9deb a4be aeda 33bf
00000190: 7711 92be 79f6 7abd e1b7 d2bc 6196 3d3e
000001a0: a653 eabe 8062 1e3e bfa5 253e 2bf7 03bf
000001b0: 29dd 2cbd 3279 31bf 87b9 923e 5856 0dbf
000001c0: f796 b6be 306c 533d 9851 743e 1bd2 533f
000001d0: 56ba 40bf 181c 73be ed5c f0be 85b2 3a3e
-0.8608375 0.12714906 0.11681581 -1.8280997 -1.4365199 -0.051348396 0.0051324177 0.49499327
-0.9035261 -0.48432103 -0.6581449 -0.080176964 0.4351453 0.13212493 -1.0682313 0.2804659
-0.826153 -1.3095528 0.10822015 -1.2228426 0.34138972 -1.5176897 -1.393727 -0.39880842
0.2914432 0.8771776 -1.1279285 -1.0039593 -1.0942793 0.27071163 -1.0933303 -0.15229882
0.18741342 -1.8742551 -1.5930282 0.0584205 0.04693165 0.60830134 -1.2918098 -0.18689153
-1.4924836 -0.05946565 0.4605456 0.061648045 -1.1886876 -0.64415234 -0.7402006 -1.1697648
0.0210042 -1.5573118 0.16457477 -1.5389316 -1.3859181 -0.8888424 0.03838843 -0.05150604
-1.7580988 -0.9331825 -1.315579 0.32222226 -1.1768155 0.7977166 -0.44917297 1.7589436
-1.2749833 0.3206962 0.3052319 -0.6468751 1.1630622 0.52903736 -0.81859267 -0.0037179864
0.4809669 0.39278054 1.140472 0.7919698 1.1232144 -1.2362622 0.09547233 1.4035137
0.41841835 1.5462738 1.1484573 -0.67339903 -0.4217991 0.8713722 1.3763572 1.2410494
1.4257966 0.3621714 0.036522593 -0.071555264 0.42177734 -1.1919744 -0.5525607 0.09605211
0.051811494 0.18315484 -0.3221101 -0.70255554 -0.2852895 -0.06127021 -0.025722446 0.18514396
-0.45766944 0.15467262 0.16176508 -0.51549023 -0.042203102 -0.69325554 0.2865717 -0.55209875
-0.35662052 0.051616848 0.2385925 0.8274247 -0.75284326 -0.23741186 -0.46945897 0.18232162

decoder.lstm.weight_hh_l0 f4 [120, 30]
00000000: 7c59 47be 60a7 a0bd 63ae 54be 44a9 8a3d
00000010: 96b0 a1bd 5b52 14be d067 273e 5760 7fbd
00000020: 9949 b3bc b45e 523e 5e0a 21be 270b 2dbe
00000030: e29a cdbd 24a4 4d3d 1ba6 debd 762a a6bc
00000040: 2c33 303e 4f20 12be 319e 8d3d d7c4 acbd
00000050: cb83 7dbc d0ae b7bd 7540 f63d 7ca1 39be
00000060: 0793 47be 68fc 633e 58c7 a5bd a71b 803d
00000070: 0833 083e 6c95 a33d 977f d4bd 5b6e a13e
00000080: bce6 78be db29 a03e e1cc 93bc 6343 b2bb
00000090: e3c7 f73d 1e69 d63d 274c de3d 9d96 cbbd
000000a0: e079 2cbd bd43 3c3e 9ab3 2abc b0c7 e03c
000000b0: 0edc afbd 7efd b63d 000e 513e 9104 66bd
000000c0: 043c d03d 2147 b8bd b11e c93d 2d82 2a3e
000000d0: 7bce 99bc 2151 5d3d de65 173c f873 d53c
000000e0: e1ff 3b3e aa05 45b9 00f9 2b3d 4157 af3d
000000f0: 88bf 883d 53bb dcbd e33c 203e 44b2 d0bc
00000100: e346 b23d e399 0b3e 645b ad3d af3e 333c
00000110: cc07 e63d 90c4 163d 344e d4bd ad1f b53d
00000120: 3afb 433b a7e3 c83c 0900 09be f15f f33a
00000130: c0ad 16bd 0dd9 bc3c d69d 4f3d 2db0 97bd
00000140: 6c20 3fbe 7550 1cbd 4282 403e 3e43 293e
00000150: db28 173e 012a 20be 8915 213e 9a50 b1bd
00000160: d64e 243d 74e8 d9bd c373 70bc 0816 883d
00000170: b541 213d f074 023e 110b 52be 1f25 a93c
00000180: 3644 0cbd a378 2dbe f3b1 6fbd a66b 0abd
00000190: b593 bfbc 565c 67bd c8e1 2d3e ace3 193e
000001a0: dfa8 0dbe 48b1 23bd 289b 7f3d a175 0fbe
000001b0: 4430 c23d c9e0 e1bd d57f 3bbe adb6 09be
000001c0: cc24 b8bd 4838 1a3e f8d3 10bc 4e96 57bd
000001d0: f8be 143e 8dc2 ccbc 8afa b3bd 598f 453e
000001e0: 4810 2cbe aacd 153e b6ad f5bd 2e5c 1ebe
000001f0: 3a23 e0bd 3168 1dbe 5ff9 f33d 8798 71bd
00000200: d041 063e 96f2 123e 6cc7 313d 4360 0d3e
00000210: a796 5c3e 219d 963d ba4c 15be ce84 bb3c
00000220: b804 4cbd 4687 2bbd ca8c de3d 6f94 f03b
00000230: d3b1 3c3c ca52 273e 61e1 f2bd 873a 013e
00000240: 33d5 f43d 7ecc d9bd ccc3 1bbe 4f43 f2bc
00000250: c6a6 81bd 0adb b8bd 71ad b03c 2734 6c3d
00000260: 643b 3dbe 1bd0 00bd c566 a7bd 134b 453e
00000270: 37b5 01bc c524 203e 1ff1 39be 8f9e ef3d
00000280: 0630 e6bd 31eb 52bd ebb6 27be 5e35 85bd
00000290: 4564 123e cee4 5dbd cfb5 773c c31b 2f3d
000002a0: 3c03 083d ceeb 13be 800f 9cbc 5f86 82bd
000002b0: f7ce aabb 688c 9b3d 04cd 61bd 73e8 393c
000002c0: 691e 63bd dbcb 97bd aec5 ccbc 8c16 dbbd
000002d0: d3b7 2bbe fbad e2bd 6a0e 1e3d fecb 4b3e
000002e0: cd82 7cbe 860f 94bb 8ef4 a4bd 7fd2 17be
000002f0: 1495 013e 2302 0a3e e704 6ebc 1d4a 08be
00000300: 7ae0 33bd c480 00be 55b8 903e 1d64 bdbd
00000310: 47d4 a4bd 9c77 ecbd 3c92 cb3d 1abf 0fbd
00000320: 5540 c53c 7678 bdbd c20f 82bd 3d8c f23d
00000330: 1feb f6bd d4e1 8c3c 976f a73d 85f8 033e
00000340: a11d d23d 0938 3e3d 2ee7 00be 4e24 0b3e
00000350: 23b7 7c3c 97bc cdbd 96ab f43d ffe2 b83d
00000360: 4a18 38be da13 823d 8ca7 283e e376 043e
00000370: ec2e 473d f549 443d 681e 5a3d 09e5 1d3e
00000380: 17dc ff3b 6516 1ebe 0120 b2bd a334 9a3b
00000390: c64a 2f3e 584e 08be 0509 bd3d 7d22 07be
000003a0: 3adc c0bd 4254 c53d b259 233e a2aa 8e3d
000003b0: d400 433e 43c0 26bb c9d7 24be 1a44 e93d
000003c0: 7fa8 a03d d7e1 90bd bac4 f13c b6db 403e
000003d0: e0ae cf3d 49cc 11be 2d5e 64bd b2a1 9ebb
000003e0: 56c1 353e aaaa f9bd 8ebc e3bd 49c7 a63d
000003f0: f149 df3d 67ff 0fbe 9aac 6ebc e35f d93d
-0.1946773 -0.07844424 -0.20769648 0.06770566 -0.07895009 -0.14484541 0.16348195 -0.062347736
-0.02188568 0.20543939 -0.15726611 -0.16898786 -0.10039307 0.050205365 -0.10871526 -0.020283919
0.1720702 -0.14270137 0.06914938 -0.08435982 -0.015473316 -0.0896889 0.12024013 -0.18128008
-0.1948968 0.22264254 -0.080946624 0.06255274 0.13300717 0.07987484 -0.10375898 0.31529507
-0.24306768 0.31281933 -0.01804203 -0.005440162 0.12098672 0.10469268 0.10854369 -0.099408366
-0.042108417 0.18385215 -0.010418797 0.027438968 -0.08586894 0.089350685 0.20415497 -0.0561567
0.10167697 -0.08997942 0.09820307 0.1665122 -0.018775215 0.05403245 0.009240596 0.026056275
0.18359329 -0.00018789494 0.04198551 0.08561564 0.06677157 -0.10777917 0.15648226 -0.025475629
0.08704927 0.13632922 0.08464697 0.010940238 0.11231956 0.03680855 -0.103664786 0.08843932
0.0029904381 0.024522616 -0.1337892 0.0018568021 -0.036786795 0.023052717 0.050687633 -0.0740665
-0.18664712 -0.038162667 0.1879969 0.16529557 0.14761679 -0.15641023 0.15730871 -0.08657952
0.040114246 -0.1064004 -0.014676037 0.06644827 0.039369304 0.1273992 -0.20512034 0.020647584
-0.03424474 -0.1694055 -0.058519315 -0.033794068 -0.023385862 -0.056484543 0.1698066 0.15028256
-0.1383395 -0.03996399 0.062403828 -0.14009716 0.09481862 -0.110292025 -0.18310483 -0.13448592
-0.089913934 0.15060532 -0.0088396 -0.052633576 0.14525974 -0.024995113 -0.08788021 0.19292964
-0.16803086 0.14629236 -0.11996023 -0.15464851 -0.10944219 -0.15371777 0.11912798 -0.058983352
0.13111043 0.14350352 0.043403074 0.13806252 0.21541844 0.07354189 -0.1458005 0.022890475
-0.049809188 -0.041877054 0.10866697 0.0073419134 0.011517006 0.16340175 -0.11859394 0.12619983
0.11954727 -0.10634707 -0.1521141 -0.02957311 -0.06330638 -0.090261534 0.021567078 0.057666924
-0.18479687 -0.031448465 -0.081738986 0.1926692 -0.00791674 0.15639026 -0.18158387 0.117001645
-0.112396285 -0.051493827 -0.16378371 -0.065043196 0.14296062 -0.054173283 0.01511903 0.042751085
0.03320621 -0.14445421 -0.01905036 -0.063732855 -0.0052126604 0.0759514 -0.05512716 0.011346924
-0.055448923 -0.07411929 -0.024996605 -0.1069766 -0.16769342 -0.110683404 0.038587965 0.19902036
-0.24659272 -0.004518452 -0.080544576 -0.14826392 0.12654525 0.13477378 -0.014527536 -0.13309522
-0.04391525 -0.1254912 0.28265634 -0.09247611 -0.08048301 -0.11546251 0.09940001 -0.035094358
0.024078527 -0.09251492 -0.06350662 0.118431546 -0.120565645 0.017197527 0.08175581 0.12887771
0.102595575 0.046440158 -0.12588188 0.13588068 0.015424523 -0.10045736 0.1194679 0.09027671
-0.17978016 0.06351443 0.16470164 0.12935977 0.048628733 0.047922093 0.053251654 0.15419401
0.007808219 -0.1543823 -0.086975105 0.004705982 0.17118368 -0.13311136 0.09230236 -0.1319675
-0.09417005 0.096352115 0.15952185 0.069661394 0.19043285 -0.0025444187 -0.1609794 0.113899425
0.07844638 -0.070743255 0.029512752 0.18833813 0.10140777 -0.14238085 -0.055753876 -0.004841053
0.17749533 -0.12190755 -0.11119948 0.081434794 0.10902775 -0.14062272 -0.014567519 0.10613992

decoder.lstm.bias_ih_l0 f4 [120]
00000000: ba89 e8bd c578 0a3b 49bf d53d 052e 983d
00000010: aa7d bb3c 46d7 be3d b4e6 80be 789d 413c
00000020: 5c49 ecbc d53e 2cbd fb77 353e 60bf 2dbe
00000030: 36d1 cdbb b918 84be 2fa1 0ebe d2a2 abbe
00000040: f557 4e3d 4d17 a73d d997 85bd 729a 76bd
00000050: 1060 7a3d 31b9 013e 9040 e23d cd18 a5bd
00000060: 41b7 f3bd 05da e23c 70de 4f3d f130 6bbb
00000070: 7e8d 2ebe 88f0 edbd 01f5 91bc d831 31be
00000080: a90b 75bd 4f60 c8bc 18ed 06bd 08e3 1d3e
00000090: 85e0 acbd 7de1 fcbd d2c9 fbbc e684 82bd
000000a0: 9a42 92bd 990d 09be 5fca 0f3c d8d9 193e
000000b0: 8501 03be 8520 3e3c 9d25 003e be15 30be
000000c0: a0ee 60be d43b 453c 0fd4 97bd ca4e 3dbd
000000d0: 3ce1 19bd e555 d73d 2ed1 7dbe 4834 ae3c
000000e0: ecf9 bd3d 8699 0cbd 1928 efbd 2a23 18be
000000f0: edbb 093c 650f e8bd db0a 193c f0ff 17be
00000100: 8f0a a53d 44a9 553c 0635 d3bd 80b5 d6bd
00000110: 45b1 34be ab9e b8bd 5c3a 2a3e ec05 83bd
00000120: 0d16 74bd a15b 93bd 3716 0bbe 0663 e63a
00000130: f8f4 8bbd 6a1e 213e 5f48 fa3d fd1c d7bc
00000140: db0b d53d 42bf 19be b1fb 6ebd 5a7e 42bd
00000150: 441d 853d 4c06 e53d 54f5 25be 0868 f6bc
00000160: fb1d 3dbe 77d5 5abd cecd 933c 2b51 33be
00000170: 32cb 0cbe 4822 abbd d6b2 3a3e 029f 83be
00000180: aee4 42be de9e 8dbd 330b ffbd 0397 88be
00000190: d0cc 94bc d050 45bd c14a 11be 4f6f 7ebe
000001a0: 2c75 043e a491 59be 0ff7 37be 492d b4bc
000001b0: 3789 2fbe 2dc3 21be 30ba 62be 2a69 8a3d
000001c0: 8029 0ebe 6bfb 76bd 46a5 41be fae1 cf3b
000001d0: e593 edbb 0249 103e 8d04 0fbe 14f8 61bd
-0.11354394 0.0021129113 0.104368754 0.074306525 0.02288707 0.09318404 -0.25176013 0.011817329
-0.028843574 -0.04205211 0.1772155 -0.16967535 -0.0062810434 -0.25800112 -0.13928674 -0.3352266
0.05037685 0.08158741 -0.06523103 -0.060205884 0.06112677 0.12668301 0.110474706 -0.08061371
-0.11900187 0.02769185 0.050749242 -0.0035887326 -0.17046162 -0.11618143 -0.017817022 -0.1730417
-0.059825573 -0.024459986 -0.032940954 0.15418637 -0.08441261 -0.12347696 -0.030735884 -0.063730046
-0.071416095 -0.13384093 0.008776276 0.15024507 -0.12793548 0.011604433 0.12514348 -0.17195794
-0.21966028 0.01203819 -0.07413494 -0.046217717 -0.037568316 0.1051443 -0.24786827 0.021265164
0.092761844 -0.0343261 -0.1167757 -0.14857164 0.008406621 -0.11331061 0.009340967 -0.14843726
0.080586545 0.013040844 -0.10312848 -0.10483837 -0.17645748 -0.090146385 0.16623825 -0.06397614
-0.05959134 -0.07195211 -0.13582693 0.0017577119 -0.068338335 0.15734258 0.12220835 -0.02625894
0.10402652 -0.15014365 -0.0583455 -0.04748378 0.064997226 0.11182842 -0.16206867 -0.030078903
-0.18468468 -0.053426232 0.018042471 -0.17511432 -0.13749388 -0.08356148 0.18232283 -0.2570725
-0.19032547 -0.06915067 -0.12453308 -0.26677713 -0.018164068 -0.048172772 -0.14188673 -0.24847148
0.12935323 -0.21246964 -0.17965339 -0.02199425 -0.17142187 -0.1579711 -0.22141337 0.0675834
-0.13883018 -0.060298365 -0.18910703 0.006344077 -0.0072502964 0.1409035 -0.1396658 -0.055168226

decoder.lstm.bias_hh_l0 f4 [120]
00000000: 8f44 e73c 87cc 92be 5503 09be 75e7 b73d
00000010: 0036 243d 1599 163d 1f46 763d 6568 07bd
00000020: b6ac 123e fe6c f33c b330 05bd 6f97 8dbd
00000030: 039c 863d 8a9c 31be 6869 273e d2f6 a1be
00000040: 2e4f 6cbd 4c5a 33be 1b7c 90be cd18 023e
00000050: 9aed ddbd 8225 483d 957d 653d cc58 b63d
00000060: 4bd7 59be 82fe 25bc 5c5f fbbd 2593 323b
00000070: 9e25 e2bd 057d d53d 9c60 a13d f5e2 74be
00000080: 6c04 edbb 5e42 2f3d 7f80 2fbe 4a25 30be
00000090: eebb dbba b431 cebd 0969 1bbe 4775 a13d
000000a0: 4433 3abe 5e0d 8c3d 2d09 9a3d da12 783d
000000b0: 9da9 a63d f331 d43d 89ff 3dbd 3258 173e
000000c0: 982f 06be 57f7 933d 2adf a63b aaeb 0fbd
000000d0: f37d eebb cbe7 d6bd 15f2 833d 0d13 98bd
000000e0: 16d0 13be 99ed 0abe e81f 333d cac3 9b3d
000000f0: 9290 923d 1426 913d c636 b8bd 0af3 3fbe
00000100: 9b20 123e 6745 d0bc e2a3 9f3d 70d6 89bc
00000110: e6f7 06bc 22fe ae3d d2ca 83bd 84ec 0f3d
00000120: 9752 fb3d e01c ce3d d9ca babd fa35 403c
00000130: 67f8 f8bb b4c8 ea3d 0f94 d3bd dae9 2bbe
00000140: eec0 f8bd 11c1 45be e373 13be 33f6 b33d
00000150: 1912 dcbd 96c9 343d 30fc 36be c759 c7bd
00000160: 9fe7 2dbe 5f21 ef3d 200c 3ebe 37d6 61be
00000170: ab3e 753c 1de3 093e 76fd 31be 5199 acbd
00000180: 5d36 67be fb55 5cbe e5aa 163d 36fe 803d
00000190: d243 cabd 4d6c ebbd 1ddf ee3c 59e6 c1bd
000001a0: 0742 c1bd 7bcd 02be f963 1a3d b7bd 17be
000001b0: 8c39 1c3c a2d7 003c b8b6 5dbe d6c9 b8bd
000001c0: 314f 273e 978d 50bd f5ca 67be edb0 8bbc
000001d0: b7b3 cb3d be69 143e 3491 333e 5bfe e3bb
0.028230933 -0.28671667 -0.13380177 0.08979694 0.04009056 0.036767084 0.060125466 -0.033058543
0.14323696 0.029715057 -0.032517146 -0.06913649 0.065727256 -0.17344871 0.16348803 -0.3163362
-0.0576927 -0.17514914 -0.28219685 0.12704773 -0.108363345 0.048863895 0.056027967 0.089036554
-0.21273534 -0.01013148 -0.12274048 0.002724835 -0.11042331 0.10424236 0.07879755 -0.23914702
-0.007233193 0.042787902 -0.17138861 -0.17201725 -0.0016764381 -0.10068074 -0.15176786 0.07883697
-0.18183619 0.06838487 0.075212814 0.060564853 0.0813782 0.103610896 -0.046386275 0.14779738
-0.13104093 0.07224911 0.005092521 -0.035136856 -0.007278198 -0.1049343 0.06442658 -0.07425509
-0.14434847 -0.13567199 0.0437316 0.07605703 0.07156481 0.07087341 -0.08994822 -0.18745056
0.1427025 -0.025423719 0.0779493 -0.016825885 -0.0082378145 0.08544566 -0.06435169 0.03513767
0.12271612 0.10064101 -0.09120721 0.011731619 -0.0075979712 0.11464062 -0.10330974 -0.16788426
-0.121461734 -0.1931193 -0.14399676 0.08787193 -0.10745639 0.04413756 -0.1786964 -0.097339205
-0.16982888 0.11676287 -0.18559313 -0.22054373 0.0149685545 0.13465543 -0.17381844 -0.0842768
-0.22579332 -0.21517174 0.03678407 0.06298487 -0.09876217 -0.11495266 0.029159123 -0.094677635
-0.09436422 -0.12773697 0.037692998 -0.14818464 0.009535205 0.007863911 -0.21651733 -0.09022872
0.16338803 -0.05091628 -0.22636016 -0.017052138 0.09946387 0.14493462 0.1753586 -0.006957812

decoder.fc.weight f4 [1, 30]
00000000: dfdd 083e 8822 c33b 85f8 c93c 7301 54bd
00000010: 8319 1f3e b3f8 41ba 814c a93b 393d c23d
00000020: 3484 0ebe 8258 cbbc e940 0a3e b48f a4ba
00000030: 6190 85bd c678 8a3b 95fe aebd 76ba 89bd
00000040: b1b7 35be 0ee8 063e b5fa 84ba 151b 96bd
00000050: 34ca acbd 3476 48be 173a bbbd 5ba8 b23d
00000060: 4fb5 163c 6814 00be 9acb 22be 53d7 c5bd
00000070: f57b 19be 66e6 a4bd
0.13365887 0.005955044 0.024654636 -0.051759195 0.15537076 -0.0007399425 0.0051665907 0.094843335
-0.13917619 -0.024822477 0.13501324 -0.0012555034 -0.06521679 0.004225823 -0.085446514 -0.06725018
-0.17745854 0.1317446 -0.0010145517 -0.07329384 -0.08437005 -0.19576341 -0.09141939 0.087235175
0.009198501 -0.12507784 -0.1589798 -0.096602105 -0.14988692 -0.080517575
