model_save/mlp.pth (torch, 87689 bytes, 12 tensors)

fc1.weight f4 [32, 6]
3.512464 -16.738272 0.51170623 -0.59956044 2.8367064 0.016476747 -7.4184265 7.5750165
-0.023810674 -3.5471816 -3.7130575 0.0086695 18.0457 -2.1361065 -0.124396734 -0.93887645
-0.5400594 -0.08558851 -1.6738431 -2.8270218 0.009901323 -0.11525546 1.1689528 0.0010780834
-0.3024882 0.074543625 0.0022026955 -0.68678916 -0.46622694 0.0015639126 -0.4127437 5.55456
0.018955603 -0.2712652 -1.6712143 0.007100922 -1.48459 -2.2877738 0.034933068 -0.52027047
0.123703524 0.0060797255 -1.2415272 0.032355856 -0.042247377 -1.2319909 -1.4632438 -0.029852098
-1.1582286 2.9398818 0.0017686636 -0.56979674 -1.0210755 -0.021833528 18.408573 -1.3789243
0.005971266 -0.4313258 -0.7213521 0.06977844 -18.99306 -2.837849 -0.33444864 0.39292774
0.22418271 0.03012622 -0.44672275 -0.044841077 -0.0057100183 -0.28009114 -0.0527191 -0.0062444224
-0.18714456 -2.779635 -0.017235471 -0.6027691 -0.11382441 0.009500643 -11.146805 -9.071611
-0.5991775 -0.2701021 3.8040407 0.07174897 -1.2870394 -1.7653342 0.0015711313 -0.18130913
-0.35177776 0.0069425777 1.5835886 12.854815 0.22999413 0.51393723 -2.9108353 0.0070229727
0.34876505 3.6682646 0.004931187 -0.14125675 -1.0256895 0.0097636655 0.34637818 3.425392
-0.014778603 0.02942329 -0.9122414 -0.0056029 -4.2229466 -15.578464 0.44697505 0.35922593
0.5037267 0.013186486 -0.8796511 -0.50179046 -0.0011763147 -0.14013688 -0.49166396 0.0031776002
18.968788 -1.4167084 0.070107974 -0.35727823 -1.8730452 0.052794877 -2.8891711 -0.7119041
0.039853543 -0.8985681 -0.4585825 0.0030004557 -0.81724846 -1.2358557 0.009553355 -0.3660534
0.057132713 0.034893606 -2.2047732 -0.112999655 0.01028187 -0.6000569 -0.6708603 -0.0031825178
0.05661743 1.0334423 -0.016875394 -0.63522935 -0.625193 0.025008164 0.2611268 0.6845108
-0.026275828 -0.1435955 -1.1539191 0.0070491554 0.30358773 -0.4263055 -0.030245185 -0.23610325
-0.46111476 0.0018217165 -0.33172554 -0.25726858 -0.004486968 0.074136116 -0.106768526 0.006989696
-0.6300137 -0.052689865 -0.024550227 -0.938376 -1.0017967 0.010070231 0.26619476 2.5117137
-0.009103733 -0.80588037 -1.180863 0.0006521149 -2.4863343 -2.6880558 0.009804132 -0.8374843
0.92248356 0.0774436 -3.6464198 0.13089362 0.01520411 -1.5142518 -0.9218939 0.014878836
00000000: 36cc 6040 fbe7 85c1 2eff 023f cb7c 19bf
00000010: 998c 3540 3efa 863c c063 edc0 8966 f240
00000020: 9a0e c3bc 0605 63c0 bca2 6dc0 850a 0e3c
00000030: 985d 9041 f8b5 08c0 b7c3 febd 355a 70bf
00000040: 5541 0abf 0749 afbd 7e40 d6bf eded 34c0
00000050: 2939 223c 0e0b ecbd 3fa0 953f 7a4e 8d3a
00000060: bcdf 9abe 54aa 983d 195b 103b 6ad1 2fbf
00000070: 4cb5 eebe 33fc cc3a 2453 d3be f5be b140
00000080: c848 9b3c 46e3 8abe 5aea d5bf daae e83b
00000090: 0c07 bebf e36a 12c0 fa15 0f3d 7230 05bf
000000a0: 4658 fd3d 6f38 c73b 5dea 9ebf 9387 043d
000000b0: 960b 2dbd e1b1 9dbf 934b bbbf 638c f4bc
000000c0: d640 94bf 0627 3c40 81d2 e73a 33de 11bf
000000d0: 9ab2 82bf 3adc b2bc c244 9341 9780 b0bf
000000e0: 9caa c33b bcd6 dcbe 88aa 38bf 00e8 8e3d
000000f0: c9f1 97c1 519f 35c0 da3c abbe d32d c93e
00000100: 2790 653e 43cb f63c d8b8 e4be 47ab 37bd
00000110: 1b1b bbbb 1b68 8fbe fcef 57bd 039e ccbb
00000120: d3a2 3fbe 8ae5 31c0 6731 8dbc 134f 1abf
00000130: c61c e9bd 96a8 1b3c 5059 32c1 5225 11c1
00000140: b263 19bf d34a 8abe 6775 7340 20f1 923d
00000150: b5bd a4bf 79f6 e1bf 6bee cd3a 1aa9 39be
00000160: 371c b4be 907e e33b 08b3 ca3f 52ad 4d41
00000170: 9583 6b3e 6491 033f 204b 3ac0 f720 e63b
00000180: 5591 b23e d9c4 6a40 cb95 a13b 9ca5 10be
00000190: cb49 83bf c8f7 1f3c 7b58 b13e 9f39 5b40
000001a0: f421 72bc 1d09 f13c a788 69bf 8898 b7bb
000001b0: 6122 87c0 6341 79c1 ead9 e43e 76ec b73e
000001c0: 3cf4 003f 220c 583c d130 61bf 5775 00bf
000001d0: 922e 9aba 0b80 0fbe 61bb fbbe 493f 503b
000001e0: 14c0 9741 b356 b5bf c594 8f3d 2ced b6be
000001f0: f2bf efbf 713f 583d 2ee8 38c0 593f 36bf
00000200: 783d 233d 8f08 66bf 53cb eabe 4ba3 443b
00000210: 3237 51bf 8530 9ebf ad85 1c3c 5a6b bbbe
00000220: fe03 6a3d 99ec 0e3d 011b 0dc0 5d6c e7bd
00000230: 4a75 283c 549d 19bf 80bd 2bbf ca91 50bb
00000240: aee7 673d d647 843f 443e 8abc 649e 22bf
00000250: a60c 20bf ecdd cc3c 69b2 853e 1a3c 2f3f
00000260: 6840 d7bc b30a 13be 9fb3 93bf 9afc e63b
00000270: da6f 9b3e b744 dabe c0c4 f7bc 0dc5 71be
00000280: 3c17 ecbe aac6 ee3a eed7 a9be b5b8 83be
00000290: 6a07 93bb add4 973d 75a9 dabd d209 e53b
000002a0: 9448 21bf 54d1 57bd 8f1d c9bc 6939 70bf
000002b0: e03a 80bf 9cfd 243c ae4a 883e ebbf 2040
000002c0: d327 15bc 2d4e 4ebf 8526 97bf b1f2 2a3a
000002d0: 1a20 1fc0 1b09 2cc0 83a1 203c 5f65 56bf
000002e0: e227 6c3f c09a 9e3d f15e 69c0 fa08 063e
000002f0: a91a 793c 01d3 c1bf 3d01 6cbf 5dc6 733c

fc1.bias f4 [32]
2.7172587 -2.18169 -3.949909 -0.1519886 -0.1679351 -3.2822328 -0.33080557 -1.5216602
-1.924293 -3.6742826 7.509618 -0.27770162 -0.16913849 3.2039855 -0.020161215 -6.816616
-2.1099007 -2.0239363 7.3172665 -0.48146296 -2.7970357 -0.5115295 -0.8715657 -0.35025287
-1.1315597 -0.85689116 -0.5516145 -0.2573195 -0.32392833 -1.3146852 -1.3489095 -0.6064417
00000000: 91e7 2d40 cfa0 0bc0 4fcb 7cc0 e6a2 1bbe
00000010: 2ef7 2bbe 1a10 52c0 595f a9be c3c5 c2bf
00000020: 3c4f f6bf 7227 6bc0 ca4e f040 e82e 8ebe
00000030: a432 2dbe 190e 4d40 2229 a5bc b821 dac0
00000040: 9d08 07c0 2c88 01c0 0c27 ea40 5082 f6be
00000050: a202 33c0 99f3 02bf ee1e 5fbf 5854 b3be
00000060: f3d6 90bf 385d 5bbf 9c36 0dbf 62bf 83be
00000070: efd9 a5be 9b47 a8bf 11a9 acbf c33f 1bbf

fc2.weight f4 [64, 32]
-0.52836114 -0.44731542 -0.43909022 -0.23813017 0.050850455 -0.042991113 -0.22197881 0.12987545
-0.26195216 -0.5421755 -0.4682829 -0.20808832 -0.074423395 -0.2286426 -0.045217734 -0.4920734
-0.036382183 -0.28902036 -0.346934 -0.0633745 -0.503066 -0.00030345438 -0.14979748 0.007562271
-0.10073905 0.12543045 -0.080948316 -0.16001733 -0.14233772 -0.02743165 -0.048569575 0.0021424887
-0.15933666 0.017274536 -0.0968137 -0.187683 -0.20598975 0.041615274 -0.048380297 0.07296524
-0.06258545 -0.011169662 0.018700395 0.13547206 -0.2780067 -0.31027585 -0.018106682 -0.14519592
-0.02325536 -0.19222553 0.010444393 -0.24057303 -0.2811475 -0.06867324 -0.07546507 0.0075276624
-0.04872186 -0.0030962194 -0.12527707 -0.021972476 -0.22012629 -0.055996597 -0.1921247 -0.11126425
-1.7120621 -1.2004949 -0.4960224 -0.14135864 0.08842256 0.2200197 -0.192453 -0.09108513
-0.047649093 -0.2854983 -1.510061 0.017291004 -0.19520612 0.051504135 -0.038936682 -1.5404091
0.035365693 -0.037942756 -0.6571491 0.12613775 -0.24199447 -0.06413662 0.024617217 -0.16767237
0.051233266 -0.041981347 -0.120874815 0.03723778 -0.18328242 -0.116799735 -0.26077905 -0.14067183
-0.030958211 -0.06620097 -0.14050142 -0.20154178 0.09294527 -0.22965159 -0.108068794 -0.23333594
-0.024030972 -0.02912606 -0.10195021 0.08317188 -0.09162101 -0.19347025 0.018753218 -0.147558
-0.037408862 -0.17896178 -0.17346638 -0.21465269 -0.025824826 -0.04186226 -0.15562916 -0.23630895
0.036532987 -0.16198693 -0.07115393 -0.09147662 0.092298985 -0.100014545 -0.25427583 -0.015234781
-0.5780427 0.18555503 -3.493867 -0.0373716 0.06402431 -2.1174374 0.039019 -0.086715564
-0.45831296 -3.274898 -10.075514 0.011567023 -0.25182512 1.7054707 -0.08487996 -0.20675616
-0.14594035 -1.0931416 0.30662626 -0.21089032 -1.8700898 -0.113902874 0.03301703 -0.015059503
-0.1713976 -0.22222355 -0.06480145 -0.048319727 0.02152788 -0.28187576 -0.2721624 -0.46198013
-1.1594409 0.088589504 -0.49912494 -0.20891175 0.04408776 0.4513958 -0.31870165 0.11663609
-0.11901126 -0.33669648 -0.66537493 -0.1650345 -0.19530438 -0.96544594 0.31018022 1.842044
0.5510876 0.32973298 -2.3968139 -0.1577292 -0.1725866 -0.39227334 -0.12206063 0.067998044
-0.19983572 -0.015547697 -0.041338447 0.033815064 -0.18748774 0.34485954 -0.037389196 -0.3734923
-0.16130035 -0.2554656 -0.93780524 -0.06715712 0.15720679 -0.14022128 -0.0072003184 -0.45418638
-0.15225819 -1.3133148 -1.0824707 0.002152592 -0.14232239 -0.40459734 -0.30009422 -0.2645483
0.050937876 0.04304687 -0.54779094 -0.19626752 -0.095878 -0.05013311 -0.08657859 -0.29196477
-0.27207693 0.041069977 0.031047735 -0.18141282 -0.19007054 0.06780247 -0.26500157 -0.16664761
-2.1514122 -0.5311692 -0.084693775 -0.3514261 -0.19005464 -1.1804112 -0.07457965 0.06929786
-0.1107431 -0.45680246 -3.6324673 0.04498505 -0.34349984 -2.107828 -0.20763887 -10.60766
0.31038445 -0.37298897 -2.2497523 -0.001115019 1.1323608 0.26389638 -0.02803521 0.003930206
-0.040778313 -0.15021753 -0.29920146 -0.0018864514 -0.055662483 -0.36068043 -0.50927705 0.013909084
00000000: ad42 07bf 8706 e5be 6fd0 e0be 65d8 73be
00000010: 9148 503d 7317 30bd 6a4e 63be 12fe 043e
00000020: 981e 86be 03cc 0abf c7c2 efbe 1b15 55be
00000030: 4b6b 98bd 4921 6abe 3b36 39bd 0bf1 fbbe
00000040: 7c05 15bd 7afa 93be 55a1 b1be 7dca 81bd
00000050: efc8 00bf f518 9fb9 8364 19be edcc f73b
00000060: 4650 cebd d770 003e 3bc8 a5bd 95db 23be
00000070: fbc0 11be 57b8 e0bc e4f0 46bd ff68 0c3b
00000080: 2629 23be 5483 8d3c 4346 c6bd f92f 40be
00000090: faee 52be c774 2a3d 6b2a 46bd cd6e 953d
000000a0: cd2c 80bd f500 37bc 9231 993c 30b9 0a3e
000000b0: e556 8ebe 7adc 9ebe 7754 94bc 3dae 14be
000000c0: 0682 bebc c5d6 44be f61e 2b3c c758 76be
000000d0: 91f2 8fbe 8ea4 8cbd 6e8d 9abd 9caa f63b
000000e0: 9390 47bd f1e9 4abb a248 00be 9fff b3bc
000000f0: c968 61be b05c 65bd 56bc 44be 83de e3bd
00000100: da24 dbbf d1a9 99bf a6f6 fdbe 52c0 10be
00000110: e316 b53d d84c 613e 6612 45be d78a babd
00000120: b22b 43bd d52c 92be ae49 c1bf dda5 8d3c
00000130: 1de4 47be 00f6 523d 127c 1fbd 202c c5bf
00000140: 9edb 103d dd69 1bbd ec3a 28bf 412a 013e
00000150: 66cd 77be 0f5a 83bd 0caa c93c 4eb2 2bbe
00000160: f9d9 513d a2f4 2bbd 378d f7bd a486 183d
00000170: 63ae 3bbe b334 efbd d584 85be 470c 10be
00000180: 139c fdbc 6094 87bd 9bdf 0fbe f860 4ebe
00000190: 175a be3d c929 6bbe 2c53 ddbd 9eef 6ebe
000001a0: 9adc c4bc c699 eebc 46cb d0bd 0556 aa3d
000001b0: cca3 bbbd 111d 46be 59a0 993c 7219 17be
000001c0: 093a 19bd c241 37be 2ca1 31be eacd 5bbe
000001d0: 968e d3bc c377 2bbd 405d 1fbe f9fa 71be
000001e0: 9da3 153d e7df 25be 27b9 91bd 1858 bbbd
000001f0: 4007 bd3d 6dd4 ccbd 7130 82be 4e9b 79bc
00000200: 9bfa 13bf 2302 3e3e 849b 5fc0 f612 19bd
00000210: 2d1f 833d 1884 07c0 63d2 1f3d ee97 b1bd
00000220: ffa7 eabe ee97 51c0 4e35 21c1 9c83 3d3c
00000230: 39ef 80be dd4c da3f 8bd5 adbd e3b7 53be
00000240: 6371 15be 10ec 8bbf 1efe 9c3e a2f3 57be
00000250: 1a5f efbf e945 e9bd de3c 073d 22bc 76bc
00000260: da82 2fbe 928e 63be 9fb6 84bd e8ea 45bd
00000270: 3d5b b03c 0552 90be df58 8bbe a988 ecbe
00000280: 8f68 94bf 6a6e b53d 4e8d ffbe f6ec 55be
00000290: 5e95 343d 5a1d e73e dd2c a3be e7de ee3d
000002a0: 2dbc f3bd 7b63 acbe 0356 2abf cefe 28be
000002b0: dffd 47be 7727 77bf f1cf 9e3e 19c8 eb3f
000002c0: 1414 0d3f c3d2 a83e 6665 19c0 c383 21be
000002d0: 8bba 30be 0dd8 c8be ecfa f9bd 8f42 8b3d
000002e0: bca1 4cbe c5bb 7ebc 8152 29bd aa81 0a3d
000002f0: c9fc 3fbe 6e91 b03e 6a25 19bd 623a bfbe
00000300: eb2b 25be 63cc 82be 0114 70bf ac89 89bd
00000310: d1fa 203e 2b96 0fbe a6f0 ebbb 1e8b e8be
00000320: 92e9 1bbe b31a a8bf 668e 8abf 8012 0d3b
00000330: f6bc 11be 6227 cfbe f3a5 99be e072 87be
00000340: 3ca4 503d ea51 303d 073c 0cbf 5afa 48be
00000350: af5b c4bd 6058 4dbd 1e50 b1bd 687c 95be
00000360: ab4d 8bbe fe38 283d d257 fe3c 48c4 39be
00000370: daa1 42be 05dc 8a3d 49ae 87be aca5 2abe
00000380: bdb0 09c0 b4fa 07bf ee73 adbd 1fee b3be
00000390: af9d 42be b717 97bf 37bd 98bd 09ec 8d3d
000003a0: 47cd e2bd 03e2 e9be 587a 68c0 3e42 383d
000003b0: 36df afbe a7e6 06c0 499f 54be fab8 29c1
000003c0: b6ea 9e3e 69f8 bebe f1fb 0fc0 d425 92ba
000003d0: 33f1 903f 6d1d 873e 19aa e5bc f5c8 803b
000003e0: 2907 27bd a0d2 19be ef30 99be ce42 f7ba
000003f0: 58fe 63bd 1bab b8be fb5f 02bf ede2 633c

fc2.bias f4 [64]
-1.1640658 -0.36084023 -1.3108478 -0.12594669 2.722854 -6.8771763 -0.8563944 -2.3531392
-0.12253498 1.4314975 -0.76608545 -0.89969444 -0.54710335 -0.62998736 -0.2494735 -0.5430098
-0.87390345 -4.5472317 -6.2636175 -0.25986913 -0.8358957 -0.30533493 -7.1381936 -0.6323653
-0.5692569 2.3992758 -0.41175643 -0.806957 -0.6361426 -0.88606006 -0.5218346 -0.22465076
-0.21589546 1.2789285 -0.17175 -0.18019524 -1.0337784 -0.12272975 -0.21738102 -0.36942807
-0.30943692 -0.41429603 -0.63810337 -0.08388668 -8.205259 -1.3874619 -0.3207134 -0.69127584
-1.1392137 2.252812 -0.23611356 -0.6934547 -4.566503 -0.60053915 -0.22871734 -5.191111
-0.40786013 -0.619446 -0.5122121 -0.98134696 -0.5441596 -1.0962954 -1.3710502 -0.5308676
00000000: 1c00 95bf 0dc0 b8be dcc9 a7bf 2bf8 00be
00000010: 3d43 2e40 d411 dcc0 aa3c 5bbf d599 16c0
00000020: 9ff3 fabd 4f3b b73f 2d1e 44bf 6052 66bf
00000030: f70e 0cbf da46 21bf fb75 7fbe b102 0bbf
00000040: 23b8 5fbf ec82 91c0 8e6f c8c0 910d 85be
00000050: 43fd 55bf dc54 9cbe 156c e4c0 b1e2 21bf
00000060: d2ba 11bf bc8d 1940 bdd1 d2be bc94 4ebf
00000070: 3eda 22bf d5d4 62bf f496 05bf d90a 66be
00000080: b313 5dbe eeb3 a33f 3bdf 2fbe 1a85 38be
00000090: da52 84bf bc59 fbbd 2199 5ebe ad25 bdbe
000000a0: 846e 9ebe 9c1e d4be be5a 23bf c8cc abbd
000000b0: be48 03c1 5a98 b1bf 8c34 a4be 74f7 30bf
000000c0: c1d1 91bf 122e 1040 c1c7 71be 3f86 31bf
000000d0: cb20 92c0 efbc 19bf e134 6abe 951d a6c0
000000e0: 0bd3 d0be 0394 1ebf 5520 03bf 8e39 7bbf
000000f0: 0b4e 0bbf 6853 8cbf 937e afbf f0e6 07bf

fc3.weight f4 [128, 64]
0.06675261 0.1662357 -0.20376493 0.052865993 -0.1709996 -0.19669303 -0.13527432 -0.18199125
-0.14137964 -0.23237836 0.094131246 0.070799686 -0.091707714 -0.007067257 0.010745729 0.01658115
-0.080883704 -0.30098265 -0.028422715 0.11984862 -0.10007818 -0.039921667 -0.16926512 0.09626378
0.1271384 -0.37597403 -0.0748841 -0.39490148 -0.12613274 -0.31965634 0.09930419 0.022272777
-0.19089477 -0.3069735 -0.0029177328 0.10370659 -0.11565636 -0.050936263 -0.31372964 0.037060432
0.011154 0.014079582 -0.0038487806 -0.1484739 -0.2219661 0.0020374388 -0.0065111793 -0.019828036
-0.28406164 -0.29210493 0.056479048 -0.03126641 -0.08942543 -0.052119236 0.116838254 -0.106921166
0.12549306 0.049152464 -0.0058748582 -0.028792992 -0.020083362 -0.09953367 0.021548575 0.10544313
0.58095896 0.008586521 -0.09472657 -0.08911323 -0.6343282 -0.1703501 0.11232032 -0.190818
-0.16783467 -0.41201562 0.002392065 -0.01727387 0.089403994 0.08796756 -0.020288177 0.09581025
-0.24139373 -0.67834777 -0.19838423 -0.13330948 -0.20729178 0.019077254 -3.5791097 -0.057481974
-0.120797105 -0.45976356 0.1323469 0.01577687 0.12594843 -1.5362281 -0.17225643 -0.069296494
0.2549346 -0.16698013 -0.19362447 -0.10163668 -0.090419754 -0.16650012 0.058427587 0.12672617
0.14190854 -0.024265038 0.062064018 0.10382153 -0.97581464 -1.1819935 0.15616532 -0.28106332
0.009693757 -0.73040646 0.107865125 -0.093525186 -0.16281298 -0.01955845 -0.054748166 -1.2876554
0.033810206 -0.0829552 -0.19031335 -0.23735143 0.08581443 0.1358577 -0.21721078 0.15577802
-0.11812969 0.06901579 0.41880858 -0.05754316 -3.4410465 1.8596936 0.5753682 -0.8141283
0.23975739 -1.4602439 -0.37648007 -0.06646187 0.040125344 0.020313945 -0.098048255 0.146097
-0.16783749 0.1671767 -1.5120975 -0.13975617 0.18010978 0.04638584 -0.23031296 -0.1564639
-0.0015653542 -0.02399828 0.103124306 0.0285522 -0.11528993 -0.03354288 -0.25853994 0.112699255
0.0030146288 -1.6308483 -0.14675038 0.20498401 -0.20476216 -0.11011464 -0.0020378295 0.028721359
0.040640242 -0.026820648 0.003860227 0.06583051 -3.8154426 -0.77312046 0.28006756 -0.24334888
0.45807317 -0.38352758 0.113374546 0.37994027 -3.7651112 0.023437044 0.12786964 -1.8839222
-0.088242516 0.13226748 -0.08066547 0.42847794 -0.040488463 -0.123161815 -0.12911014 -0.3845629
0.1313691 0.03866858 0.36899015 0.021554688 -0.66355896 0.6769916 -0.27901945 -1.2364047
0.123574965 -4.8264956 -0.15889008 0.4743301 0.17547289 -0.11373873 0.060769375 0.27905983
-0.33783635 -1.0485778 -1.2801492 0.117009684 0.16568446 -0.108275265 0.1230085 0.0321352
-0.022794181 -3.019056 0.25553805 -0.100484625 0.08315736 -0.8096737 0.19135499 0.14749648
0.20219204 -3.2211053 -0.56741977 0.15686075 -0.2689721 -0.093586415 -0.23767114 -0.01426
0.013024622 -0.046551023 0.041156415 0.23465812 -1.7303975 -1.5493454 -0.072751924 -0.21460243
0.14454538 -4.869966 0.106712006 0.29217362 0.4782288 -0.03267067 0.024471605 -2.4123387
0.070204735 0.092451245 -0.03253372 0.47305763 -0.08176542 0.33110046 -0.7693718 -0.10973365
00000000: 98b5 883d b139 2a3e c1a7 50be 038a 583d
00000010: 851a 2fbe e669 49be 5a85 0abe ea5b 3abe
00000020: d3c5 10be 98f4 6dbe e2c7 c03d 6dff 903d
00000030: 41d1 bbbd 7394 e7bb db0e 303c 31d5 873c
00000040: 5ba6 a5bd 661a 9abe c1d6 e8bc 3173 f53d
00000050: caf5 ccbd e784 23bd d653 2dbe f225 c53d
00000060: 9230 023e ab7f c0be d65c 99bd 8730 cabe
00000070: f128 01be ffa9 a3be ff5f cb3d 6675 b63c
00000080: eb79 43be a12b 9dbe 6f37 3fbb 1f64 d43d
00000090: 3edd ecbd 8ba2 50bd 2ca1 a0be aecc 173d
000000a0: 44bf 363c 0cae 663c d33b 7cbb 8b09 18be
000000b0: 154b 63be 8d86 053b bb5b d5bb 686e a2bc
000000c0: 8770 91be c78e 95be 9356 673d 3511 00bd
000000d0: ae24 b7bd fb7a 55bd e548 ef3d 7cf9 dabd
000000e0: 4181 003e 1854 493d e281 c0bb 48df ebbc
000000f0: dd85 a4bc 4fd8 cbbd a386 b03c 91f2 d73d
00000100: bab9 143f 7bae 0c3c 0100 c2bd ff80 b6bd
00000110: 5563 22bf 4270 2ebe 3208 e63d cb65 43be
00000120: dadc 2bbe b6f3 d2be 31c4 1c3b ee81 8dbc
00000130: 7119 b73d 5628 b43d 6433 a6bc 2a38 c43d
00000140: eb2f 77be 33a8 2dbf 3c25 4bbe 4882 08be
00000150: 4c44 54be e747 9c3c 2210 65c0 3872 6bbd
00000160: 7964 f7bd 2166 ebbe f285 073e 7f3e 813c
00000170: a0f8 003e 1fa3 c4bf fd63 30be 52eb 8dbd
00000180: ca86 823e d7fc 2abe 7e45 46be e426 d0bd
00000190: fe2d b9bd 027f 2abe c451 6f3d 81c4 013e
000001a0: 7950 113e 79c7 c6bc d736 7e3d 62a0 d43d
000001b0: fdce 79bf 904b 97bf cde9 1f3e 88e7 8fbe
000001c0: 90d2 1e3c ebfb 3abf 64e8 dc3d 228a bfbd
000001d0: 72b8 26be 0b39 a0bc 9d3f 60bd e4d1 a4bf
000001e0: 927c 0a3d 6ae4 a9bd 81e1 42be 410c 73be
000001f0: 7abf af3d 481e 0b3e 816c 5ebe 4684 1f3e
00000200: fbed f1bd 2758 8d3d 146e d63e 60b2 6bbd
00000210: 1b3a 5cc0 710a ee3f 554b 133f b66a 50bf
00000220: f682 753e 46e9 babf ffc1 c0be 291d 88bd
00000230: 795a 243d 6e69 a63c 86cd c8bd 749a 153e
00000240: 97dd 2bbe 5e30 2b3e 698c c1bf 3e1c 0fbe
00000250: b36e 383e 14ff 3d3d 29d7 6bbe 1338 20be
00000260: 922c cdba 0a98 c4bc d632 d33d 4ee6 e93c
00000270: 201d ecbd 4264 09bd 595f 84be dece e63d
00000280: 1491 453b a3bf d0bf bb45 16be 54e7 513e
00000290: 2cad 51be c983 e1bd 1b8d 05bb 0e49 eb3c
000002a0: 6276 263d fab6 dbbc ddfb 7c3b 25d2 863d
000002b0: 3630 74c0 39eb 45bf 0465 8f3e 7330 79be
000002c0: 9188 ea3e ba5d c4be ea30 e83d 8887 c23e
000002d0: 95f7 70c0 0bff bf3c 42f0 023e 5d24 f1bf
000002e0: 7eb8 b4bd 2071 073e f033 a5bd 7661 db3e
000002f0: 3bd7 25bd 433c fcbd 7335 04be 6ee5 c4be
00000300: 9f85 063e f262 1e3d 47ec bc3e 7593 b03c
00000310: 00df 29bf 524f 2d3f a3db 8ebe 8242 9ebf
00000320: df14 fd3d a772 9ac0 15b4 22be 65db f23e
00000330: 2aaf 333e daef e8bd 4fe9 783d eee0 8e3e
00000340: e3f8 acbe cc37 86bf eedb a3bf c6a2 ef3d
00000350: 30a9 293e 6cbf ddbd e1eb fb3d 33a0 033d
00000360: ddba babc 3738 41c0 e2d5 823e e2ca cdbd
00000370: 684e aa3d c746 4fbf 90f2 433e 5109 173e
00000380: 6e0b 4f3e 9726 4ec0 6c42 11bf 1ba0 203e
00000390: b6b6 89be 3caa bfbd 1060 73be c6a2 69bc
000003a0: 3965 553c 49ac 3ebd a193 283d 384a 703e
000003b0: aa7d ddbf f350 c6bf f6fe 94bd bdc0 5bbe
000003c0: b403 143e c3d6 9bc0 d38b da3d c897 953e
000003d0: 68da f43e aed1 05bd ad78 c83c c263 1ac0
000003e0: 80c7 8f3d 1457 bd3d 1442 05bd 9c34 f23e
000003f0: a174 a7bd 0086 a93e 8df5 44bf 09bc e0bd

fc3.bias f4 [128]
-0.6488419 -1.7646784 -4.0145187 0.048836216 -0.5035521 -3.7186577 -4.522012 -3.1359105
-0.8867752 -1.0951806 -2.1979265 -0.7401036 -1.3859288 -0.53594613 -1.041138 -1.6940944
-0.99084306 -1.9275174 -1.0204887 -1.3916613 -1.0586326 -1.9710014 -1.2739253 -1.5337414
-3.4798772 -0.5859938 -1.5769547 -1.1579207 -1.2208585 -2.1397538 -1.1722379 -0.5781179
-0.64210075 -0.9029938 -0.55157936 -0.321243 -1.3038017 -1.2550012 -6.7818556 -2.623804
-0.96846443 -1.5437541 -0.64318067 -1.5026896 -1.2154847 -0.6088704 -1.0560133 -0.53919834
1.2754546 -0.6908684 -0.58302027 -1.8636204 -0.7635765 -1.3792757 -0.6717514 -0.737522
-0.09865963 -1.0854533 -0.10567723 -1.044933 -0.9244974 -0.20923878 -1.9335874 -1.5638373
-1.6351436 -0.9474637 -0.4679611 -1.4751345 -0.31977114 -0.97193867 -1.710315 -1.1042709
-2.3137283 -0.51175797 -0.57100296 -1.2848667 -1.2892638 -1.6263664 -0.6115073 -1.3338851
-0.50394356 -0.75647634 -1.002759 -1.2569469 -1.2906749 -0.5323762 -1.3043082 -2.5385427
-1.3012764 -1.2451421 -1.9717547 -1.8541969 -2.9446652 -0.026224526 -0.47100812 -0.89890844
-0.9303112 -1.2655209 1.043157 -1.8369644 -1.6182008 -2.748697 0.65097153 -1.5689422
-1.8605939 -3.3687196 -1.3358729 -0.6192101 -0.284804 -0.6332443 -1.0159745 -0.8122898
-0.63583905 -1.4450713 -0.74314976 0.3895692 -0.94227004 -1.4102833 -0.146611 -0.8614023
-0.60508466 -1.1966555 -1.013062 -2.101397 -0.69438916 -0.828756 -2.153782 -0.5249227
00000000: 811a 26bf fbe0 e1bf f076 80c0 7c08 483d
00000010: cae8 00bf 7dfe 6dc0 53b4 90c0 c2b2 48c0
00000020: b303 63bf e12e 8cbf d4aa 0cc0 6e77 3dbf
00000030: 1d66 b1bf c433 09bf 0344 85bf 16d8 d8bf
00000040: e4a7 7dbf e4b8 f6bf 609f 82bf f521 b2bf
00000050: 4681 87bf c649 fcbf fc0f a3bf a351 c4bf
00000060: 4fb6 5ec0 b103 16bf a7d9 c9bf bf36 94bf
00000070: 1745 9cbf baf1 08c0 e40b 96bf 89ff 13bf
00000080: b760 24bf 9a2a 67bf 4e34 0dbf f679 a4be
00000090: f9e2 a6bf e1a3 a0bf f604 d9c0 68ec 27c0
000000a0: 49ed 77bf bc99 c5bf 7da7 24bf 2258 c0bf
000000b0: 0195 9bbf eede 1bbf 722b 87bf e708 0abf
000000c0: 1942 a33f c0dc 30bf d140 15bf 1d8b eebf
000000d0: c079 43bf 1b8c b0bf e6f7 2bbf 3ece 3cbf
000000e0: 0f0e cabd 22f0 8abf 4e6d d8bd 5dc0 85bf
000000f0: ddab 6cbf b142 56be cb7f f7bf d22b c8bf
00000100: 634c d1bf fb8c 72bf 9998 efbe 35d1 bcbf
00000110: 0bb9 a3be f9d0 78bf 9aeb dabf c058 8dbf
00000120: 2014 14c0 9202 03bf 402d 12bf 8376 a4bf
00000130: 9906 a5bf c62c d0bf be8b 1cbf bfbc aabf
00000140: 7202 01bf 6fa8 41bf 685a 80bf a3e3 a0bf
00000150: d634 a5bf cf49 08bf 92f3 a6bf 7c77 22c0
00000160: 3a90 a6bf d160 9fbf 7562 fcbf 5356 edbf
00000170: 6575 3cc0 d1d4 d6bc fa27 f1be dd1e 66bf
00000180: e028 6ebf 97fc a1bf 2b86 853f a621 ebbf
00000190: 3421 cfbf a7ea 2fc0 12a6 263f 19d3 c8bf
000001a0: f127 eebf 1a99 57c0 e2fd aabf 8e84 1ebf
000001b0: d4d1 91be 4c1c 22bf 740b 82bf 39f2 4fbf
000001c0: 59c6 22bf 19f8 b8bf 103f 3ebf 9d75 c73e
000001d0: 9c38 71bf 2a84 b4bf 3221 16be dc84 5cbf
000001e0: d4e6 1abf 022c 99bf 04ac 81bf 4a7d 06c0
000001f0: 7dc3 31bf 5a29 54bf 90d7 09c0 5661 06bf

fc4.weight f4 [64, 128]
-0.038967848 -0.107976355 -0.3027193 -0.20533672 -0.08680782 -0.08946573 -0.064165175 -0.025982127
-0.111673675 -0.08744864 -0.09392418 0.0059571248 0.13555796 -0.014772484 -0.18166526 0.0015225519
-0.029658584 0.07267275 -0.096438274 -0.14242576 -0.0635955 -0.15852693 -0.09437826 -0.012940553
-0.06312545 -0.14800584 -0.033451993 0.01224345 -0.0078647295 -0.020653358 -0.005353444 -0.0084491065
-0.11452293 -0.1004576 -0.119174965 -0.028676197 0.06368457 -0.100949906 -0.2366684 -0.13410029
0.08241941 -0.07809966 0.05486325 -0.0892837 0.06810209 -0.07439507 -0.15042612 0.0743079
-0.31205094 -0.1016015 -0.0087155495 -0.31561095 -0.045311917 0.030502606 -0.13675685 0.022704812
-0.04100297 0.0020744193 -0.19850814 0.035116658 -0.15000702 -0.012608605 -0.26213118 -0.08513286
-0.09140168 0.07150941 0.028719533 -0.08262456 -0.06546289 -0.13122866 -0.090887405 0.0067467852
-0.118309624 -0.071691066 0.036344055 -0.05631787 -0.045679864 -0.0048960033 -0.065359384 -0.03557512
-0.03749815 -0.08933566 -0.14162898 -0.04653106 -0.078771755 -0.130266 -0.11313006 -0.080616154
-0.056398097 -0.027330097 0.027488522 -0.046802904 -0.10573305 -0.09825293 -0.21073046 -0.015348835
-0.10004275 -0.104708575 -0.118422106 -0.36551222 -0.07676633 -0.064179644 -0.015919888 -0.2954649
-0.06559064 -0.06562283 -0.10441412 0.032440953 -0.09882147 -0.03256248 -0.12982571 -0.2660175
-0.056108303 -0.027681887 0.09316278 -0.10955565 0.021593627 -0.06357295 -0.058537345 0.023606732
-0.0048658364 0.114577144 0.09557908 -0.18729012 -0.14689739 0.0632048 -0.21912734 -0.050398145
-0.057401184 0.037882373 -0.68719023 -0.08725554 0.02923417 -0.04937666 -0.018298807 -0.3717788
0.04886022 -0.062599964 -0.013414146 0.022197437 -0.038485404 -0.059345733 0.18016805 -0.059348844
-0.2624035 -0.42131442 -0.10815494 -0.19859208 0.111790806 -0.70414925 -0.11809779 -0.054939218
-0.113531336 -0.1697338 -0.15730835 -0.04437764 0.029606935 -0.16761506 -0.035038512 -0.047601286
-0.09330501 0.08490172 -0.124918096 -0.014081712 -0.22168149 -0.12676331 -0.29559833 -0.48083195
-0.048642933 -0.17035025 -0.09566074 -0.03169567 0.07165903 -0.14655119 -0.00097599026 0.15405281
-0.8879086 -0.15398946 0.032046318 -0.24200188 -0.004834272 -0.14720051 -0.048837382 -0.10196984
0.23072185 0.12375824 -0.13673468 -0.1619903 0.16392122 -0.10319269 0.100069135 -0.13481453
0.024362395 -0.025641143 0.09786713 -0.052087616 -0.09368823 -0.14091252 -0.21325168 -0.118525974
-0.00278634 -0.073877335 0.09020484 -0.1581442 -0.072889835 -0.22937371 0.032243192 -0.2869485
0.043690976 -0.23734142 -0.14423777 -0.055390075 0.33032042 -0.071741976 -0.32279104 0.04007893
-0.24514088 -0.11410663 0.003242383 -0.0375718 -0.2961493 -0.25033417 -0.32746682 0.0078105405
-0.037238427 0.117573515 0.047236726 -0.5884235 -0.15830137 -0.19894919 -0.5684656 -0.3539303
-0.10464902 -0.5814304 -0.10779175 -0.0500926 -0.18955481 -0.19476853 -0.09599347 -0.0017157759
-0.024709716 -0.0617884 -0.1374583 -0.6823712 -0.1154399 -0.25176704 -0.1096935 0.038853772
-0.0148180695 -0.093156934 -0.052036926 -0.9163141 0.063541315 -0.13435222 -0.005393203 -0.08746733
00000000: c09c 1fbd b522 ddbd 06fe 9abe ca43 52be
00000010: 4cc8 b1bd cf39 b7bd 0869 83bd 78d8 d4bc
00000020: 2bb5 e4bd 4618 b3bd 525b c0bd fc33 c33b
00000030: b5cf 0a3e 4a08 72bc 7506 3abe 5d90 c73a
00000040: 8ff6 f2bc 73d5 943d 6e81 c5bd 0fd8 11be
00000050: 5c3e 82bd e254 22be 6449 c1bd 9d04 54bc
00000060: ea47 81bd d88e 17be f504 09bd c098 483c
00000070: 11db 00bc 3b31 a9bc f16b afbb 1f6e 0abc
00000080: ff8a eabd b7bc cdbd 0112 f4bd 58ea eabc
00000090: 0e6d 823d d3be cebd 3359 72be 9651 09be
000000a0: 82cb a83d b7f2 9fbd 4ab8 603d 5fda b6bd
000000b0: 1c79 8b3d 715c 98bd 4e09 1abe be2e 983d
000000c0: 24c5 9fbe 7214 d0bd aacb 0ebc c297 a1be
000000d0: fd98 39bd 9ae0 f93c fd09 0cbe 71ff b93c
000000e0: bbf2 27bd fbf2 073b b845 4bbe 7cd6 0f3d
000000f0: 719b 19be 5394 4ebc 0f36 86be 235a aebd
00000100: ce30 bbbd 8773 923d 3a45 eb3c 1137 a9bd
00000110: 6811 86bd ce60 06be 2d23 babd 2314 dd3b
00000120: 514c f2bd c4d2 92bd 81dd 143d 91ad 66bd
00000130: cf1a 3bbd a76e a0bb 24db 85bd 38b7 11bd
00000140: a997 19bd 9df5 b6bd 3007 11be 5a97 3ebd
00000150: 1653 a1bd 7364 05be bcb0 e7bd 151a a5bd
00000160: b101 67bd 5ee3 dfbc 9c2f e13c 67b4 3fbd
00000170: 928a d8bd d538 c9bd bac9 57be ae79 7bbc
00000180: 37e3 ccbd 7371 d6bd 4a87 f2bd 6b24 bbbe
00000190: aa37 9dbd 9e70 83bd 6d6a 82bc 2d47 97be
000001a0: 6354 86bd 4365 86bd 12d7 d5bd cee0 043d
000001b0: e962 cabd 3c60 05bd 08f1 04be 7233 88be
000001c0: d2d1 65bd 20c5 e2bc 21cc be3d b65e e0bd
000001d0: 1ee5 b03c 8932 82bd dbc4 6fbd e862 c13c
000001e0: 9871 9fbb 6ca7 ea3d f7be c33d fbc8 3fbe
000001f0: 456c 16be 8571 813d eb62 60be 496e 4ebd
00000200: 811d 6bbd 8c2a 1b3d b3eb 2fbf 08b3 b2bd
00000210: 807c ef3c 2e3f 4abd 61e7 95bc ca59 bebe
00000220: a721 483d 6934 80bd 02c7 5bbc 66d7 b53c
00000230: dfa2 1dbd 8314 73bd f97d 383e c617 73bd
00000240: c059 86be 86b6 d7be 5680 ddbd b95b 4bbe
00000250: 94f2 e43d 2043 34bf 41dd f1bd f207 61bd
00000260: 1e83 e8bd b3ce 2dbe 7115 21be 54c5 35bd
00000270: 3e8a f23c 48a3 2bbe 8b84 0fbd 91f9 42bd
00000280: b216 bfbd f4e0 ad3d 0fd5 ffbd fbb6 66bc
00000290: 7900 63be 3ece 01be aa58 97be 9b2f f6be
000002a0: d03d 47bd 4c70 2ebe c7e9 c3bd 52d3 01bd
000002b0: f8c1 923d 8411 16be 99d9 7fba 05c0 1d3e
000002c0: fa4d 63bf 6aaf 1dbe 0043 033d 57cf 77be
000002d0: d068 9ebb bbbb 16be b509 48bd 90d5 d0bd
000002e0: 5942 6c3e f674 fd3d 2d04 0cbe c9e0 25be
000002f0: f7da 273e b056 d3bd 0cf1 cc3d d20c 0abe
00000300: a593 c73c 600d d2bc 906e c83d d359 55bd
00000310: 9ddf bfbd 5f4b 10be a65e 5abe bfbd f2bd
00000320: 079b 36bb 004d 97bd 51bd b83d 8ef0 21be
00000330: 4447 95bd f1e0 6abe 7011 043d eaea 92be
00000340: 4ff5 323d a109 73be 11b3 13be b4e0 62bd
00000350: c21f a93e 75ed 92bd de44 a5be ce29 243d
00000360: 3606 7bbe bdb0 e9bd 297e 543b e3e4 19bd
00000370: e2a0 97be cd2b 80be bba9 a7be 90ef ff3b
00000380: 5287 18bd 62ca f03d 4c7b 413d eca2 16bf
00000390: c119 22be 56b9 4bbe f686 11bf 5a36 b5be
000003a0: 3a52 d6bd 9fd8 14bf ecc1 dcbd e62d 4dbd
000003b0: a81a 42be 6771 47be 3998 c4bd e3e3 e0ba
000003c0: 086c cabc d515 7dbd dec1 0cbe e1af 2ebf
000003d0: c16b ecbd 9ce7 80be fca6 e0bd 2225 1f3d
000003e0: 7dc7 72bc 10c9 bebd ac24 55bd 9093 6abf
000003f0: f321 823d a193 09be 77b9 b0bb 1222 b3bd

fc4.bias f4 [64]
-0.92187184 -1.1610563 -0.10884316 -0.7911921 0.4296672 -1.1415392 -1.6610485 1.0164127
-1.5217229 -1.0080814 0.54543304 -1.7119819 -0.7504091 0.3372301 -1.544855 -0.9424915
-0.38532776 -1.0566953 -0.9235547 -0.648191 -0.37285215 -2.1034408 -1.1076128 -1.1801631
-0.07366934 -0.09912054 0.64315903 -0.20575306 -1.6871784 -0.7035127 -1.5958643 -1.0135881
-1.2698492 -0.7986357 0.03982511 -0.52938503 -0.39374623 -0.38286245 -0.78370273 -0.5680369
0.38986194 -0.1919877 -0.7236085 -1.7283404 -0.035273463 1.8463105 -1.985952 -1.2819171
-1.3767028 -1.5330341 -0.5820196 -0.7367872 -0.318919 -0.60010433 -1.7026184 -0.30879447
1.5175273 -1.4636747 -0.6306644 -1.5359452 0.8850819 -0.1113005 -0.44749877 0.26529348
00000000: cbff 6bbf 7e9d 94bf 2ae9 debd 918b 4abf
00000010: 57fd db3e f51d 92bf 3d9d d4bf d019 823f
00000020: d1c7 c2bf d008 81bf 80a1 0b3f 3922 dbbf
00000030: d01a 40bf 6ca9 ac3e cfbd c5bf 1f47 71bf
00000040: ae49 c5be cb41 87bf 156e 6cbf d8ef 25bf
00000050: 7ae6 bebe c69e 06c0 42c6 8dbf 960f 97bf
00000060: f3df 96bd b6ff cabd 12a6 243f eeb0 52be
00000070: 76f5 d7bf 6919 34bf 4845 ccbf 41bd 81bf
00000080: 6b8a a2bf 6473 4cbf a81f 233d c785 07bf
00000090: 1b99 c9be 8c06 c4be bea0 48bf de6a 11bf
000000a0: fc9b c73e 6c98 44be 683e 39bf 423a ddbf
000000b0: e87a 10bd e753 ec3f ad33 febf dc15 a4bf
000000c0: cc37 b0bf 763a c4bf 3dff 14bf 169e 3cbf
000000d0: 5a49 a3be 70a0 19bf 66ef d9bf 4f1a 9ebe
000000e0: 563e c23f b159 bbbf 3973 21bf da99 c4bf
000000f0: ba94 623f 84f1 e3bd 8f1e e5be 8cd4 873e

fc5.weight f4 [32, 64]
-0.013394743 -0.06937653 -0.07025565 -0.17137535 -0.06329956 0.024682447 -0.32472998 -0.11125702
-0.07798919 -0.05210333 -0.106638655 -0.15129134 -0.039472893 -0.34299886 0.105495095 0.039387405
-0.1733705 -0.009852738 -0.15781797 -0.08944486 -0.02975735 -0.008935839 -0.124619305 -0.09904909
-0.10638736 -0.19542791 -0.13256587 -0.119402654 0.020066336 -0.12086171 -0.05657646 0.035137504
-0.2892171 0.013324265 -0.060249493 0.0723571 -0.043931454 -0.012484059 0.036155462 -0.051109865
-0.026542867 -0.0032300055 0.06526436 0.0188586 -0.2755171 0.012440847 -0.12168578 -0.0687515
-0.079594865 -0.06431249 -0.07735817 -0.0040504187 -0.17625695 -0.053135186 -0.02756457 -0.21810016
-0.059109807 -0.05497919 0.018651241 -0.087322906 -0.18284866 -0.11622284 -0.051215082 -0.26629084
0.0021757379 0.17376466 -0.10721479 -0.30257022 0.016555922 0.03637779 0.012235257 -0.23373419
0.030614557 -0.884832 -1.4881105 -0.41322294 -0.2851306 0.19254903 -0.21469747 0.15453655
0.23963618 -0.18169105 0.24975604 0.20276767 -2.2291763 0.13313298 -0.91779 -0.7548953
-0.45445395 -5.471465 0.030430362 -2.6853654 0.059798058 -0.18835823 -0.21096264 -1.6560444
-1.6581135 -0.10602962 -3.0558257 -0.261382 -2.9708824 0.42792454 -0.050502412 -0.38082966
-0.6291336 -0.04075365 0.092807665 -2.5630019 -5.569306 0.10163166 0.5589341 0.24907948
-0.32357326 -0.62934154 0.36039793 -0.053610567 0.13282624 -0.29328373 0.039707083 -2.3555286
-1.2713889 -0.15945512 -0.31971896 0.022043403 -0.4870685 -0.19157547 -0.053152844 -1.5286112
-0.07905058 -0.65659463 -0.2880461 0.36072564 -7.5978847 0.13606979 0.21387598 -1.1238896
-0.04112712 0.45870203 -3.4705882 0.007849398 0.0041878787 -1.1560268 -0.68347603 -0.16605936
-6.474921 -0.008060192 -0.16263005 -0.49519727 -4.8996253 0.295155 -0.51239806 0.29579726
-0.2251768 -6.8361526 -0.82364196 -8.965498 -0.21268016 -0.07888615 -0.13735065 0.124563985
-1.3117992 0.026002776 -8.079687 0.4834234 -2.0800068 0.054237366 -0.20976435 -0.59956443
-3.17975 0.2442832 -0.14213736 -0.18077883 -4.0095034 -5.9511127 0.06962628 0.05623533
-0.445391 0.49570444 -0.08487864 0.0793426 -11.8411455 0.057103217 -0.043932136 -0.41382825
-0.25503433 -2.398013 -0.116101444 0.21143389 -5.050436 -0.34732938 0.17646104 -5.2697434
-0.11476226 0.005153216 -0.69051015 -0.23749796 -0.5970406 0.045803674 -0.023681022 -0.24232961
-0.101893395 -0.13037275 -0.6706508 0.014942265 0.014150746 -0.2554599 0.024895618 0.011396462
-0.39285257 0.008618181 -0.07964875 -0.078184605 -0.223665 -0.1929156 -0.15335114 -0.023001382
-0.0038194137 -0.2469152 -0.16092847 -0.4021993 0.057972293 -0.1289029 -0.29949823 -0.012346303
0.004477901 -0.027996881 -0.1994458 -0.11853771 -0.10209923 -0.11269608 -0.0835458 -0.0708624
-0.29490298 -0.11509769 -0.108341515 -0.5981524 -0.33220392 -0.28076455 -0.05875202 0.027912963
-0.07258245 -0.1358213 -0.17441669 0.15333624 -0.06915841 -0.15451673 -0.1841081 -0.07587601
-0.70228416 -0.16713749 -0.016420595 -0.1456982 -0.05088555 0.002798472 -0.003899749 -0.57848233
00000000: a075 5bbc 4815 8ebd 32e2 8fbd 057d 2fbe
00000010: 33a3 81bd d832 ca3c 0243 a6be b8da e3bd
00000020: ccb8 9fbd 4d6a 55bd 5e65 dabd 1eec 1abe
00000030: 54ae 21bd 8c9d afbe d00d d83d b054 213d
00000040: 0988 31be 616d 21bc 099b 21be de2e b7bd
00000050: b0c5 f3bc a067 12bc 6838 ffbd 40da cabd
00000060: 9ee1 d9bd 411e 48be 59bf 07be 6189 f4bd
00000070: 2862 a43c 5886 f7bd b8bc 67bd 58ec 0f3d
00000080: 4414 94be 054e 5a3c 2cc8 76bd f62f 943d
00000090: 78f1 33bd f089 4cbc c017 143d 9458 51bd
000000a0: 6d70 d9bc 80ae 53bb 52a9 853d 5a7d 9a3c
000000b0: 9410 8dbe b2d4 4b3c 6536 f9bd 96cd 8cbd
000000c0: a202 a3bd 44b6 83bd f66d 9ebd 60b9 84bb
000000d0: b47c 34be 48a4 59bd 18cf e1bc a655 5fbe
000000e0: 201d 72bd dc31 61bd 7dca 983c 5ad6 b2bd
000000f0: ae3c 3bbe 3e06 eebd e8c6 51bd 4657 88be
00000100: d396 0e3b 5def 313e 6e93 dbbd 7cea 9abe
00000110: 49a0 873c e100 153d 6376 483c 0458 6fbe
00000120: 61cb fa3c 5a84 62bf 687a bebf f591 d3be
00000130: a3fc 91be 932b 453e a7d9 5bbe d43e 1e3e
00000140: 3063 753e 380d 3abe 0cc0 7f3e 54a2 4f3e
00000150: d3aa 0ec0 0354 083e 49f4 6abf d240 41bf
00000160: 30ae e8be 3e16 afc0 1849 f93c 07dd 2bc0
00000170: cfee 743d fbe0 40be 9706 58be 43f9 d3bf
00000180: 103d d4bf 0f26 d9bd a692 43c0 ddd3 85be
00000190: f022 3ec0 ed18 db3e 9edb 4ebd 1bfc c2be
000001a0: e60e 21bf 4ded 26bd f211 be3d 3908 24c0
000001b0: c137 b2c0 4224 d03d 4e16 0f3f b10e 7f3e
000001c0: 65ab a5be 871c 21bf 1486 b83e c196 5bbd
000001d0: 9a03 083e 4929 96be e5a3 223d fbc0 16c0
000001e0: dfbc a2bf 3448 23be 34b2 a3be 5e94 b43c
000001f0: 0b61 f9be 5c2c 44be ccb6 59bd 88a9 c3bf
00000200: 45e5 a1bd 9616 28bf c77a 93be 08b1 b83e
00000210: df21 f3c0 e155 0b3e 4e02 5b3e 9ddb 8fbf
00000220: e974 28bd feda ea3e 1e1e 5ec0 c39a 003c
00000230: 793a 893b b0f8 93bf 49f8 2ebf 770b 2abe
00000240: 8e32 cfc0 e50e 04bc 7e88 26be 7f8a fdbe
00000250: bbc9 9cc0 8e1e 973e 852c 03bf bd72 973e
00000260: bf94 66be c3c1 dac0 33da 52bf ae72 0fc1
00000270: d4c8 59be 108f a1bd a6a5 0cbe 671b ff3d
00000280: 09e9 a7bf c603 d53c 6646 01c1 4683 f73e
00000290: d51e 05c0 0028 5e3d 77cc 56be 0e7d 19bf
000002a0: 0681 4bc0 6025 7a3e 758c 11be 161e 39be
000002b0: da4d 80c0 846f bec0 3998 8e3d 0457 663d
000002c0: 4a0a e4be f9cc fd3e dad4 adbd 607e a23d
000002d0: 5575 3dc1 10e5 693d 2ff2 33bd 4ce1 d3be
000002e0: dc93 82be 0c79 19c0 98c6 edbd 2082 583e
000002f0: 2c9d a1c0 28d5 b1be 34b2 343e bda1 a8c0
00000300: 7a08 ebbd 4fdc a83b 46c5 30bf aa32 73be
00000310: a7d7 18bf a29c 3b3d b4fe c1bc 4125 78be
00000320: 7cad d0bd 6f80 05be c5af 2bbf 67d0 743c
00000330: 88d8 673c a4cb 82be e5f1 cb3c 3ab8 3a3c
00000340: f923 c9be 4533 0d3c e21e a3bd 401f a0bd
00000350: 7008 65be ab8b 45be 1508 1dbe 656d bcbc
00000360: 214f 7abb 57d7 7cbe 6fca 24be 11ed cdbe
00000370: 5b74 6d3d 1fff 03be d557 99be 2648 4abc
00000380: 5bbb 923b b759 e5bc 853b 4cbe e6c3 f2bd
00000390: 6719 d1bd 34cd e6bd 0f1a abbd 4e20 91bd
000003a0: 86fd 96be 56b8 ebbd 28e2 ddbd 8420 19bf
000003b0: a216 aabe 5fc0 8fbe f5a5 70bd baa9 e43c
000003c0: 1ca6 94bd bd14 0bbe 4a9a 32be 2d04 1d3e
000003d0: eda2 8dbd a239 1ebe d586 3cbe e264 9bbd
000003e0: e5c8 33bf 1726 2bbe 7c84 86bc e931 15be
000003f0: 5e6d 50bd 9266 373b ee92 7fbb 6b17 14bf

fc5.bias f4 [32]
-0.70582813 0.52312136 0.3523235 -0.48763877 0.7750626 0.021327754 0.5786953 0.10137172
-0.6235699 -0.91198 -1.5415483 -1.0654094 -0.6601517 -1.3034881 -0.7153314 -0.88944477
-0.8448869 -0.25740263 -0.28557146 0.23658979 0.5993555 -1.0842967 1.2261447 -1.0486645
-0.5360485 -1.357055 -0.13816778 -1.5510172 -0.96427137 1.4585433 -0.40006346 0.3010916
00000000: 27b1 34bf 48eb 053f bf63 b43e caab f9be
00000010: 816a 463f 8bb7 ae3c 6025 143f fa9b cf3d
00000020: 47a2 1fbf 8577 69bf 7451 c5bf 565f 88bf
00000030: b4ff 28bf b3d8 a6bf f51f 37bf a7b2 63bf
00000040: 824a 58bf 47ca 83be 6c36 92be 9844 723e
00000050: 5d6f 193f 3cca 8abf 4ff2 9c3f a33a 86bf
00000060: 793a 09bf fab3 adbf db7b 0dbe bb87 c6bf
00000070: 7dda 76bf 8cb1 ba3f 1ed5 ccbe ae28 9a3e

output.weight f4 [4, 32]
-0.094684556 -0.051739365 0.89532954 0.05997987 0.059942994 -0.039002188 0.27813342 0.7728983
0.13953461 -0.6896999 0.17517504 -0.062272992 -0.20156585 -0.4151677 -0.26882464 0.4051564
-0.32712033 -0.3302212 -0.15160157 0.8205244 0.38115796 0.03545016 -0.26152283 -0.016241847
-0.18154468 -0.18235406 -0.13481413 0.22525589 0.1338797 -0.3679891 -0.05269178 -0.04398606
-0.23484828 -0.27985165 -0.109712794 0.12054796 -0.18235223 -0.11462469 -0.25454777 -0.06741433
-0.03138602 0.18975174 0.1424649 0.2511109 0.14784127 0.14164081 -0.33759025 -0.2529286
-0.3350722 -0.44056723 0.16237825 0.014804578 -0.13551816 0.18216477 0.04263272 0.06673624
0.21636151 -0.4790817 0.45429754 -0.07798735 -0.05409458 0.07754312 0.04815314 -0.20454215
-0.02480123 -0.27545005 -0.22691733 -0.124715686 -0.19348383 -0.32014087 -0.17457567 -0.493836
-0.22825256 0.08520079 -0.3971242 -0.058268275 -0.03168367 -0.08287295 -0.25032526 -0.11800624
-0.27600273 -0.446483 0.13725586 -0.3109975 -0.26943523 -0.469449 0.056759164 -0.4398091
-0.0754023 -0.48755518 -0.07131762 -0.15934272 0.22566624 0.03266191 -0.013435552 -0.2199738
0.19821513 -0.22391748 -0.034239825 -0.067569904 -0.19567257 -0.2592817 -0.16016628 -0.48326465
-0.36648276 -0.084296085 0.04859622 0.07989061 -0.085720606 0.24619636 -0.24062835 -0.19398686
-0.3362634 -0.13321336 0.055519123 -0.0025778126 -0.021804847 -0.23584086 -0.0008145053 -0.30058217
-0.18005471 0.012803051 -0.36427364 0.5274887 0.48373622 0.034363702 0.03866276 -0.098859295
00000000: fae9 c1bd a8ec 53bd 5134 653f 74ad 753d
00000010: c986 753d c2c0 1fbd 8167 8e3e aadc 453f
00000020: 29e2 0e3e 2c90 30bf 1661 333e f711 7fbd
00000030: 4767 4ebe dc90 d4be 62a3 89be a970 cf3e
00000040: 517c a7be c112 a9be 713d 1bbe e30d 523f
00000050: 2327 c33e 3034 113d 52e6 85be 9f0d 85bc
00000060: d9e6 39be 06bb 3abe b70c 0abe 7ba9 663e
00000070: c317 093e 1169 bcbe 56d3 57bd ba2a 34bd
00000080: 117c 70be b748 8fbe 1ab1 e0bd d9e1 f63d
00000090: 8bba 3abe 59c0 eabd 1654 82be 8610 8abd
000000a0: a18e 00bd 484e 423e 52e2 113e 9c91 803e
000000b0: b463 173e 4a0a 113e a1d8 acbe dc7f 81be
000000c0: 958e abbe 0792 e1be 7c46 263e e78e 723c
000000d0: 46c5 0abe 6789 3a3e a69f 2e3d 03ad 883d
000000e0: df8d 5d3e 324a f5be b099 e83e d5b7 9fbd
000000f0: 4792 5dbd edce 9e3d 3a3c 453d 7f73 51be
00000100: f32b cbbc ca07 8dbe 045d 68be f06a ffbd
00000110: a020 46be 81e9 a3be f7c3 32be 12d8 fcbe
00000120: 0abb 69be c07d ae3d dd53 cbbe b7aa 6ebd
00000130: bcc6 01bd 4bb9 a9bd a22a 80be 41ad f1bd
00000140: 3b50 8dbe 6b99 e4be cd8c 0c3e 103b 9fbe
00000150: 6af3 89be 9f5b f0be 4c7c 683d a92e e1be
00000160: 856c 9abd d5a0 f9be f90e 92bd bd2a 23be
00000170: 0d15 673e 7fc8 053d ca20 5cbc d040 61be
00000180: e8f8 4a3e a04a 65be 0f3f 0cbd 1762 8abd
00000190: 645e 48be 92c0 84be a102 24be 776e f7be
000001a0: a1a3 bbbe 6da3 acbd d40c 473d b09d a33d
000001b0: 498e afbd e61a 7c3e 4767 76be 7ea4 46be
000001c0: b72a acbe 1569 08be 0568 633d 85f0 28bb
000001d0: 14a0 b2bc 4480 71be 8784 55ba e8e5 99be
000001e0: 4360 38be e3c3 513c 1382 babe 8009 073f
000001f0: 46ac f73e f4c0 0c3d d85c 1e3d be76 cabd

output.bias f4 [4]
0.4081699 -0.058494966 0.0818257 0.061624642
00000000: a5fb d03e 6b98 6fbd 3c94 a73d 1f6a 7c3d
