model_save/seq2seq_2layers_zscore.pth (torch, 739555 bytes, 33 tensors)

encoder.fc.weight f4 [64, 128]
00000000: 4578 de3d 2702 45be e912 e43d 0e22 2d3c
00000010: 9b03 01ba 62fc ab3e 47d9 4c3d 731c c33d
00000020: 140d b9bd 2446 53be 56ca 393e 084f fabd
00000030: c269 ccbe 581d cdbc 6df0 8c3d bc95 723d
00000040: 721a 323e 402a 5f3d 4b4c 8a3c 7705 34be
00000050: ab21 8d3d 29ce 483e 5ad7 c03e 111d a8be
00000060: a1f0 193d b8a7 7e3d deeb 783e e471 85bc
00000070: 73af 1cbe 1898 3ebe de66 f7bd 65d3 64bd
00000080: dbb5 9c3e 905e 313e 3d09 a23d 8a9b edbb
00000090: 063a e3bd c3dc 493e 2d52 ecbe c94b 8cbe
000000a0: f201 853e 3f08 043e 00d6 e1bd 0a26 8a3e
000000b0: fe57 b3bd c3b0 08bf d23c 5bbe d6c2 cebd
000000c0: 03b1 343e 9d39 0b3d 1e2c 02bf d3db 563c
000000d0: d764 093d 423f 80bd 1589 243b 823e 183e
000000e0: 8a3f 9abd b581 7dbe 5fbf 9fbd 93a0 95bd
000000f0: 51cc 2a3e 3c43 043d b74c 933d 36c5 50be
00000100: 57f4 d13b 93cc 95bc 01da 3bbe 5263 5b3e
00000110: 07d5 8e3e 55b1 51bd 4061 1f3c 2a2f 193e
00000120: c184 2ebe 9f3e 39bd 4d83 9f3d 2bb4 963e
00000130: fb7e f1bd d4f1 4fbc e8c0 433d 28d0 18be
00000140: fa4e 14be 193c 9fbd 8986 173e 2a52 f2bd
00000150: d0b3 ef3d 11dc e5bd c156 da3c d1a7 363e
00000160: f32c 5a3e b441 483e 882a 8abd 1cae a0bd
00000170: e607 ad3d dcd9 a03d 2199 ef3a 3ba4 a2bd
00000180: afcb 26bd 563d cabd cf0b bf3d 41b3 59be
00000190: 94c2 b0bc 6272 a0bd e428 b13e 6828 dc3d
000001a0: 58bc 71bc fd2d 4dbd 89b2 cb3d 3db0 e7bc
000001b0: 7a3d 85be b0cc 993d 28fa e23d 0ef8 433e
000001c0: a1ad b33d bc2e 2f3e 9ad2 53be 0681 8e3d
000001d0: 1661 013e a475 783d 3ac3 313f 8ddf d33d
000001e0: d0a4 16be b8c5 97bd b609 84be 747a 9dbd
000001f0: 6683 723e f8cd c9bc 8a7e 9b3d 865c 8fbe
00000200: e852 fc3d feeb 82be 76d3 903d 1806 363d
00000210: cd9a babe 321f 08bd 6ffa 3ebf a832 183e
00000220: ee5f 91be 5aba 903e 6492 2f3e 8110 bfbe
00000230: fae9 c5be ecbb 2fbe a5e2 953e a3ce bf3e
00000240: ce9f 98bc dce9 98bd 2324 8abd 4f3a a5bd
00000250: de3e 78bd ee1b cf3e ca0f 8d3e a03b a3bd
00000260: 1aea 67be d304 c3bd 354b 493e 699c 59bc
00000270: 555d 4e3e ac38 b8bd 940c 80bd fae6 ea3e
00000280: 7fe8 613e fa64 623e d63c f43e 98c1 863e
00000290: e97d 85be 5d41 073d a10e 543f 797f aebd
000002a0: 036e 88bd c37d 2abe abc7 753e 1eb0 bebd
000002b0: 43df d63d 1adc 893e d616 b23e ccf3 23be
000002c0: c6b2 8c3c d116 cbbe ae63 8abe f482 233e
000002d0: 4edd 313e 9e1c dabe 4acf 053e f42b 3c3e
000002e0: 4a1d 6abe 0329 fcbd 8c6d 113d 391b 163e
000002f0: 13d2 8f3d beca 3c3e 6632 223e 8f90 293e
00000300: 08c7 553d 101e 47be 1c39 99be 5d18 01be
00000310: 7fdf 543e c669 173d c56c ecbd d61f 4ebd
00000320: 43b3 143d 89c5 a2be 8c54 523e 10fb 2f3e
00000330: ff82 2cbe 7024 adbe 41cc dcbb d2aa 15be
00000340: 513a 93ba 80e4 96bc f00e 99bd ef21 0ebe
00000350: b62b 073e 7f3e 533e 2d5f c9bc ef24 a0bd
00000360: 200e 993e ea09 f3bc b066 05bd 6afe 193e
00000370: 4036 833b 2581 c83a b6c1 5abe 7436 57be
00000380: 0f0d 0d3e 1f83 8cbd 330f af3c 753c 973d
00000390: 4944 30be b8db 973e 0d5d 87bd dfd0 1a3c
000003a0: 49dc 543d 6061 88bd 1afd 9ebe ab68 dd3d
000003b0: 8555 a73e 4378 d0bd 9c14 a63e fdb7 4bbe
000003c0: 2d4a d23c c6a2 c3bd 7e8a 4ebe a322 a23d
000003d0: 37a1 0bbe 4dce 8fbe 2701 d73d 9f6d aa3c
000003e0: c1ac d1bd bc96 b63d 37f7 ee3c e159 27be
000003f0: bd22 cebc 2c00 8d3e 57d2 e9bc b3a8 123d
0.10862783 -0.19239102 0.11136419 0.010567201 -0.0004921497 0.3359099 0.0500119 0.09526911
-0.090356976 -0.20632225 0.18143591 -0.12222105 -0.39924437 -0.025038406 0.06881795 0.05922483
0.173929 0.054483652 0.016882082 -0.1758021 0.06891187 0.19609894 0.376643 -0.32834676
0.037582997 0.062171668 0.24308726 -0.016289659 -0.15301304 -0.18612707 -0.12080167 -0.055865664
0.30607495 0.17321229 0.07911918 -0.0072512077 -0.110950515 0.1971312 -0.46156445 -0.2740157
0.25978047 0.1289377 -0.110271454 0.26982147 -0.087570176 -0.53394717 -0.2140992 -0.10095756
0.1764565 0.03399049 -0.5084857 0.013113934 0.033543434 -0.062620655 0.0025106121 0.14867595
-0.0753165 -0.2475651 -0.07800173 -0.07306018 0.16679503 0.032290682 0.071923666 -0.2038773
0.0064073014 -0.018286025 -0.1834488 0.21424606 0.27896902 -0.051194508 0.009727776 0.14959398
-0.17042829 -0.045225736 0.077887155 0.29434332 -0.11791798 -0.012691934 0.04779139 -0.14923155
-0.14483252 -0.077751346 0.14797415 -0.11832078 0.117042184 -0.11223615 0.026652696 0.17837454
0.2130621 0.19556314 -0.067463934 -0.07845709 0.08448772 0.078540534 0.0018279889 -0.07941481
-0.04072159 -0.0987498 0.09328424 -0.21259786 -0.021577157 -0.07834317 0.3460151 0.107498944
-0.014754377 -0.050092686 0.09946162 -0.02828228 -0.26023465 0.07509744 0.1108287 0.19137594
0.087733515 0.17107671 -0.20685807 0.06958203 0.12634692 0.060659066 0.6943852 0.10345373
-0.14711308 -0.07410759 -0.2578866 -0.07689372 0.23682937 -0.024634346 0.07592495 -0.28000277
0.123205006 -0.25570673 0.07071583 0.044439405 -0.3644623 -0.033232875 -0.7460088 0.14863074
-0.283935 0.28267175 0.17145687 -0.3731728 -0.38655072 -0.1716153 0.2927448 0.3746234
-0.018630888 -0.0746648 -0.06745174 -0.08067762 -0.06060683 0.40450996 0.2755111 -0.07970357
-0.22647896 -0.095224045 0.19657595 -0.01328192 0.20152791 -0.08995184 -0.06252399 0.45879346
0.22061346 0.22108832 0.47702664 0.26319575 -0.26072624 0.03302132 0.8283482 -0.08520407
-0.06661608 -0.16649537 0.24001949 -0.093109354 0.104918025 0.26925737 0.34783047 -0.1601097
0.01717509 -0.39665845 -0.27029175 0.15967923 0.17369577 -0.42599958 0.13067356 0.18376142
-0.22862735 -0.1231251 0.035504863 0.14658822 0.0702249 0.18436715 0.15839538 0.16559051
0.052191764 -0.19445062 -0.29926383 -0.1260695 0.20788382 0.036966108 -0.11544184 -0.05032333
0.03630377 -0.31791332 0.20540065 0.17185616 -0.16846846 -0.33816862 -0.006738216 -0.14615944
-0.001123259 -0.018419504 -0.07473552 -0.13880132 0.13200268 0.20629309 -0.024581516 -0.078195445
0.2989359 -0.029667813 -0.032568634 0.15038458 0.00400427 0.0015297277 -0.21362957 -0.21016866
0.13774513 -0.06860947 0.021369552 0.07384578 -0.17213549 0.2965982 -0.06609545 0.009449213
0.051967893 -0.06659198 -0.31052476 0.108109795 0.32682434 -0.10179188 0.324376 -0.19894405
0.025670135 -0.09552531 -0.20170018 0.07916763 -0.13635717 -0.28087083 0.10498267 0.020804225
-0.10238028 0.08915469 0.029170616 -0.1634288 -0.025163049 0.27539194 -0.02854268 0.035805415

encoder.fc.bias f4 [64]
00000000: a7d3 2a3e 20b1 f73c 8b9e 1e3e 917b 713d
00000010: 09df c83c c88b 643e e830 743d 0306 703e
00000020: 948b 1e3b 2099 91be a07e 89bd 15b1 0bbd
00000030: 5d9a d63e fbcf 333d fd6b fc3d 1b83 833d
00000040: 1887 323e 8d4b a63c 2903 46be 6164 953d
00000050: 0274 ba3c c0e3 a73c bdae c7bd 495b e83d
00000060: 21f1 b03c 660a 5b3e 87ff 16be 1b62 773e
00000070: f1d3 523e 3679 02be eec7 4fbd bdcc a7bc
00000080: 5bd7 99bd 4829 fdbd a9e3 483e 757d 363e
00000090: 4bc2 873d 1bcb 183e 3dc2 c83d 7813 273e
000000a0: 5f11 07be 74e3 d7bd 34c8 183e e441 abbe
000000b0: 19f7 8abd 4ea2 483d 6166 733e 2d3c ae3e
000000c0: 9cb3 2fbe c83e acbc fbe9 093e 27d0 81bd
000000d0: 1173 6f3e f1b3 603e 2b49 02be afe8 04be
000000e0: 1c8d 9bbe d61a 74be a0bd 193d 553f 733e
000000f0: 38eb c4bc 6390 a3be cb27 9d3e cdc6 99be
0.16682301 0.030235827 0.15490167 0.058955733 0.024520414 0.22318947 0.059616953 0.23439793
0.0024192082 -0.28437138 -0.06713605 -0.034104425 0.41914645 0.043899518 0.12325285 0.06421491
0.17434347 0.020299697 -0.19337143 0.072945364 0.022760395 0.020494342 -0.097501256 0.11345536
0.021599354 0.21390685 -0.14745913 0.24158518 0.20588662 -0.12741551 -0.050727777 -0.020483369
-0.07511779 -0.123613894 0.19618095 0.17821296 0.06628855 0.14921229 0.09802673 0.1631602
-0.1319022 -0.1054143 0.14920121 -0.33448708 -0.067854114 0.04898291 0.23769523 0.34030285
-0.1715836 -0.02102603 0.13468163 -0.0633853 0.23383738 0.21943642 -0.12723224 -0.12979387
-0.30381095 -0.23838362 0.037534356 0.23754628 -0.024037942 -0.31946096 0.30694422 -0.30034485

encoder.lstm.weight_ih_l0 f4 [192, 1]
00000000: 0890 0f3d e767 8bbf 8600 0bbf 4c02 823f
00000010: 46af 1ebe 8588 8e3d ce91 6c3f 8c34 85bf
00000020: 8039 24bf 6b97 8a3c 8545 f6be a49d 133f
00000030: 3497 09bf a5cd 17bf eff8 b2bf e4ac 12bf
00000040: 3bed 68bf 92f9 22bf a41d 4fbf fe03 023f
00000050: 4e4b be3e 7ee0 173f dd65 22be 35bb b6be
00000060: e851 1ebf 5782 3dbf 107f 74be 5a5d 963d
00000070: d262 2e3e f2b0 7ebf 2dbe eabe a8a5 e8bf
00000080: 097f cebf dadf 4fbf 1bef 0fbf d962 68bf
00000090: f509 d73d 9853 b6bf 6c05 67be 69e9 57be
000000a0: 48f0 7dbf 1e0a 3f3f f97f 3dbf bd27 c1bf
000000b0: 74c5 90bf 27cc a0bf 7e5c 4e3f e669 3abc
000000c0: 1a58 86bf 2280 103d 739f eebf f2dc 86bf
000000d0: f624 ccbe b7ff 2fbf 39d5 b5bf e1d6 0b3f
000000e0: 8df1 4ebf 7e70 cabe 863e 85be 11ba fb3e
000000f0: 2dfc 8fbf fc57 fabe 8e13 ebbe 3d7d d7bc
00000100: 53fd 183c 0091 5a3e 7005 f7bd 2c37 0bbe
00000110: f918 303e 0d57 09bf 82cc d7bd dd86 d53e
00000120: fb19 fcbd 81d6 243c 7660 d6bd f965 46be
00000130: 5b66 f73d dce3 b23e 1d5e f3be b6dd 5d3d
00000140: 0584 30be e5c2 473e 17bb e03c 2b7b ffbc
00000150: 90d6 c73d 4162 8dbe 5265 37bc a773 13be
00000160: 0265 58ba 42fa a1bd 1858 dabd e9f1 e0bb
00000170: b0e2 00ba 1235 6d3e 937f f8bd f32b d1bd
00000180: c30a 323e 3775 283f 4b4a c5bd 4f0c 953e
00000190: 8709 9f3e dc1d 54be d739 0a3e f21f 1dbe
000001a0: a488 323e db67 2dbe 5cad 013d ec70 3e3e
000001b0: 72c2 e2be 0dc1 943e 8841 23be e578 613c
000001c0: 8da3 803e fd3c 17bc 7643 b33e b5ba 4cbe
000001d0: a71e 91bd 3d46 fabd 0393 c5be 2129 99bd
000001e0: 8e98 efbb 127e 393e 66d7 20be 3d36 28be
000001f0: 7e26 053f 2db0 8abd 370f 153d cfe7 073e
00000200: cd16 4bba 58b7 15bf 57a3 c5bd 698b e23b
00000210: 83c9 bf3d 7a87 533e efff 113d 3290 e4be
00000220: 0eaf c93d 265f 293c 6b66 b83d 6f2b 043d
00000230: 0785 0abf 9598 9a3d dba7 553f 34ef 95bb
00000240: 95a1 943e c1d9 c6bc b01a 5a3d f0a6 29bc
00000250: 62db ddbd c021 61bd 396e 623c 6a2b ce3d
00000260: 20a8 02bc 105a e9bd 269c debd 496b f039
00000270: 3727 823a dc2c 3a3f c9e6 9bbd 9024 e13d
00000280: 4a1c 123e b6b9 1fbf 09d4 67bd 8d06 02bf
00000290: be0f 33be 0bed 633f a880 f9bd b463 d5bd
000002a0: ebad d1bd 6ff9 b7bd 89c7 acbd 6eb8 8c3c
000002b0: d54e 4c3f b094 273f 1a43 e03d c824 99ba
000002c0: ad87 49bf 4cc9 90ba f9f1 4b3f e9ae 343f
000002d0: 28b2 17bd 1a9e 85be c261 08be 9de7 c23b
000002e0: 782d 483b 88d2 59be a0f3 ecbd 04cb 0dbe
000002f0: c7d4 26bf f13e 3ebd 8d4c 83bc 1e45 f63d
0.03504947 -1.0891083 -0.54297674 1.0156951 -0.15496549 0.06959633 0.9240998 -1.0406661
-0.6415024 0.016917905 -0.48099914 0.57662416 -0.5374634 -0.59298164 -1.3982219 -0.5729506
-0.90986985 -0.63662064 -0.80904603 0.5078734 0.37166828 0.5932692 -0.1585917 -0.35689703
-0.6184373 -0.7402701 -0.23876595 0.07342024 0.17029884 -0.9948875 -0.45848218 -1.8175554
-1.6132518 -0.81200945 -0.5622422 -0.9077583 0.10499946 -1.4244261 -0.22560662 -0.21085133
-0.99194765 0.7462481 -0.74023396 -1.5090252 -1.1310258 -1.2562302 0.8060988 -0.011377787
-1.0495636 0.035278447 -1.864241 -1.0536177 -0.3987195 -0.68749565 -1.4205695 0.54624754
-0.8083733 -0.3953895 -0.26024264 0.49165395 -1.1248833 -0.48895252 -0.45913357 -0.026304835
0.009337741 0.21344376 -0.12061584 -0.13595265 0.17197026 -0.53648454 -0.10537054 0.41704455
-0.12309643 0.010060907 -0.10467617 -0.19374837 0.1208007 0.34939468 -0.4753274 0.05416652
-0.17237861 0.1950794 0.027432961 -0.03118666 0.097577214 -0.27614024 -0.01119359 -0.14399587
-0.00082547974 -0.07909061 -0.10661334 -0.0068647754 -0.00049165916 0.23164776 -0.12133708 -0.10213461
0.17386918 0.65803856 -0.09633311 0.29110953 0.31061956 -0.20714515 0.13498627 -0.15344217
0.17434937 -0.16934149 0.03165947 0.18597764 -0.44288975 0.29053536 -0.15942967 0.013761734
0.2512478 -0.009230849 0.35012406 -0.19993098 -0.070859246 -0.12220428 -0.38588724 -0.07478548
-0.007311887 0.18114498 -0.15707168 -0.1642694 0.5201186 -0.06771884 0.036391463 0.13272022
-0.0007747233 -0.58482885 -0.09650295 0.0069135916 0.09364607 0.20657149 0.035644468 -0.44641262
0.09847842 0.010337627 0.0900391 0.032267984 -0.54109234 0.07548634 0.8345925 -0.0045756344
0.29029527 -0.024273755 0.053248107 -0.010354742 -0.108328596 -0.054963827 0.013820224 0.10066874
-0.007974654 -0.11394131 -0.10869627 0.000458563 0.00099299 0.727247 -0.07612378 0.10993302
0.14268604 -0.6239275 -0.056598697 -0.50791246 -0.17486474 0.89033574 -0.12182742 -0.104194075
-0.1023825 -0.089831226 -0.08436496 0.017177787 0.7980779 0.65461254 0.109502986 -0.0011683935
-0.7872265 -0.0011046319 0.79666096 0.7057939 -0.037035137 -0.26097184 -0.13318542 0.0059480206
0.003054468 -0.21271718 -0.11569905 -0.13846976 -0.6516842 -0.046446744 -0.016027713 0.12024902

encoder.lstm.weight_hh_l0 f4 [192, 64]
00000000: 73c3 25bd 464d c9be 7df6 a23d 6b41 a7be
00000010: 05d0 31be bb71 cdbe 4754 fbbd 4b8e 3cbf
00000020: f8a2 b4be 615f 3bbf 9a40 4b3e 4dc0 1c3e
00000030: 354e 363e b690 9cbe ec63 55bf b420 b53e
00000040: ae04 71be 02c7 0dbe 1555 8bbe d471 1ebe
00000050: e6c2 c13d 68db a93e 4609 743e b32c 61bd
00000060: 33bd bc3d fe5c ad3e a8d0 15bf 3c20 aabd
00000070: 2b0d e93d 2611 103e 38a6 22be de11 f1ba
00000080: efbb bf3e d6a9 15bf 022b 773d eef5 6fbf
00000090: d955 2dbf 75a6 efbe 71fc 713d 51ca 2f3e
000000a0: 5a77 e93e 0bde 133e 442d 11bf c6ae 173e
000000b0: b1b6 3cbd ea9f 95bd 9596 d8bc f5d3 eb3e
000000c0: cf1f 95be ad28 ec3d a9df 43be 2409 b5be
000000d0: 7fd8 c9be 3143 d6bd 5099 793e de65 8abd
000000e0: fe2a 31be 9e9b 2bbf 0231 ccbe afce 1fbf
000000f0: ca5f 1abf 50f2 d43d 3fd8 f63c bf63 913e
00000100: 1f99 be3d 8efa cebe 6b32 093f e7ac 21bd
00000110: 9f6d 6dbe 0040 babf 91ea 31bf e1eb e0be
00000120: ca2c a0be 1f8b 04be d04f 19bf 7cf8 dabe
00000130: a5ab 72bd 7e2a 603f cd54 6ebf 984d 403f
00000140: fc9a cebe b9c8 22bf 12e7 22bd a1b0 cebe
00000150: f800 07be a2b6 4a3f 72c6 28bb 4439 b8be
00000160: db22 8a3e 1634 ac3f 5d94 64be 6203 21be
00000170: 8ba9 3fbe 7c1d 443f 3ab9 a73e 0665 a9be
00000180: 63d3 6d3f f199 fc3d 02ef 463f d9ef 81bf
00000190: 5e8d 93bf 9e46 21bf ffdf 75be 058c 5b3f
000001a0: a2d4 cb3e e9fa 273f 24b9 07bf 4ace 52be
000001b0: 72cf efbc 232c 06be 5f81 b4be c1f6 db3d
000001c0: c3d6 fbbe b4c7 69bc 5062 9dbe 7763 1bbf
000001d0: 47fe f23d eaf4 803e 3e18 933f 3349 d33d
000001e0: 9747 70be 265d e2be b335 333d fdcb 7bbe
000001f0: 545d 74bd 27a8 0f3f f4d2 b63e 7e30 853e
00000200: 801e c93c 6a50 f03e d167 003f 75f5 103e
00000210: eadd 1bbe fc92 1fbf 64ea 55be 8e9e 23bf
00000220: 767f 4dbf a22c d5be fbfc 97bf c484 cfbd
00000230: 8e91 dc3e 4703 97be e34b c9be f556 a6be
00000240: ff3f d2be bc84 7cbe a42b 7cbf e927 9fbe
00000250: 5f21 c43d 0667 ed3d 8b9b 73bd 0762 03bf
00000260: bec0 d23d 0022 813f 9fbd 9d3e b99e 46bd
00000270: 96a1 febd ccc7 bd3d a2c0 c43e f397 4dbf
00000280: a261 86be 87a8 b53e 280d c73e 835c 41bf
00000290: 1522 79bd a79a e2be 5144 3f3f 76c0 403f
000002a0: c820 e63e 9c76 d53e 9362 7bbe eb8b d0bd
000002b0: 5a98 d4be 6e2a d8be f79c ebbe 230f 3c3e
000002c0: e829 713e b09f 5bbe 3816 d7be 58be c6be
000002d0: f27a c63e ce13 123f 79b3 473f 5e2b 283f
000002e0: f727 c8be f10b 913e 0bc6 523e 98bc 5cbd
000002f0: 2a6a 303e 7fb5 0e3f c598 0abf 4aef 4cbf
00000300: aed2 8abe 40fd 10bf 675f 133f 4ef4 40bd
00000310: 56b2 cabd 62ae 5ebe bc95 07bf b5ee 68bf
00000320: fd84 03bf f10e 00be 6992 3fbf 913d e33e
00000330: 195b 93be 60f7 63bd 6b19 6fbc c9d0 073f
00000340: f328 86bd b8cd fd3e 1594 623e 5c63 53be
00000350: fb8a 443d b64a 6a3e df40 35be 1d53 f6be
00000360: 9855 903e 6749 553f 4535 603f 6f69 663d
00000370: 510a 01be 7780 273f 2d89 fb3e 0453 2dbf
00000380: b064 313f 5a61 f4be eab2 db3e bbeb 66bf
00000390: 535c dabf db34 163e 78c0 92be df7f 233f
000003a0: 2504 703d fd7e 303f 5e02 fcbe e652 f0bd
000003b0: 2bb9 1e3e 4b8a af3e 46a2 e7be 1b41 0c3e
000003c0: 39a6 06bf 44d6 0f3e b307 9c3e a878 babd
000003d0: b15e 103f d6ea 9c3d e6f9 cd3e fd03 a7be
000003e0: 7de1 87be 2bc9 d3be 86d2 6c3f db9d 893f
000003f0: c0cd 42bf a2ee 023f 30a7 9cbc 7c55 b53e
-0.040469598 -0.39316767 0.0795717 -0.32667097 -0.1736451 -0.40125832 -0.12271934 -0.7365462
-0.35280585 -0.7319241 0.19848862 0.15307732 0.17803271 -0.30579156 -0.83355594 0.35376513
-0.23536941 -0.13845447 -0.2721335 -0.1547311 0.09461002 0.33175206 0.23831663 -0.05497427
0.092157744 0.3386001 -0.5852151 -0.083069295 0.11379465 0.14069042 -0.1588372 -0.0018392166
0.3744807 -0.58462274 0.06034375 -0.93734634 -0.6770912 -0.46806684 0.059078638 0.17167021
0.4559887 0.14440171 -0.56709695 0.14812765 -0.046072666 -0.07305892 -0.02643899 0.46060148
-0.2912583 0.11531196 -0.19128288 -0.35358536 -0.39422986 -0.104620345 0.2437489 -0.06757711
-0.17301556 -0.6703433 -0.3988114 -0.6242475 -0.6030241 0.1039778 0.030132411 0.28396413
0.09306549 -0.40425533 0.53592557 -0.039471533 -0.23186348 -1.4550781 -0.69498545 -0.4392996
-0.3128417 -0.12943695 -0.5988741 -0.42767704 -0.059245724 0.8756484 -0.93098146 0.751184
-0.4035262 -0.6358753 -0.039771147 -0.40369132 -0.13183963 0.79184926 -0.0025753048 -0.3598119
0.26979718 1.3453395 -0.22322221 -0.15723947 -0.1871702 0.7660749 0.32758504 -0.33084887
0.92900676 0.123340495 0.77708447 -1.0151321 -1.1527517 -0.6299838 -0.24011229 0.8576053
0.39810663 0.65617234 -0.5301688 -0.20586506 -0.029273722 -0.13102774 -0.35254952 0.10740424
-0.49187288 -0.014268804 -0.3073907 -0.60698646 0.11864906 0.25186855 1.1491773 0.10316696
-0.2346481 -0.44211692 0.043752383 -0.24589534 -0.059659317 0.56115955 0.3570782 0.2601356
0.024550676 0.4693635 0.5015841 0.14156134 -0.15221372 -0.62333655 -0.20890194 -0.6391381
-0.80272615 -0.41635615 -1.1874079 -0.10132745 0.430798 -0.29494688 -0.3931571 -0.32488218
-0.4106445 -0.24660009 -0.9850409 -0.31085137 0.095766775 0.11591916 -0.05947451 -0.5132145
0.10290669 1.0088501 0.30808732 -0.048491213 -0.12433164 0.09266624 0.38428217 -0.8030998
-0.26246363 0.3548014 0.38877225 -0.75531787 -0.06082352 -0.44258615 0.7471362 0.7529367
0.44946885 0.41692054 -0.24549322 -0.10182937 -0.41522485 -0.4221987 -0.46018192 0.18365149
0.23551142 -0.21447635 -0.4200914 -0.38817096 0.38765675 0.5706147 0.7800823 0.65691173
-0.3909299 0.28329423 0.2058336 -0.053890795 0.17227998 0.5574569 -0.5413936 -0.80052626
-0.2711386 -0.5663643 0.5756745 -0.047107987 -0.09897296 -0.2174621 -0.5296285 -0.9098924
-0.513748 -0.125057 -0.7483278 0.4438291 -0.2878044 -0.055655837 -0.014593462 0.53052956
-0.06550779 0.49571013 0.22126801 -0.20643371 0.047984105 0.22880062 -0.17700528 -0.48110285
0.28190303 0.8331513 0.8758128 0.056252893 -0.12601592 0.65430397 0.49128094 -0.67704797
0.6929426 -0.47730523 0.42909938 -0.90203446 -1.7059425 0.146686 -0.28662467 0.6386699
0.058597703 0.6894377 -0.49220556 -0.117345616 0.15500323 0.34285197 -0.45240992 0.13696711
-0.52597386 0.1404658 0.30474624 -0.091050446 0.5639449 0.07661979 0.4022972 -0.3262023
-0.2653922 -0.41364416 0.92508733 1.0751299 -0.760952 0.51145375 -0.01912269 0.35416782

encoder.lstm.bias_ih_l0 f4 [192]
00000000: 07fe acbf da98 c9bf 2761 7cbf 65b3 adbe
00000010: f194 38be 3031 2bbf 2c36 c0bd 7502 65bf
00000020: e64e 20bf 1804 87bf c9f6 013e bf7c bbbf
00000030: 6f88 6abf 3968 6dbe c755 e1be af89 57bf
00000040: b2bb e7bf 2370 1ebf d547 54bf 04cf 71bf
00000050: 921c 77be 8af6 7abe c0ad d6be 5b3a 11bf
00000060: b7bf 10bf a472 f2bd 036b b3be 6deb a6bf
00000070: 00eb e7be 948e 9ebe 1071 7dbf deec 15bf
00000080: 59fd 7fbf 6c02 e4be 92d4 5bbf f2da 27bf
00000090: 5e44 2fbf c018 fbbe ec6e 04bf 8f11 06bf
000000a0: 85ec c2be b497 39bf 6860 55bf 26d0 3dbf
000000b0: 6b3f 16bf 8e8a 19c0 57f4 f0be a48e 64bf
000000c0: 5d00 f6be fd85 8bbf 8d1e 2dc0 74cd 85be
000000d0: 82f3 49bf 3607 19bf 80fe 41bf 97b4 20bf
000000e0: 6355 8bbf 8606 02bf e775 01bf 2f49 9fbd
000000f0: 7286 aabf f158 74bf 2a96 54bf c360 77bf
00000100: f89c 9440 34e7 26bf e997 8f3f da8c 803f
00000110: ee96 a83f a8ba db3e 1d6d b83f 8802 9c3d
00000120: 0b26 af3f b19c af40 ba68 ac3e 07bc 2b40
00000130: ef94 913f 1783 5b40 c73a 1fbe 1158 e93f
00000140: 875d 7a3d 656b e33e e49e 9f3f f896 ab40
00000150: 3e92 853f ea49 a63e b70a a640 7169 8f3f
00000160: ffa6 aa40 c013 623e 7b09 2f3f b6a5 ae40
00000170: 4756 b140 9789 4cbf 1008 8c3f 5fa0 903f
00000180: 5f89 5a3f 0e8b f6be 3b0e b83f 4eae 9b3d
00000190: 6369 bd3e 9183 3ebf b237 403f 9097 a33f
000001a0: 76d5 973f 4b63 a33f 7f54 9a3f d8d1 1540
000001b0: 5d53 1ebf be75 953e b25e 823f 4137 b040
000001c0: 7fe5 09bf f7a9 af40 5e5b 52be 6efe 403c
000001d0: 28f6 c63f ce68 453f 4ebd 863f f99e 0f3f
000001e0: bf0c ab40 9d45 2c3f 7229 9b3f 17c2 823f
000001f0: 1cba 3abd 9c3c bc3f f834 3240 3e1d 443f
00000200: 6c6c 133c 3913 583e e902 093d a90a 1b3d
00000210: 4b43 233e c4c5 2fbd 0838 233c 07a5 df3d
00000220: e45f e6bc fde7 b63b 722f 79bd b2f7 51be
00000230: fc46 1c3e be27 2e3e 6773 adbd b522 223c
00000240: e62d 94bd 58b0 19bd d290 37bd 0688 9cbb
00000250: 74fc 79bb e0ce 27bd d814 1cbd d137 33bd
00000260: 8990 913c 1e9a 333d 624f 913d 9584 cdb9
00000270: 1f4a 9d3c b323 52be d569 133d fbe7 7dbd
00000280: 5032 75bd 83ea 3a3e 4a58 093d fc68 2f3e
00000290: 216e e43d e420 03be 36a0 113c 7217 253d
000002a0: c7cd 4dbe bba8 7c3c 5311 993c 2b7a 20bc
000002b0: d465 6abe 29b5 11be e782 fcbc 7408 aabc
000002c0: cdb4 683e 4179 9cbb f7d5 14be 8d9b cdbd
000002d0: e0ae e53c 0ba7 df3d 7bdf 563d 0f63 8b3d
000002e0: 5c2e 93bb 9119 843d 3d21 253e 5e83 223e
000002f0: f34c 2a3e e3d1 f03c 3757 9e3c 943d debc
-1.3515023 -1.5749772 -0.9858574 -0.3392593 -0.18025567 -0.6687193 -0.093853325 -0.89456874
-0.6262039 -1.0548124 0.12691797 -1.4647444 -0.9161443 -0.23184289 -0.44010755 -0.84194463
-1.8104155 -0.6188986 -0.82922107 -0.94456506 -0.24131992 -0.2450811 -0.41929436 -0.5672967
-0.56542534 -0.11838272 -0.3504258 -1.3040596 -0.45296478 -0.30968153 -0.99000645 -0.58564556
-0.9999595 -0.44533098 -0.8587123 -0.6556846 -0.68463695 -0.4904232 -0.51731753 -0.5237054
-0.38071075 -0.72497106 -0.8335023 -0.74145734 -0.5869052 -2.3990817 -0.47061417 -0.8928015
-0.48047152 -1.0900265 -2.7049897 -0.2613331 -0.7888719 -0.5977663 -0.7577896 -0.6277556
-1.0885433 -0.50791204 -0.5057053 -0.077776305 -1.332228 -0.95448214 -0.8304163 -0.9663202
4.644161 -0.6519654 1.1218234 1.0042984 1.317106 0.42915845 1.4408299 0.0761767
1.3683485 5.4878774 0.3367365 2.6833513 1.1373576 3.429876 -0.15549766 1.8230001
0.06112435 0.44417873 1.2470365 5.362179 1.0435255 0.32478267 5.188808 1.1204053
5.3328853 0.22077847 0.6837384 5.4577284 5.541782 -0.79897445 1.093996 1.1298941
0.8536586 -0.48152965 1.4379343 0.07601605 0.36994466 -0.74419504 0.75084984 1.2780628
1.1862018 1.2764677 1.2057036 2.3409328 -0.6184595 0.29191393 1.0185149 5.506745
-0.5386581 5.4894977 -0.20542666 0.011779411 1.5543871 0.77113044 1.0526521 0.5610195
5.345306 0.6729372 1.2122023 1.0215482 -0.045587644 1.4705997 2.784483 0.7660712
0.008998018 0.21101083 0.03345004 0.037851963 0.15943639 -0.042913213 0.009962089 0.10920148
-0.028121896 0.0055818544 -0.060836263 -0.20504645 0.15261453 0.17007348 -0.08469277 0.00989597
-0.07235317 -0.03752169 -0.044815846 -0.0047769574 -0.0038144859 -0.040968776 -0.038105816 -0.043754403
0.017769115 0.04384815 0.07095219 -0.00039199428 0.019200383 -0.2052143 0.0359896 -0.061988812
-0.059862435 0.18253522 0.033531465 0.17129892 0.11153818 -0.12805516 0.008888295 0.040305562
-0.20098029 0.015421088 0.018685019 -0.009794752 -0.22890407 -0.14229263 -0.030824138 -0.020755984
0.2272522 -0.004775197 -0.14534746 -0.100394346 0.028037488 0.10920533 0.05245922 0.06806003
-0.0044916105 0.06450189 0.1612596 0.15870425 0.16630916 0.029396957 0.019328697 -0.027128972

encoder.lstm.bias_hh_l0 f4 [192]
00000000: 07a4 acbf fbc9 c4bf d284 84bf fd97 95be
00000010: 898a 34be 1ef6 16bf ff89 09be 7a08 59bf
00000020: db42 1fbf 133b 96bf 342a 083e 19e0 bcbf
00000030: b304 74bf 646e 9cbd ae44 e2be e246 79bf
00000040: 9ff5 dcbf 09fb f4be c499 47bf d9d5 70bf
00000050: cbe5 6abd eaa0 d9be 2f7a 04bf 32ec 4abf
00000060: fbb4 10bf e93e 61be 8927 bdbe 42b9 a1bf
00000070: efcc 05bf bdab 23be 6cd4 69bf 74aa fdbe
00000080: 4e0c 62bf 0d3b 06bf 7187 24bf d0f9 f6be
00000090: 7fe0 2abf cde9 fabe 6fc5 d6be b441 06bf
000000a0: 3488 d1be 8a97 0abf 6c3f 6ebf 9eb7 2cbf
000000b0: f0a8 35bf 3754 0fc0 5041 f4be 37ae 68bf
000000c0: fdbb a1be e1e9 8cbf 1cd9 2ac0 3a61 4ebe
000000d0: 7a1b 68bf 1957 3bbf 8715 70bf 8710 3dbf
000000e0: e123 64bf 98b9 dabe e763 febe 361e cdbc
000000f0: 336c abbf 5200 6abf 179e 5ebf 40e1 68bf
00000100: f132 9540 a0af 12bf 3ecd 903f 3762 833f
00000110: 6d08 a63f 4b9d 163f 4976 b03f 440c de3d
00000120: 1de2 a93f aae8 af40 df70 113e a08a 2440
00000130: 3960 9c3f 3723 6540 2f51 59be 8524 e33f
00000140: e5ce 2f3e 6006 043f 2872 a93f 7062 aa40
00000150: ac16 8f3f cdc7 573e ee23 a540 b1a4 7e3f
00000160: cf99 ab40 3ea6 713e 3b6d 3a3f 0d5e ae40
00000170: 4bb8 af40 0c8d 25bf 2a98 973f 54a0 a03f
00000180: 978f 703f b411 b2be 65e6 b93f d8b7 893d
00000190: 4891 b13e 4a69 35bf a0e8 5b3f e785 a53f
000001a0: 3402 a43f 39c5 963f ac4a 9c3f d6ff 0a40
000001b0: 588f 39bf b5c7 9d3e 96c5 643f 34dd b240
000001c0: 779c 0bbf 2d82 ac40 50c4 49be fb81 9f3d
000001d0: fb34 b33f 2968 523f 87cd 913f fe3c 1a3f
000001e0: 5386 ab40 38ef 2e3f 9c33 b63f 109d 963f
000001f0: bc0c 03be f283 b73f 73e2 3140 d1e4 623f
00000200: 25f7 a9bd a5b5 d03c 7e67 7dbd 1145 cfbd
00000210: be66 383e 3043 77bc 90a4 113d e995 e63d
00000220: 8f10 c23c f55e ce3b 83e8 cb3d 447a f43d
00000230: 677c 393d dedf 203e c707 4ebe 14b9 60bd
00000240: 48bc 74ba eee0 2f3e d1fc 243e 52e9 333c
00000250: f9e5 3dbe 8587 9c3d ddac 183e 5d5a 973d
00000260: 6f46 ccbd 88a5 9abd b36e a7bc 6c51 afbc
00000270: ebe0 63bd 2d7e 40be 4fa5 bdbd 7868 7c3e
00000280: 9afe 033e f78b e13d a5c9 a0bd 13de 093e
00000290: 43ec 96bc f10c 01be e507 d23d e92c 7dbd
000002a0: bfce 20be 7510 32bc 2fe1 a53c 6b42 4c3c
000002b0: 89a7 ddbd 2c90 1abd 4836 a33c 7419 e03d
000002c0: c875 363e 50fa 493c 59a4 4abc 65ff 5dbe
000002d0: 65de 3fbd 933b 21be f9d5 42be 6868 59be
000002e0: 8d01 b33d 6dbd e9bb 2e53 473b 96fb 3d3e
000002f0: ced4 6c3d 6296 82bd ba44 65bd d669 d9bd
-1.3487557 -1.537414 -1.0353034 -0.2921752 -0.17630972 -0.58969295 -0.13431548 -0.8477856
-0.6221139 -1.1736778 0.13297349 -1.4755889 -0.9531967 -0.07638243 -0.44193023 -0.97373784
-1.7262458 -0.47847775 -0.77969 -0.94076306 -0.057348054 -0.4250558 -0.5174894 -0.79266655
-0.56526154 -0.21996655 -0.36944225 -1.2634661 -0.5226583 -0.15983482 -0.91339755 -0.49544108
-0.88300025 -0.52433854 -0.6426917 -0.48237467 -0.66748804 -0.490065 -0.41947505 -0.52444005
-0.40924227 -0.5413748 -0.93065524 -0.6746768 -0.70960903 -2.239515 -0.4770608 -0.9089083
-0.31588736 -1.1008874 -2.6695013 -0.20154276 -0.90666926 -0.73179775 -0.9378285 -0.73853344
-0.89117247 -0.42719722 -0.49685594 -0.02503882 -1.3392395 -0.9140674 -0.86959976 -0.90968704
4.6624684 -0.5729923 1.1312635 1.0264348 1.2971321 0.5883376 1.3786098 0.10842183
1.3272129 5.4971514 0.14203213 2.570961 1.2216865 3.5802743 -0.21222375 1.774552
0.17168768 0.5157223 1.3237963 5.3245163 1.1178794 0.21072312 5.160636 0.9947005
5.3625255 0.23598573 0.7282292 5.448981 5.4912467 -0.64668345 1.1843312 1.2548928
0.939691 -0.3477913 1.4523436 0.067245185 0.34681153 -0.70863783 0.8590183 1.2931489
1.2813172 1.1778938 1.2210288 2.171865 -0.7248435 0.30816427 0.8936399 5.5895023
-0.5453562 5.3908906 -0.19703794 0.07788464 1.4000543 0.82190186 1.1390847 0.60249317
5.360147 0.6833377 1.42345 1.1766682 -0.12797827 1.4337142 2.7794464 0.88630396
-0.08299092 0.02547724 -0.061866276 -0.10120595 0.18007943 -0.015091702 0.03555733 0.11259062
0.023689536 0.006297941 0.099564575 0.11937383 0.045284655 0.15710399 -0.20120154 -0.054864004
-0.00093359174 0.17175648 0.16112067 0.010980921 -0.18544759 0.07643036 0.14909692 0.07390282
-0.09974372 -0.07551104 -0.020438528 -0.02140113 -0.05563442 -0.18798132 -0.09260046 0.24649227
0.12890092 0.11013024 -0.07850961 0.13463621 -0.018423205 -0.12602593 0.10255412 -0.061810408
-0.15703867 -0.0108681815 0.020248977 0.012467007 -0.108229704 -0.03773515 0.019923344 0.10942355
0.17818367 0.012327746 -0.012368285 -0.21679457 -0.04684295 -0.15745382 -0.19026937 -0.21231234
0.0874053 -0.007133177 0.003041457 0.18553004 0.057820134 -0.063763395 -0.055973746 -0.1061589

encoder.lstm.weight_ih_l0_reverse f4 [192, 1]
00000000: 20d7 aa3a 4a87 153a 1372 d83c 034f bfbe
00000010: 40e9 8b3c f3f0 bebe 6bce d8be 11cc acbb
00000020: 0361 623e db0d ee3b 82bc 5e3d baba 5d3f
00000030: 2fcf e2be b485 2d3f e070 8cbe 2236 d23d
00000040: d7ad 443d 04a7 89bd 5ecf f9bd c117 c33b
00000050: c309 9d3c 3061 823d 18d8 47bc 9375 cbbd
00000060: 9c0e 05bf f3ee 44bf e0ab 25bf c8e7 35bc
00000070: 729e c6be c076 19be 7dfc 1bbc 9325 3abe
00000080: bf0c d7be f698 d3bc 8fd1 5d3e b8b1 003f
00000090: 0d94 c0bb 3768 e4bc 91f0 cc3e cbff 55bd
000000a0: 391e f6bd 4da5 4cbc 0540 e0bb 925f 2f3c
000000b0: b929 35bc 3123 79bf a09c 05bf 0497 ca3c
000000c0: f5d8 91bf 6be2 8cbc 4f4d 993e f68b 0bbc
000000d0: 7ca3 14bf 4d76 3f3f 9294 6dbf 7793 3f3f
000000e0: 3d39 34bc 0d43 823f 2137 ad3c 7657 c9be
000000f0: 79d1 263e c1c8 7abb 8724 ddbe b620 00bf
00000100: 54ac eebb 92f5 a13b e23c 3ebb e999 1bbc
00000110: 614d d7bb 1327 dcbb c268 91be 799a 5dbc
00000120: 5d71 d9bb e597 2c3b c832 3abc 9391 153e
00000130: 93e1 9dbb 7eb0 22be 7ea0 ecbb 4b7f 4d3e
00000140: ef89 2dbe 3183 8dbc 6c3a 08be 6107 cdbb
00000150: 6462 77bb 0f16 34be bc97 73bc 0b53 39be
00000160: d338 14bc 2a16 5cba f9d5 41be f9cc 11bc
00000170: 97ab f13a ae17 93bb 69b3 39bc 0a65 3e3b
00000180: 7f54 32be aa82 973b c5a5 fa3d 16b3 ccbb
00000190: 82f1 82bc 0f3e 8d3d d5e7 bbba 1043 f7bb
000001a0: ddfe fb3d 6833 2ebb be01 97bb b61d 06bc
000001b0: 78c0 51bb 81b8 f33d bb4e 48bb 332d 0ebc
000001c0: 4960 42be e6fe dfbb 9bdd 0fbe ca40 0dbc
000001d0: fe9a 66b9 c7f6 c9bd 674f 00be 3a38 72bc
000001e0: 0574 eabb fa7f 1c3e 2282 0fbc 3160 4fbe
000001f0: 9665 833e 7015 41bc b68c 40be 092d 5cbc
00000200: 87a8 203a 857d 893b 1734 493b a23e 12bc
00000210: ca76 06bc b15b bdba 30df 3e3e 53dc eaba
00000220: cf23 16ba fb95 d83b d57b 8c3b b868 c4bd
00000230: 4427 ffbb aa7e d63d 98d7 443b 5761 293e
00000240: 2a7d c9bd c50c 00bb 4189 cabd 7b26 26bb
00000250: e027 d8bb 9660 d4bd 5068 9f3a 38b7 d53d
00000260: 2abd 053b 3996 d7b9 12d2 233e 7447 c33b
00000270: 3078 29bb 22cb 3139 8652 cd3b 7499 ae3a
00000280: 3d3c d3be 97aa 61ba feaa de3d 98b7 69bc
00000290: 3ab6 033b 90ef 093d 0eb8 88bb da07 133b
000002a0: 9f6e 9e3d 2068 373b 79c7 9c39 f7a3 993b
000002b0: 6741 07bb d421 c63d 4af5 31ba eec7 47bb
000002c0: 9597 44bf 2539 263c 8fc4 c3bd f426 3f3c
000002d0: f16a b9ba 7b54 b3bd c1d1 ac3d 2ed7 39bb
000002e0: 6dcb a4bb 7bbb c0bd 7fad 003b 525f 3dbe
000002f0: 239b 153e cab0 4e3b 0661 dfbd 76a7 e8bb
0.0013034083 0.00057040586 0.026421582 -0.3736497 0.017078996 -0.37293205 -0.42344984 -0.00527335
0.2210732 0.0072648353 0.054378994 0.8661305 -0.44298694 0.6778214 -0.27429867 0.10264231
0.04801735 -0.06721309 -0.12197755 0.0059537594 0.019169694 0.06366193 -0.012197517 -0.09934535
-0.5197542 -0.7692711 -0.64715385 -0.011102624 -0.3879276 -0.14986706 -0.009520647 -0.18178396
-0.42001912 -0.025829773 0.21661972 0.5027118 -0.005877024 -0.027881725 0.40027288 -0.052245896
-0.12017483 -0.012490583 -0.006843569 0.010703938 -0.011057311 -0.9731932 -0.52192116 0.024730213
-1.1394335 -0.017197808 0.29941794 -0.008517256 -0.5806196 0.7478989 -0.92804825 0.7483439
-0.010999975 1.0176712 0.021144452 -0.3932454 0.16290845 -0.0038266631 -0.4319193 -0.5004991
-0.0072837267 0.0049426043 -0.0029027988 -0.009497144 -0.0065705036 -0.006718525 -0.28400236 -0.013525599
-0.0066358284 0.0026335653 -0.011364646 0.14606313 -0.0048181503 -0.15887639 -0.0072212806 0.2006809
-0.16947149 -0.017274471 -0.13303536 -0.006256983 -0.0037747854 -0.1758654 -0.014867719 -0.18098085
-0.009046751 -0.00083956367 -0.1892928 -0.008898967 0.0018437979 -0.004488907 -0.011334279 0.0029051923
-0.17415045 0.0046237307 0.12238649 -0.0062469346 -0.0159843 0.06896602 -0.0014336059 -0.0075458363
0.12304471 -0.0026580933 -0.004608362 -0.008185795 -0.003200559 0.11900426 -0.0030564505 -0.0086777685
-0.18982042 -0.006835806 -0.1404938 -0.008621404 -0.00021992248 -0.09861522 -0.1253029 -0.014783913
-0.007154944 0.15283194 -0.008759053 -0.20251538 0.2566344 -0.011784896 -0.18803677 -0.013438472
0.0006128628 0.0041958713 0.0030701214 -0.008926066 -0.008207032 -0.0014446882 0.18639827 -0.0017918445
-0.0005727382 0.006609676 0.004287223 -0.09590286 -0.0077866632 0.10473378 0.003003573 0.16541038
-0.09838326 -0.0019538861 -0.0988946 -0.0025352526 -0.0065965503 -0.10369985 0.0012161825 0.10435337
0.002040694 -0.0004111992 0.15998104 0.0059594456 -0.002585899 0.00016955708 0.006265941 0.0013320879
-0.41256896 -0.0008608489 0.10872458 -0.014264964 0.002009763 0.03367573 -0.0041723317 0.00224351
0.07735943 0.0027985647 0.00029903257 0.0046887356 -0.0020638348 0.09674421 -0.0006788565 -0.0030484158
-0.76793796 0.01014546 -0.09558975 0.011667002 -0.0014146251 -0.08756348 0.08438445 -0.0028357017
-0.005029133 -0.09410759 0.0019634662 -0.18493393 0.14609961 0.003153848 -0.109071776 -0.007100041

encoder.lstm.weight_hh_l0_reverse f4 [192, 64]
00000000: 12bd 88bf 8b0e 0bbe 781b d73d e5d2 a13d
00000010: e9a2 8b3d a8a0 afbd f458 1ebe 2b1a 633d
00000020: fc1e 85be 2825 d2bd 647b 5dbe 376c 42bd
00000030: 6a97 283e 3b49 27bf d520 da3b 715b 7b3e
00000040: 5b70 013f 2a63 74bd d8c9 323e d80a 7e3e
00000050: 89a3 2fbf 6243 ed3e add2 793e 283a 18bf
00000060: ee1a b3be cee7 293e 2863 33be 6ecb b6bd
00000070: 58c7 b3be c3ab da3c 3379 9e3d 25b3 97be
00000080: 288d bc3d f708 09be 1306 893e 1201 c03e
00000090: aabe 2fbe 6b5c 713d 5a16 923e 943c e9bd
000000a0: df36 c83b b95a 09bc 6813 523e a89c 12be
000000b0: 157e a7bc adf8 d23d d707 52bd ef5c 403e
000000c0: 92a3 463d b76c b33d 4561 323f 25da ecbd
000000d0: a625 24be efec e33e 1072 d5be ea12 4f3e
000000e0: 60ce 983e c2e9 c9ba 92b3 88bd eeaf ccba
000000f0: d8c3 413d 2f2c 61bc 1883 173f 2521 c63e
00000100: 1078 af3e 9420 67bf c8a2 9d3d 1258 b5be
00000110: 657b 833e 394e ccbe 44ee 6fbe df9e 9bbe
00000120: 0526 06be 2560 c4bd 487c 14bf 3b0a ebbe
00000130: 059d 3bbe 7fc7 0ebf 8905 803e 64c6 303f
00000140: be4b 1a3f c160 10be 109a f2bd 29e4 d23d
00000150: 124d a33e 7805 5d3e 8b15 0b3e ae7d 04bf
00000160: ec49 0d3d 1aa2 603e 4c36 63be 1dc7 0bbe
00000170: 37fd d33e 81fc 4a3e 002e 12be 704f 1c3e
00000180: 3c09 553d dfd7 dcbd 9563 793e ca62 bb3e
00000190: 2d39 123e 0ea2 0e3f 3781 9ebd 6939 d8bd
000001a0: 0a79 e43e 8a4b 3abd a38e 673e 1fe2 57bd
000001b0: cd53 9fbe 368b bd3e 4890 93be cf20 203e
000001c0: 455f 473e 91c2 88be 0ca1 103e 4738 6cbd
000001d0: b808 0c3e eda4 023f 15b2 c9be c26f 1f3f
000001e0: 6f99 4a3e b417 b8be cbb2 88be 6ccc d43e
000001f0: 3442 1c3f c5cb 063e 1d03 1d3f 21b2 c53e
00000200: 0402 2a3f b639 fdbe d6c5 113f 0b78 02be
00000210: a82a 833d ddda 6dbe 1c7a 14be 2616 d6be
00000220: 01e1 663d 4bad 89be 5057 c5be 11a1 bdbe
00000230: 33f7 0a3c 9687 96be f2cd 133e 50fc 0c3f
00000240: 3471 473e 15c3 83bd d91e ea3d b874 02bc
00000250: e899 ad3e 720c 603e 8b58 29be d2ed c9be
00000260: 6ed1 df3c 549a b6bc db71 c2bd 04c2 103b
00000270: cc58 193f 8e57 3b3e 8827 efbd 4463 c83e
00000280: 9fd1 4f3d 6409 b1bc 343f 7c3e bd14 9e3e
00000290: c24a cd3e 0369 073f 2aab 70be 7abb 713c
000002a0: cd13 d63e a70f 213d 0197 a5bd 748b fa3c
000002b0: 2677 eabd b912 a23e 9b78 b1be a2a3 223c
000002c0: c09f 08bd 48d9 1cbe 531d 653e f12d ca3c
000002d0: 92f0 483a ceb1 0c3f ba49 5cbe c6d6 973e
000002e0: d103 62be 9d14 dcbe af79 39be 42f4 0b3e
000002f0: a380 4e3f f20c f03d e305 c93e 0999 5f3e
00000300: 0884 0e3e 1770 59be ea5b 0d3e 492b 123f
00000310: e51d 313d 78ae 70be 2ae5 81be d4c0 f0be
00000320: 1fd6 ba3c 2b86 1fbe 444c 6abe a7df 3dbe
00000330: e08b 053c 06e7 d2be 3ca3 c23c 191b 4e3e
00000340: 1389 803e 29d4 e0bd a650 963c d8b5 8dbd
00000350: 1c74 973e 0169 653d b11f f2bd 1479 04be
00000360: 2ed9 daba 0218 173e 4cfa e9bd 7b46 f73d
00000370: eeb7 a23e 7c96 793e e6d0 d6bd 4b95 9d3d
00000380: 3d7e 433d 7c13 03be faa0 ce3c 22e9 a83d
00000390: ae8a 903d a5bf bf3e 4c2d d93b ee08 d03c
000003a0: 8a8a 923e bd34 0f3d 4034 033e 3aad 91bd
000003b0: 9320 123e 52a4 843e 1251 02be ef25 863e
000003c0: 7030 e53d e8f5 35bd b248 bb3d 1e2b c5bc
000003d0: d198 98bc 85d7 ba3e 1b20 b4be e1a9 9a3e
000003e0: 0050 f43c 5fae 0dbe e0d8 dc3c 66aa 453e
000003f0: 3b72 803e 020b c33d 9679 9a3e 4e0e d23d
-1.06827 -0.13579766 0.10503286 0.07901553 0.06818182 -0.085755646 -0.1546362 0.055444878
-0.26000202 -0.10260993 -0.21629101 -0.047466483 0.1646401 -0.65346116 0.006656746 0.24546601
0.50562066 -0.059664883 0.1745981 0.24808824 -0.6860891 0.46340472 0.24396773 -0.5946374
-0.34981483 0.16592333 -0.17518294 -0.0892552 -0.35113025 0.02669323 0.07737961 -0.29628864
0.09206611 -0.13382326 0.26762447 0.37500817 -0.17162576 0.058926027 0.28532678 -0.113885075
0.006110057 -0.008383446 0.20515215 -0.14317572 -0.020445863 0.103013374 -0.051277008 0.18785451
0.048495837 0.0876097 0.6967967 -0.11565045 -0.16029987 0.44516703 -0.41688585 0.20222059
0.29844952 -0.0015404748 -0.06674875 -0.0015616396 0.04730591 -0.013743444 0.5918441 0.38697162
0.34271288 -0.90284085 0.07697064 -0.35418755 0.2568008 -0.3990343 -0.23430735 -0.30394647
-0.13100441 -0.095886506 -0.5800214 -0.45906243 -0.18321617 -0.55773157 0.25004223 0.6905272
0.60271823 -0.14099409 -0.11845791 0.10297424 0.31894737 0.21584117 0.13582437 -0.5175427
0.034494326 0.21936837 -0.22188681 -0.13650174 0.41404125 0.19822885 -0.1427536 0.15264678
0.05201076 -0.10783362 0.24354394 0.36598808 0.14279623 0.55716026 -0.077394895 -0.10557825
0.44623595 -0.045482196 0.22613005 -0.05270588 -0.31118622 0.37020272 -0.28821015 0.15637515
0.19469936 -0.26710942 0.14123935 -0.057670858 0.13675201 0.51032907 -0.39393678 0.62279904
0.19785093 -0.35955584 -0.26698908 0.41562212 0.6103852 0.1316367 0.61332875 0.38612464
0.66409326 -0.49458092 0.569425 -0.12741105 0.064046204 -0.23228021 -0.14499706 -0.41813773
0.056366924 -0.26890025 -0.38543177 -0.37036946 0.008481788 -0.2940032 0.1443403 0.550725
0.19476777 -0.06433693 0.11431665 -0.007962398 0.33906484 0.21879748 -0.16537683 -0.39439255
0.027321544 -0.022290386 -0.094943725 0.0022088299 0.5990112 0.18295118 -0.11677462 0.39138234
0.05073702 -0.021610923 0.24633485 0.30875197 0.40096098 0.5289461 -0.23502794 0.014754171
0.41811982 0.039321568 -0.08085442 0.030584075 -0.11448507 0.3165491 -0.34662327 0.009926708
-0.033355474 -0.15317261 0.22374468 0.02468011 0.00076652423 0.5495881 -0.215125 0.29656047
-0.22071768 -0.42984477 -0.18112825 0.13667396 0.80665034 0.11721219 0.39262304 0.21835722
0.13917553 -0.21234165 0.13804594 0.570973 0.0432414 -0.23504055 -0.2537015 -0.47022116
0.022807179 -0.15578525 -0.22880656 -0.18542348 0.008151025 -0.41191882 0.023759477 0.20127524
0.2510458 -0.10977966 0.018349003 -0.069194496 0.29580772 0.056008343 -0.11822451 -0.12936813
-0.0016696805 0.14755252 -0.114246935 0.1207399 0.31780952 0.24373811 -0.10489063 0.07694491
0.047727812 -0.12800401 0.025223244 0.082475916 0.07057701 0.374509 0.0066277143 0.025394883
0.28621322 0.034962405 0.128129 -0.071131185 0.14270239 0.25906616 -0.12726238 0.26200816
0.11190879 -0.044423968 0.09144725 -0.024068411 -0.018627556 0.36492553 -0.35180745 0.30207732
0.029823303 -0.13836049 0.026958883 0.19303283 0.2508715 0.09523584 0.30170888 0.10256635

encoder.lstm.bias_ih_l0_reverse f4 [192]
00000000: f2e3 01bf c4ce 9dbf 3725 6dbf a3ab e5be
00000010: 4b7b 7dbf 9024 89bf d2d9 3ebf 95a9 89bf
00000020: 2ccd 22bf 3909 76bf 19d7 8abf 34db a3be
00000030: b9fa aebe 6e57 77be d8be 09bf c013 87be
00000040: 65be d9be b0e0 69bf 5091 9c3d 77b0 7dbf
00000050: 5f73 75bf 5999 b7bd 0466 86bf c296 99be
00000060: 838e 1bbf 396f 59bf 7bee 24bf 8d2f 75bf
00000070: 1f14 56bf 17a8 10bf fc3b 7dbf ab54 0abf
00000080: 4469 d0be ece2 69bf 7c15 4abd 7fc8 debe
00000090: 62a5 8ebf 160f 02bf 4ef3 ecbe aa28 72bf
000000a0: b332 4bbe a971 82bf 0d4c 46bf e791 bcbf
000000b0: c76b 8dbf 8591 f8be 3115 02bf 8c41 9abf
000000c0: 9737 9abf 6067 7ebf 4a69 853e 704f 8abf
000000d0: dacf 38bf 3a9f 6bbe d78f 45be 0e4e 32bf
000000e0: 7b8c 6dbf c258 96be ba9b 9ebf 72dc 46bf
000000f0: 3f3c 803c 1fbd 4dbf 8ba9 d5be 9861 d7be
00000100: 0825 6840 ae73 c740 a934 cc40 6003 cc40
00000110: 3cd3 cc40 7c53 cb40 d846 07be 1dfe c340
00000120: 4b65 8740 7e3d c440 d33d c340 8c77 343f
00000130: 660b cd40 e234 4c3f 0e07 c940 82c2 de3d
00000140: 019d 833f 4c87 c640 c13f 003f dcbc c740
00000150: ed1c a840 de95 7d3f ea17 c740 cdae 923f
00000160: 42f5 c740 144a c740 60bd 0d3c 56b1 cc40
00000170: 01c2 ae40 f031 c940 f9a4 c840 eef5 c540
00000180: 2524 1abf 9580 c940 8b75 923e cb31 c240
00000190: caf7 c640 f623 3a3f 4aa1 c740 2e27 c940
000001a0: 6eb1 713f 5474 c940 3759 cb40 9608 c740
000001b0: 68fe cc40 7f83 6a3e 3fa2 c740 9e4b c940
000001c0: 65ea 1bbf 2d40 c840 c8c7 663f 5733 9040
000001d0: 549c cb40 5551 6a3f 216b 6c3f 095a 2e40
000001e0: 9413 c540 c57d 6a3f fb36 c740 a206 babe
000001f0: 8e69 3b3e efc7 c940 ef22 7f3f 5f9d c240
00000200: 1d09 9cbc 8ced c3bb 354a 1a3b 016f 863d
00000210: 5ff6 35bb 9b60 2fbc 1ecc 5dbd 2b60 9dbb
00000220: c101 a4bc b1d2 bcbb 4de9 b7ba 5569 13be
00000230: 3801 a73d 1c88 013d d671 99bc 48f8 283e
00000240: df18 653d 1c17 35bc f212 c73d c791 3c3b
00000250: 37a6 f0b8 94e8 443e e1e8 483b 30c9 d1bd
00000260: 842d 0dbd c11e dcbb a6ee 22bd 48b3 f1bb
00000270: d627 943c 00fe 403b 8e34 99bb a242 a33c
00000280: 277e 2c3d f488 1b3c 396a da3e 743b 9abd
00000290: cb26 1c3b d32a 0f3c 0103 5bbd 330f b839
000002a0: 816d 7fbd fa54 bb3b 8ce4 03bc 249e 023b
000002b0: d092 91ba 3f29 4a3e ba68 e73c 0172 e6ba
000002c0: ce6f 2c3e 2766 31bb 2f70 9dbc b93d 0f3c
000002d0: a1cd cdbc 455a d43d 24b0 0bbe 5a49 16bc
000002e0: 2472 7cbc 46dc e1bd 5f8a 8dbb 4fa3 603d
000002f0: ad8d a9bd c7f9 3abb e62c dc3d 0aa1 3f3d
-0.5073844 -1.2328725 -0.9263491 -0.4485751 -0.99016255 -1.0714283 -0.7455112 -1.0754877
-0.6359432 -0.9610782 -1.0846893 -0.32003176 -0.3417566 -0.24154446 -0.5380683 -0.26382256
-0.42528072 -0.9135847 0.07644904 -0.9909739 -0.9587917 -0.089647956 -1.0499883 -0.29997832
-0.6076433 -0.8493534 -0.6442639 -0.9577568 -0.8362445 -0.56506485 -0.98919654 -0.54035443
-0.4070531 -0.9136188 -0.049336895 -0.4351234 -1.1144221 -0.5080427 -0.46279377 -0.945933
-0.19843559 -1.0190936 -0.77459794 -1.4732026 -1.1048516 -0.48548523 -0.50813586 -1.2051253
-1.2048215 -0.9937649 0.26056892 -1.0805492 -0.72192156 -0.23009959 -0.19293152 -0.6965035
-0.9279248 -0.29364592 -1.2391274 -0.7768012 0.015653728 -0.803667 -0.41730914 -0.42066646
3.6272602 6.232871 6.3814282 6.375412 6.4007854 6.353941 -0.13210618 6.1247697
4.231115 6.1325064 6.101297 0.70494914 6.4076414 0.7976819 6.282111 0.10876943
1.0282289 6.2040157 0.5009728 6.241804 5.253531 0.99056804 6.221669 1.1459595
6.2486887 6.2277927 0.008651108 6.3966475 5.461182 6.287346 6.2701383 6.1862707
-0.602114 6.296946 0.28605303 6.0685782 6.2177477 0.7271112 6.2384386 6.2860327
0.9441136 6.29545 6.3546405 6.219798 6.4060555 0.22901724 6.2385554 6.2904806
-0.6090453 6.257834 0.9014859 4.506267 6.362833 0.9153035 0.92350966 2.7242453
6.15864 0.9159816 6.2254615 -0.36333185 0.18301985 6.305656 0.9966268 6.0817103
-0.019047314 -0.0059792455 0.0023542766 0.06564141 -0.0027765257 -0.010704185 -0.05414974 -0.004802724
-0.020020368 -0.005762421 -0.0014031321 -0.1439565 0.08154529 0.031623945 -0.018731039 0.16500962
0.055931922 -0.011052873 0.097204104 0.0028773414 -0.00011475052 0.19229347 0.0030656385 -0.102434516
-0.034467235 -0.0067175333 -0.039778374 -0.0073761083 0.018085402 0.002944827 -0.0046754545 0.019929234
0.042112496 0.009493101 0.42659166 -0.07530871 0.0023826833 0.008738237 -0.05346966 0.0003510654
-0.06236029 0.005716917 -0.008050095 0.0019930685 -0.0011106376 0.19742297 0.02824818 -0.0017581583
0.16839525 -0.0027068944 -0.019218532 0.008742743 -0.025122466 0.1036878 -0.13641411 -0.009172762
-0.015408073 -0.11028342 -0.0043194736 0.054843243 -0.08278976 -0.0028530227 0.10750751 0.04678444

encoder.lstm.bias_hh_l0_reverse f4 [192]
00000000: f59b d6be 636a 9dbf 71ac 7ebf 74f7 f8be
00000010: 8b5e 86bf 84fc 83bf b579 5dbf fcf2 88bf
00000020: 4510 13bf 3df3 83bf 0631 85bf 9d67 80be
00000030: aaf7 a0be 2b4b a1be 67e5 14bf 77d3 58be
00000040: d4f7 b5be 53ca 7abf c5f1 333e 72bf 7bbf
00000050: ae09 3dbf 2940 a3bd d72b 8ebf a9e1 7ebe
00000060: 9aea 23bf 96a8 7cbf f09b 22bf 949a 5cbf
00000070: 664c 6cbf ed9e 38bf 88b9 8bbf ce3f fcbe
00000080: 97b5 62be 5ba8 60bf d35a 12be 21ea 02bf
00000090: 96d9 93bf f0cb 13bf ce95 1fbf 533c 3bbf
000000a0: db0e a8be 297a 6abf 0543 47bf 8f24 bcbf
000000b0: 6c2a 97bf 89d7 e2be 17b5 a3be 16c8 a0bf
000000c0: f35c 8ebf 57d0 69bf 1253 8f3e 92e6 8fbf
000000d0: 95ec 31bf 8ac8 a5be 7df1 04be f94d 68bf
000000e0: 00a5 63bf e405 8dbe 3358 91bf 52a3 2dbf
000000f0: c088 0c3e eb83 46bf c63c 0abf 9e52 93be
00000100: 582b 6040 8b42 c740 10c9 c540 2d82 cd40
00000110: 95dc c740 cd60 c940 2c10 46be c9cd c340
00000120: fb76 8140 0cb1 c240 1773 c340 3cf3 553f
00000130: d374 cb40 c97c 823f d9cf c840 2126 a43d
00000140: 9a56 583f c8aa cd40 4491 223f 0108 c940
00000150: d0a9 a640 a990 803f b1c3 c540 4a91 833f
00000160: 15fd c940 1031 c740 0d8e c1bd 1833 c740
00000170: 7c1d af40 879a cb40 ca6d c740 1222 c540
00000180: 57b5 14bf f783 c740 2ee0 203e bf28 c340
00000190: 9320 c740 c7c7 643f 8009 cb40 27ef c840
000001a0: 99ab 633f 39eb c640 f40c c640 6076 c740
000001b0: f5da c540 1623 f13d 225e cb40 d37c c640
000001c0: d1a0 1fbf 31c7 cb40 aa75 343f 54e0 9040
000001d0: 5394 cb40 77b7 7e3f 4281 563f e197 2340
000001e0: ced6 c640 5256 5a3f bca6 ca40 8383 7bbe
000001f0: 13b6 903d e086 c940 9133 913f d636 c440
00000200: 6b2b 4b3d f43c 823d 8583 74bc 7425 4bbe
00000210: 7044 403b e5ea bc3d 461e 363d 2843 403d
00000220: 11c1 833d 0a50 e53b 4b4d 493c 2187 e23e
00000230: 26d5 56be 25fb 33be a336 963d b10b 11bd
00000240: 94e7 3ebd f795 ca3c 24b4 513e babd 433c
00000250: b47b 103b fbb0 99bd 8191 3cbb f5fc fa3d
00000260: 7d76 f03d 2522 6d3d 81a0 623d bb75 4f3d
00000270: cb9b 97bd d137 05bd 7b2d 313d 76aa c0bd
00000280: e55c 3bbe f1c2 a9bc ebaf 983e 5145 593e
00000290: 04d6 8cbc 863c 9cbd 38d0 543e ccdf 88bc
000002a0: 1857 2b3d 9837 bebc 4d44 4c3c 0590 17bc
000002b0: 8f07 d6bb d2b4 b93e 981c b6bd 34e0 043c
000002c0: fdf4 8a3d 5846 ee3b f958 e43d 6fe5 b6bc
000002d0: c436 ed3d e1de c23e 79da a33e 7667 ee3c
000002e0: efef 0a3c 948e c63e a4a6 6c3b 87ba 45bc
000002f0: 6802 503d 23da a4ba e3ae 3ebe 51df 0fbe
-0.4191586 -1.2298092 -0.99481875 -0.48626292 -1.0497602 -1.0311437 -0.86513835 -1.0699153
-0.574467 -1.0308605 -1.0405586 -0.2507905 -0.31438953 -0.3150266 -0.5816254 -0.21174417
-0.3554064 -0.9796497 0.17572697 -0.98339 -0.73842895 -0.07971222 -1.1107129 -0.2489077
-0.6402985 -0.9869474 -0.6351919 -0.8617337 -0.92304075 -0.721175 -1.0915995 -0.4926743
-0.22139584 -0.8775689 -0.14292459 -0.511385 -1.1550777 -0.5773306 -0.6233796 -0.7313892
-0.32823834 -0.9159265 -0.7783664 -1.4698657 -1.1809821 -0.44305065 -0.31974098 -1.2561061
-1.1122116 -0.91333526 0.27993065 -1.124224 -0.6950162 -0.32379562 -0.12982745 -0.90743977
-0.88923645 -0.27543557 -1.1355041 -0.6782733 0.13724041 -0.7754504 -0.5399898 -0.2877397
3.5026455 6.226873 6.180794 6.4221406 6.2456765 6.2930665 -0.19342107 6.1188703
4.045774 6.084112 6.107799 0.8357427 6.358011 1.0194331 6.275372 0.08015085
0.84507143 6.4270973 0.6350291 6.282227 5.208229 1.0044147 6.180138 1.0278714
6.312144 6.224739 -0.09450922 6.224987 5.472349 6.362613 6.232152 6.160409
-0.580892 6.234859 0.15710518 6.098724 6.2227263 0.89367336 6.3449097 6.2791934
0.8893371 6.2162137 6.189081 6.2332 6.182978 0.1177427 6.355241 6.2027373
-0.6235476 6.3680654 0.7049204 4.527384 6.361856 0.99498695 0.8379098 2.556145
6.2137213 0.85287964 6.3328533 -0.24561886 0.07065978 6.297714 1.1343862 6.131694
0.049601953 0.06359282 -0.014923935 -0.19838506 0.0029337667 0.0922449 0.044462465 0.046939045
0.06433309 0.006998067 0.0122864945 0.4424372 -0.20979747 -0.17576273 0.0733464 -0.03541154
-0.04660757 0.024729712 0.20478874 0.01194709 0.002204639 -0.075044595 -0.002877325 0.12255279
0.1174135 0.05789389 0.05532885 0.050649386 -0.07402762 -0.032523934 0.043256264 -0.09407513
-0.18297155 -0.020722838 0.29821715 0.21217848 -0.017191894 -0.076287314 0.20782554 -0.016708277
0.041831106 -0.023219869 0.012467456 -0.0092506455 -0.006531663 0.36270767 -0.088921726 0.008110095
0.06785009 0.007271569 0.11149783 -0.0223262 0.11582711 0.38060668 0.3200262 0.029102068
0.008480056 0.38780653 0.0036110068 -0.012068397 0.050783545 -0.0012577217 -0.18621401 -0.14050032
