model_save/seq2seq_2layers.pth (torch, 773292 bytes, 35 tensors)

encoder.fc.weight f4 [64, 128]
000000 56 cf 1d 3e 28 51 b4 be 47 04 86 bd 26 26 77 3d
       0.15411124 -0.35218167 -0.065437846 0.060339116
000010 a9 00 be 3e d2 f1 76 bd 3b af 75 be 67 bb 1f bd
       0.3710988 -0.06028921 -0.23992626 -0.03899708
000020 5e 67 13 bd 18 c5 fd 3d d7 53 d7 3d 41 52 60 be
       -0.03598725 0.12391108 0.10514038 -0.21906377
000030 d0 44 37 3e 1a 53 91 3c cd 78 b5 bd ae 31 65 be
       0.17897344 0.017739821 -0.088609315 -0.22382233
000040 ea d1 f3 3d ea 32 21 3e cb a6 12 be ef 48 91 39
       0.11905272 0.15742078 -0.14321439 0.00027710895
000050 a8 aa 30 3d ed d4 81 3d f5 ba cd bd 8c 79 cb bd
       0.0431315 0.063394405 -0.10045425 -0.099352926
000060 c4 16 bc bd 14 bc 92 3b 75 82 f7 3d 82 f8 fe 3d
       -0.0918403 0.004477987 0.120854296 0.12449743
000070 85 12 1e be e4 02 2a be 01 05 c3 3c 31 14 87 3d
       -0.15436752 -0.16602665 0.023806097 0.06595648
000080 2c 23 0c be 02 d9 b7 3d 66 ee 9e be 65 45 06 3e
       -0.13685292 0.08976938 -0.3104126 0.1311241
000090 4a 6a af 3c 59 9b 2e bd 18 04 83 3e 18 bd 2f be
       0.021412987 -0.04262862 0.2558906 -0.17161977
0000a0 87 0d 11 3d a5 ce 9f 3d 46 ff f8 3d 73 9a b5 3d
       0.03541329 0.07803086 0.121580645 0.088673495
0000b0 3d 74 7f bd 03 c7 15 3d da fe 23 be d2 db 52 3d
       -0.062366713 0.036566745 -0.16015187 0.05147917
0000c0 a8 70 3e 3e 28 34 67 3d 5e 75 97 3d f5 e2 02 3f
       0.18597662 0.056446224 0.07395433 0.5112756
0000d0 80 8b 62 bb 30 5b 71 bd 5e 7c 2b 3e ee 9e 4b bc
       -0.0034568012 -0.058924854 0.16746661 -0.0124280285
0000e0 f3 d4 ec bd d1 22 21 be 84 c4 07 be a5 ec 2c be
       -0.11564054 -0.15735938 -0.13258559 -0.16887148
0000f0 51 68 1e 3e 78 89 88 bc 8d 55 68 3e 29 26 32 be
       0.15469481 -0.016667113 0.22688885 -0.1739737
000100 a5 97 85 3c b7 a6 c8 bd b4 68 03 be f5 36 3c 3e
       0.016307661 -0.09797423 -0.1283291 0.1838034
000110 f3 a2 40 be c6 5b aa bb 82 c1 b3 be 24 d7 27 bc
       -0.1881216 -0.0051989285 -0.35108572 -0.010244165
000120 1e 2a 07 be 48 f8 b2 3c bc e4 9f 3d 67 ab 09 3e
       -0.1319966 0.021846905 0.078072995 0.13444291
000130 b3 3f c1 3d f1 79 8a 3d 19 d1 0b 3b d1 5e 2b 3e
       0.09435978 0.0676154 0.0021334349 0.16735388
000140 b0 78 b1 3d a5 10 80 bd 06 d7 35 3d 58 06 78 3d
       0.086655974 -0.06253175 0.044394515 0.060552925
000150 7d 6b b2 bb 19 3f 36 bd 51 fb 68 be 42 31 dd be
       -0.0054449425 -0.04449377 -0.2275212 -0.43201643
000160 11 4a 95 bd 0f c5 f8 be af 14 9f 3e 51 b7 44 bd
       -0.07289518 -0.48587844 0.31070468 -0.048026387
000170 37 81 77 be 98 e6 71 3c 8a a2 a2 3c 6a 2e 5f bd
       -0.24170385 0.0147644505 0.019852895 -0.054487623
000180 f4 80 3a be 32 0c f6 3d 0d 3e 29 3e 74 59 37 be
       -0.18213254 0.12014045 0.16527577 -0.17905217
000190 c4 b8 08 be 21 a7 cb be 6d 80 46 bd 01 8f 93 bc
       -0.13351732 -0.39775947 -0.04846232 -0.018012526
0001a0 88 98 47 bd b0 4d 5f be c4 5a a1 3e 55 03 3a bd
       -0.04872945 -0.21806979 0.3151456 -0.045413334
0001b0 41 b0 a8 bc 5e 82 03 bb df 63 17 bd 74 c9 08 3e
       -0.020591857 -0.0020066719 -0.03696048 0.13358098
0001c0 f7 72 5f bd 56 0d bf 3d d4 a0 36 bf 20 b0 93 be
       -0.054553 0.093287155 -0.71339154 -0.2884531
0001d0 1b 17 51 3e 66 ea b6 3e c0 4c 0d 3e 40 8f 19 be
       0.2041897 0.35725707 0.13798809 -0.14996052
0001e0 94 7c 5c 3d c4 33 9a be 81 21 57 3e a1 ca 99 3d
       0.053829744 -0.3011762 0.21008874 0.075093515
0001f0 f9 c3 b9 3d 08 a9 0e be ad 99 50 3d df 64 e6 bd
       0.09070582 -0.13931668 0.050927807 -0.112497084
000200 2a 9c 0e 3e 08 fa 55 3e c9 0c cf bc d2 22 ad 3d
       0.1392676 0.2089616 -0.025274651 0.08453907
000210 5d 15 15 be 4c f8 2a bd fd 86 57 3e 93 14 cd bd
       -0.1455893 -0.0417407 0.21047588 -0.1001369
000220 c1 f3 a8 bc 2c 04 0f 3e 98 3b 84 3e b8 e4 6d be
       -0.020624043 0.13966435 0.25826716 -0.2323178
000230 27 4e 90 3d e6 54 b0 bb a4 91 c1 3e 5d 4f 46 3d
       0.070461564 -0.0053812144 0.37806427 0.04841553
000240 f4 9b 9a 3e 1b 0e 86 be 97 09 c3 bc 04 05 5d 3c
       0.30197108 -0.26182637 -0.023808284 0.013489965
000250 3b a0 09 be 97 24 3d be 44 b1 d6 3d 01 75 7b 3e
       -0.1344003 -0.18470989 0.104830295 0.24556352
000260 6a 26 49 3d 2e a3 f3 bb f4 d5 f1 3d 08 c4 b2 be
       0.0491089 -0.007435224 0.118083864 -0.34915185
000270 76 fa 06 3e 0d 6e 61 be a1 33 05 be fa e5 1e be
       0.13181481 -0.22014637 -0.13007976 -0.15517417
000280 01 7a 31 bc 75 a9 89 be d5 13 b8 3d 8f 34 13 3e
       -0.010832311 -0.26887098 0.08988158 0.14375518
000290 97 a4 f7 bd 55 98 c9 3d d3 97 06 3d 52 f4 f9 3d
       -0.1209194 0.09843508 0.032859635 0.122048035
0002a0 76 d3 f5 bd 27 6e 82 bd ea 82 4c be 4c ed 87 3e
       -0.120032236 -0.06368666 -0.19971815 0.2654823
0002b0 b2 28 29 bd d3 5d 88 3c d0 60 e9 3d 80 23 4b 3d
       -0.041298576 0.016646301 0.11395419 0.049594402
0002c0 25 4d 9d 3e 46 d5 89 3d 96 20 60 be b7 3c 7e bd
       0.3072292 0.06730132 -0.2188743 -0.06206962
0002d0 19 fb 92 bd 23 80 45 be 32 1c 59 3d 43 4a 16 3d
       -0.07176799 -0.19287162 0.053005405 0.036691915
0002e0 a4 18 69 be 5f f2 40 3e 73 50 69 bd de 64 cf bc
       -0.22763306 0.18842457 -0.056961488 -0.025316652
0002f0 ac fc c0 3d 73 16 c2 3d db 2d 0e be d4 e8 49 3d
       0.09423193 0.09476938 -0.1388468 0.049294308
000300 86 df a0 bc 76 0d 1c 3d a2 b3 22 be e3 36 bb bd
       -0.019637834 0.038098775 -0.15888837 -0.09141328
000310 fe c3 21 bd e0 8a 13 be c3 94 8a 3d ea fc f3 bd
       -0.039493553 -0.14408445 0.06766655 -0.11913474
000320 fa 7c e0 bc 92 9b a9 3d d2 66 06 3e 90 78 01 3e
       -0.027403343 0.08281626 0.1312516 0.12643647
000330 3b a5 6a 3e bb 63 79 bd b1 63 63 3e ec 23 c4 3d
       0.22914593 -0.060886126 0.22205998 0.09577164
000340 d1 7a 3f bd 0c 17 34 3e a2 36 3a 3d 26 55 58 bd
       -0.046747986 0.17586917 0.04546226 -0.05281558
000350 6e f0 22 3e 97 9d 3a be 7e c4 c0 bd dc 71 e9 3d
       0.15912029 -0.18224178 -0.09412478 0.1139867
000360 05 6e de 3b 11 dc b8 3d ed 37 51 bd 0b 3e 87 3e
       0.0067880177 0.09026349 -0.051078726 0.26414523
000370 14 fe 83 bd 8c 44 a1 3d df b0 73 3b 1c 7d 36 be
       -0.06444946 0.078744024 0.003718428 -0.17821163
000380 bf 87 8b be f0 ea 4c 3e 22 49 42 3e 30 29 3f bd
       -0.27252004 0.20011497 0.1897321 -0.04667014
000390 41 6b 2b 3e 57 be 4e be a3 01 b2 bc 4b 18 03 3e
       0.16740133 -0.20189796 -0.021729296 0.12802236
0003a0 11 0a 86 bd 7f 92 11 3e 73 02 39 3e 0c 5a e8 3d
       -0.06544889 0.1421604 0.1806734 0.113453
0003b0 0d e5 2c bd c4 7a ae bc 3a bc 2f 3d 13 14 ad bd
       -0.042210627 -0.021298774 0.042904116 -0.084510945
0003c0 a2 4e 37 be 6e 5d 55 3d 90 60 67 3e 2c 56 28 3e
       -0.1790109 0.052091055 0.2259543 0.16439122
0003d0 f9 d7 fc bb 51 35 12 be 62 8c ff bd 90 07 51 3e
       -0.0077161756 -0.14278151 -0.12477948 0.20413041
0003e0 cb 58 5d 3e 18 94 19 be db a6 74 be b6 ec 09 be
       0.21615903 -0.149979 -0.23891775 -0.13469204
0003f0 34 86 02 be 46 22 e7 bd cf f6 1e be 87 39 b6 3d
       -0.12746507 -0.11285834 -0.15523838 0.08897691

encoder.fc.bias f4 [64]
000000 cd eb 2f 3e a0 f9 12 be 40 bf dc bd 22 77 7f bd
       0.17179795 -0.14353037 -0.107786655 -0.062369473
000010 95 a0 5d 3e e8 d7 c4 3e 57 72 b6 bc 6a b6 44 be
       0.21643288 0.38445973 -0.022271318 -0.1921021
000020 85 44 5b 3e 0c db 2a 3d 1e 35 05 3e 0b 05 a6 bd
       0.21412857 0.041712806 0.13008544 -0.081064306
000030 1f 0f 0d 3a 55 af fc bc de d1 f8 bd fa 17 a1 3e
       0.00053809764 -0.030845324 -0.12149404 0.31463605
000040 da 07 6a 3d f6 40 33 3d 57 62 4a bd f1 fd f0 bd
       0.057136394 0.043763123 -0.04941019 -0.117671855
000050 dd ae 9e 3e cd e9 75 be 95 6e 57 be e2 e0 8b 3b
       0.30992785 -0.24014969 -0.21038277 0.0042687515
000060 c0 b6 57 3c 51 d3 3f be 52 30 25 3e d2 e6 31 3e
       0.01316613 -0.18732955 0.16131714 0.17373207
000070 7b 10 bc bd b1 3e 8b 3d 5f 60 2b 3e eb 9e ac 3d
       -0.09182831 0.06799067 0.16735981 0.08428749
000080 79 2a ee 3d c2 30 83 be 46 30 a0 3d 20 37 ed 3d
       0.11629195 -0.25623137 0.078217074 0.1158278
000090 21 95 51 bd 79 1e 80 be f1 aa 25 bd ff 1c 3a 3d
       -0.05116761 -0.2502325 -0.040446226 0.04543781
0000a0 86 aa 27 3e cd 68 f2 bd bc da e9 3d 51 d8 3a be
       0.16373643 -0.118363954 0.114186734 -0.1824658
0000b0 3c fc 41 3e 8e d7 8d 3e c8 15 c4 3e fe 7b 20 be
       0.18943876 0.27703518 0.38297868 -0.156723
0000c0 76 18 1a be 9f 8c 3a bc af 52 e5 bd 35 b1 d0 3e
       -0.15048394 -0.011386066 -0.11197411 0.40760198
0000d0 71 25 68 bd ba 5d 88 3e d8 e4 95 be ba f3 fb 3d
       -0.056676332 0.26634008 -0.29276156 0.123023465
0000e0 8a fa 8b bd 27 ab 45 be c1 79 f7 3d 2e 93 24 3d
       -0.06834896 -0.1930357 0.120837696 0.040179424
0000f0 28 03 81 be 76 04 a5 3d 36 69 60 3d b8 34 76 3e
       -0.2519772 0.080574915 0.054787837 0.24043548

encoder.fc2.weight f4 [64, 128]
000000 c0 5a 95 3e cd 7d d6 bd 85 bb 10 bd b1 e5 22 be
       0.291708 -0.10473213 -0.035335083 -0.15907933
000010 2f c4 0e bd 94 6b 36 3e 19 48 a0 bc 2e 37 09 bc
       -0.034855064 0.17814475 -0.019565629 -0.008374972
000020 9b 41 ac bd 03 0b b3 bd 8e a6 46 be b1 68 d0 3d
       -0.08410951 -0.08742335 -0.19399473 0.10176218
000030 02 44 4e bd 6d 80 d6 3d 47 6d c7 3c ec 02 14 3d
       -0.050357826 0.10473714 0.0243441 0.0361356
000040 df 22 3f 3e b6 bb a2 3d 60 7b f0 3d b2 47 22 be
       0.18665646 0.07945959 0.11742282 -0.15847662
000050 6a 71 55 3d b3 c4 a0 3e 05 4c 45 bd 22 08 52 3e
       0.052110113 0.3140007 -0.0481682 0.20510915
000060 6b 39 44 bd 77 5b 24 3e eb e9 71 bd f1 fc 96 bc
       -0.04790632 0.16050516 -0.059060972 -0.018431159
000070 e6 08 0f 3d a8 77 8a 3d 79 73 7d bd 71 80 41 be
       0.034920596 0.06761104 -0.0618777 -0.18896653
000080 af 16 33 be b4 3f b9 3d 66 cd 7f 3e 88 0a cb 3d
       -0.17489122 0.090453535 0.24980697 0.09914118
000090 bf 03 12 3d ea 37 ec 3d 2b 84 89 bd 6b d3 9c be
       0.035648104 0.11534102 -0.06714662 -0.3063005
0000a0 bb 49 b5 3e 4b 37 94 3e 80 7b 54 be ff ed 62 3e
       0.35407814 0.28948435 -0.20750237 0.22161101
0000b0 fc 17 33 3e 5e 7a f0 3d 35 26 26 3d 6b af 1a 3e
       0.17489618 0.1174209 0.04056378 0.15105979
0000c0 e9 54 5f be 56 6b 0b 3e 9f c4 46 3e d9 06 9c 3e
       -0.21809734 0.13615164 0.19410942 0.30473974
0000d0 a6 c8 22 be 38 4d ac bd a6 47 1a 3d 89 f2 db 3d
       -0.15896854 -0.08413166 0.037665986 0.10739619
0000e0 97 e3 80 bd 25 d3 d3 3c 73 b9 19 3e a4 32 39 3d
       -0.06293409 0.025857517 0.1501215 0.04521431
0000f0 d5 40 b6 3d aa 28 40 3d 2a e6 bf 3d fb bb 4a be
       0.088990845 0.04691378 0.09370072 -0.19798271
000100 26 70 2e 3d f2 eb 9e 3d 7f ea 66 3c 21 fb 93 be
       0.04258742 0.07759847 0.014093994 -0.28902534
000110 2d eb ef bd 46 89 15 bf 52 f6 cd 3d a0 35 94 3d
       -0.11714778 -0.5841259 0.100567475 0.07236791
000120 18 81 91 bd 82 ab c1 be 64 dc 87 3e ad 13 72 3e
       -0.07104701 -0.37826163 0.26535332 0.23640318
000130 30 1f e9 bd 61 95 b3 3d f4 a8 6d 3e fb 84 e2 be
       -0.11382902 0.08768726 0.23208982 -0.4424208
000140 48 4e 8c bc 8c 34 b3 bc e3 50 66 bc d1 f5 e0 3e
       -0.017127171 -0.021875642 -0.014057371 0.43937543
000150 6f 06 9b 3d d6 d2 82 bd e5 5f 0f be a0 d0 49 3e
       0.075695865 -0.0638787 -0.14001425 0.1970849
000160 1c f4 65 3f 10 86 94 3e 5c 9b 35 3e 4e 86 48 3e
       0.89825606 0.29008532 0.17735046 0.19582483
000170 07 ce 7e 3d d9 42 5d 3c 12 43 96 be 3c 5b 96 3e
       0.0622082 0.013504707 -0.29348046 0.2936648
000180 af d3 33 be fd c4 b4 be 96 c2 9b 3c 73 1e 18 3e
       -0.1756122 -0.3530654 0.019013684 0.14855365
000190 99 8d 04 be f7 f7 1d 3e e5 f9 c7 bc 37 91 24 be
       -0.1294464 0.15426622 -0.024411151 -0.1607102
0001a0 d8 fe a8 3c c8 de d4 3c 43 ce 51 be ad c5 df 3d
       0.020629331 0.025985137 -0.20488839 0.109263755
0001b0 cc 68 12 3e 6a ee b0 be 61 e0 a6 bd 39 44 6e 3d
       0.1429779 -0.34556895 -0.08148266 0.05817053
0001c0 cd 0e d5 3e 91 d0 46 be 53 81 ee 3d 4a a1 c4 3e
       0.41612855 -0.194155 0.116457604 0.38404304
0001d0 37 e1 14 be d2 e5 4d bc 3b 15 ae bd 9c 4e 7f bc
       -0.14539038 -0.012567 -0.08500143 -0.015582707
0001e0 3f 32 c2 be 46 c8 67 be a5 08 ab 3d f8 3e 49 be
       -0.3792896 -0.22634992 0.08351258 -0.19652927
0001f0 03 26 de 3e 56 d8 90 3e a7 97 b9 bd e2 f3 6b 3d
       0.43388376 0.2829005 -0.090621285 0.05760563
000200 66 b1 ae bc 0a 55 6e 3e d0 07 bf bc 08 fb 0b 3d
       -0.021324825 0.23274627 -0.023319155 0.03417495
000210 c9 58 13 3e 7c 84 22 be 4a 72 87 3d 11 7d ab 3d
       0.14389338 -0.15870851 0.06613596 0.08373464
000220 77 87 74 be 65 e0 b9 bd ca 51 be bd a4 2e ef 3d
       -0.238798 -0.09076003 -0.09292944 0.11678818
000230 9b 06 bb 3d 61 10 82 bd 88 99 21 be 72 a3 35 3d
       0.09132119 -0.0635078 -0.15781224 0.044345327
000240 db 98 64 be ac 9a c3 bd 21 ec 99 3e b9 1d 91 3d
       -0.22323935 -0.09550986 0.30062965 0.07085747
000250 e2 64 b0 3c bb 3b c2 3e be 8c 8f 3d 90 24 0a 3b
       0.02153248 0.37936196 0.07009266 0.0021078922
000260 ad dc 14 3d 3d 69 6f be 55 e7 05 bd 85 90 91 bc
       0.036343265 -0.23379989 -0.03269132 -0.017769108
000270 9b d7 c6 bd 02 4d ea 3c d5 37 24 3e 84 11 df bc
       -0.09709092 0.028601173 0.16036923 -0.027230032
000280 e4 f0 05 3e 69 c9 4f 3e ce cb fb bc 89 e7 a4 3c
       0.13080174 0.20291676 -0.03073683 0.020129936
000290 6e a3 2c 3e 92 9a 6c 3e 2f 11 74 3d 8e 69 1d be
       0.16859218 0.23105839 0.0595867 -0.15372297
0002a0 73 a7 1e be 7d 17 85 3e 2d c6 89 3c b9 b3 85 3d
       -0.15493564 0.25994483 0.01681813 0.0652842
0002b0 6e aa eb 3d 60 0b 50 bd e2 fe ca bd 21 0a 47 bd
       0.11507116 -0.050792098 -0.09911896 -0.048593644
0002c0 2a 00 dc be a2 d5 26 3d a8 db 38 be 42 f7 4b bd
       -0.42968875 0.04073108 -0.18052542 -0.04979635
0002d0 64 35 11 3e 95 e0 92 3e 44 7e 72 3c e6 2e 33 3e
       0.14180523 0.28686967 0.014800612 0.17498359
0002e0 64 df b9 bd 0a 8e 69 3e 09 f2 15 3e 04 ae 48 3d
       -0.090758115 0.2280809 0.1464311 0.04899408
0002f0 8e e7 fb bd 6c 0c 6c 3b 71 02 8d 3e 5d e8 08 be
       -0.12300025 0.0036018146 0.27540925 -0.1336989
000300 d0 a5 ab 3d 1f 7c 40 be 4d 9f ad 3c 04 a1 63 be
       0.083812356 -0.18797348 0.021194125 -0.22229391
000310 41 e2 f0 be 28 2b 1c be ea 81 84 be c9 76 50 3e
       -0.47047618 -0.15250838 -0.25880367 0.20357813
000320 16 6f cf bc b8 32 9c bd 89 32 34 be e6 02 38 be
       -0.025321525 -0.07626861 -0.17597403 -0.17969856
000330 ed d9 3f 3e 72 76 5a 3e 5a e3 5d bd de de b6 bd
       0.18735476 0.21334246 -0.054171897 -0.08929227
000340 ba 21 ac 3c f9 d0 59 bc e2 7d bb 3c 28 a3 e1 bc
       0.021012176 -0.013294452 0.022887174 -0.02754362
000350 80 40 4a 3e 93 33 8b be ec 59 0c be 51 00 84 be
       0.19751167 -0.27187786 -0.13706177 -0.2578149
000360 80 d0 d0 3e 96 e1 47 be e0 c8 67 3e f7 80 85 3d
       0.40784073 -0.19519648 0.22635221 0.06518739
000370 88 43 8f bd 76 e7 c9 3d 26 c5 09 be e0 41 be 3e
       -0.069953024 0.09858601 -0.13454112 0.37159634
000380 91 fa ba 3d a5 19 04 3e 71 e4 6f 3d 9a 86 05 be
       0.09129823 0.12900408 0.058567468 -0.13039628
000390 44 f0 d6 3d dc 9e dc bc 58 df af be 9f 0e 49 3e
       0.10495046 -0.026931219 -0.34350085 0.19634484
0003a0 be 4e 52 3d 46 aa 97 bd 20 c8 93 3b 2e 53 b2 bd
       0.051344626 -0.07405524 0.0045099407 -0.087072715
0003b0 e5 fa 00 be 64 94 51 be d4 55 ec be c9 4b 27 be
       -0.12595709 -0.20466763 -0.46159232 -0.16337503
0003c0 64 aa 21 bd a3 9b 13 3e bb f0 2f be 57 d0 18 3d
       -0.039469138 0.1441484 -0.17181675 0.037308063
0003d0 59 b0 a3 bd 74 85 10 3e 98 14 f9 3d 41 fd 70 3e
       -0.0799262 0.14113408 0.12162131 0.23534109
0003e0 d2 25 fa 3c 22 89 22 be 35 31 5b 3e b0 e2 1e 3c
       0.030535612 -0.15872625 0.2140549 0.009697601
0003f0 64 1c 95 3c 15 23 b4 3d 8f 27 15 be 69 cb 91 3c
       0.018202014 0.08795754 -0.14565872 0.017797189

encoder.fc2.bias f4 [64]
000000 28 9e 31 3d 15 13 1d be 5a 85 7c 3d e6 3d b9 bc
       0.04336372 -0.1533931 0.06165061 -0.022612523
000010 39 08 9b 3c 34 0d 45 3e ee 97 4e be 97 a2 80 bb
       0.01892482 0.19243318 -0.20175144 -0.003925632
000020 55 e0 c1 bd 25 a4 bc bc a0 fb 18 bc 62 e1 83 bd
       -0.09466616 -0.023027489 -0.009337336 -0.06439473
000030 5e de c2 bd 69 91 5d bd 50 95 73 3e 9d c5 ce 3d
       -0.095150694 -0.054093752 0.23787427 0.100962855
000040 ca 46 b6 3d 5e 69 3a 3e fa 5f 94 3d ed 7e 70 3e
       0.08900221 0.18204257 0.072448686 0.23485918
000050 74 10 16 be 5f bc 59 3c e2 c6 cb 3d 99 7b 02 be
       -0.14654714 0.01328954 0.09950043 -0.12742461
000060 98 14 8f be 73 c8 13 3d a1 28 03 bf 84 e1 cd bd
       -0.279454 0.036079835 -0.5123387 -0.10052779
000070 f2 c0 da 3c ea aa 7a 3d c9 2a 14 bd ab 37 3c be
       0.026703332 0.061198153 -0.036173616 -0.1838061
000080 94 a0 dc bc 9d 39 85 bd de 12 e5 bd 5a 94 f1 bd
       -0.026932038 -0.065051295 -0.11185239 -0.11795874
000090 56 2d 6d be aa c3 0d 3d 5e f5 99 3d c1 6f b0 3d
       -0.23161826 0.034610428 0.07517503 0.08615065
0000a0 55 2c 04 3e 36 29 a8 bb 89 59 bd bd 3e db a1 3d
       0.12907536 -0.005131866 -0.09245593 0.07903145
0000b0 ff 84 9f 3d 84 05 96 3d 75 e1 43 3e 3f e5 e1 bd
       0.07789039 0.07325271 0.19128974 -0.11030053
0000c0 5b 2a eb 3d 95 bd f7 bc ba bf 3c bd cf ac 33 be
       0.11482688 -0.030241767 -0.046081282 -0.1754639
0000d0 19 78 aa 3e 3d d5 62 be 9e c1 cb 3e 04 20 21 bd
       0.33294752 -0.22151656 0.39796156 -0.039337173
0000e0 01 25 d4 3e cd 35 64 3e b1 dc e9 bd e6 0e 48 be
       0.41434482 0.22286148 -0.11419047 -0.19536933
0000f0 8c 96 f8 bd 3d 48 4a 3e 0e 60 aa bd 65 58 64 be
       -0.121380895 0.19754119 -0.08319102 -0.22299345

encoder.lstm.weight_ih_l0 f4 [192, 1]
000000 40 ce 95 be 9e 8d a0 bd d6 71 be be 92 5b d3 bd
       -0.2925892 -0.07839511 -0.37196225 -0.103202
000010 e4 d6 07 3e 42 6c 58 bf 33 49 3a be ad db 37 be
       0.13265568 -0.8454019 -0.18191986 -0.17954893
000020 19 3d 1b be 10 c7 bb 3e cb 5a 60 be 16 22 d6 3e
       -0.15160026 0.3667531 -0.21909635 0.4182288
000030 55 52 eb be 85 eb 12 bf 0a 1c 0e bf 5f 76 13 bf
       -0.45961252 -0.57390624 -0.55511534 -0.57602495
000040 aa c6 06 bf 7f d9 3e be 02 38 d8 3e e2 82 1a 3e
       -0.5264689 -0.18637656 0.4223023 0.1508899
000050 7a 7c 7b 3e de 6c f7 38 62 70 88 be 30 16 b0 be
       0.24559203 0.00011798156 -0.2664824 -0.34391928
000060 4e 7e 02 bc 22 cb 29 3e 7b a2 e1 bd 89 6e df bd
       -0.007964684 0.16581395 -0.11017319 -0.10909755
000070 3e 9e 96 3e 83 89 24 be 6c b2 e6 be 46 97 31 bf
       0.29417604 -0.16068082 -0.45058 -0.6937145
000080 06 ca 52 be 90 a2 83 be 8f 07 34 3f e4 e8 37 bf
       -0.20584878 -0.25709963 0.70324033 -0.7183974
000090 79 b2 cf be 1e 52 a7 be 58 f3 7d be 68 e3 98 3e
       -0.4056585 -0.32679838 -0.2479986 0.29860997
0000a0 d6 15 13 be 58 0c dd be 76 48 07 be ea 5d 83 3d
       -0.14363798 -0.4317348 -0.13211235 0.06414397
0000b0 36 db 10 3e 74 c6 43 bf 02 d0 07 bf 19 66 11 bf
       0.14146122 -0.7647469 -0.5305177 -0.56796414
0000c0 c7 d0 59 bf ca f3 de bc 85 32 b5 3e eb 00 71 be
       -0.85084194 -0.027215857 0.35390106 -0.23535506
0000d0 b5 67 09 be f4 e4 82 be f2 03 48 3d 6f d9 1a bf
       -0.13418467 -0.25565302 0.048831888 -0.6048803
0000e0 f6 d3 33 3e e6 04 3b bf 05 d8 60 3e 47 a8 85 bd
       0.17561325 -0.7305435 0.21957405 -0.06526237
0000f0 23 54 03 bf 3c 1e 2e be 50 39 24 bf c4 63 66 be
       -0.5130026 -0.17003721 -0.6414995 -0.22498995
000100 fd fc 8f 3c 7c 40 18 3e b7 1f 0e be aa 4f 1c be
       0.017576689 0.14868349 -0.13879286 -0.15264764
000110 1c a9 c1 3d 94 03 aa 3d f8 c4 2d 3e e7 f3 e3 bd
       0.09456083 0.08301464 0.16969669 -0.11130505
000120 ce ec 8c 3e b4 b6 33 be 77 f9 6e 3e 1e 52 04 be
       0.27524418 -0.17550164 0.23337351 -0.1292195
000130 07 59 bc be f2 ae 18 3e 1f 23 96 be 52 7d 67 be
       -0.36786672 0.14910486 -0.2932367 -0.226064
000140 d2 8f 58 be 2e c1 0f bd f1 21 05 3e 06 74 eb 3d
       -0.21148613 -0.03509634 0.13001229 0.11496739
000150 6d 08 1b 3e ec 63 ae ba 30 25 e4 bd be d0 c1 bd
       0.15139933 -0.0013304926 -0.111399055 -0.094636425
000160 44 bf 67 3e 3c f6 3d 3e 9e 31 d1 bd 14 2e f4 bd
       0.22631556 0.18550962 -0.10214542 -0.11922851
000170 bd 27 f9 bd 95 e9 b9 bc 85 d4 23 be ab 98 61 3e
       -0.121657826 -0.022694388 -0.15999039 0.22030894
000180 26 60 8f be 35 fd 98 3e 03 d5 c1 bc f4 1b 05 be
       -0.28003043 0.29880682 -0.023661142 -0.12998945
000190 71 e8 d8 be f7 d1 28 be 4e cd f4 bd f2 fd 30 3e
       -0.4236484 -0.16486345 -0.11953221 0.17284372
0001a0 be 8d 04 3e b9 99 ad 3e ec ac 14 3e ee d3 b4 bd
       0.12944695 0.33906344 0.1451909 -0.08829485
0001b0 ca ef e4 3d f9 f9 8d 3e eb 8e dc 3e 67 f4 f1 3d
       0.11178549 0.27729777 0.43077788 0.11814194
0001c0 8d 2b d1 3e bf 61 26 3e 25 b5 c7 bd b1 74 e0 bd
       0.4085354 0.16248225 -0.097513475 -0.10959757
0001d0 e9 9d fc bd 3d 7a 23 3c cc 75 02 be 67 a7 a6 3e
       -0.123348065 0.009977874 -0.12740248 0.32549593
0001e0 a8 32 f2 3d 7c af 14 be 99 d2 be bd 38 31 ee bc
       0.11826068 -0.14520067 -0.09317512 -0.029076204
0001f0 d6 5b f8 bd 49 cb 04 be 91 7c 84 3e fb b2 55 3e
       -0.12126891 -0.12968172 0.25876287 0.20869057
000200 0b bf 2a 3b ce c7 cb 3d 85 78 9d 3d de 1e 74 bd
       0.0026053812 0.09950219 0.07689003 -0.05959975
000210 05 93 65 3d 10 f9 54 bc c4 e7 81 3e a6 ef 24 3d
       0.056048412 -0.012998834 0.25372136 0.04026761
000220 c8 90 12 3e dc aa 35 3c a9 81 2c 3f 04 bd ac bd
       0.14313042 0.011088099 0.67385346 -0.08434489
000230 fa 93 1e 3f b5 78 71 3e b6 cb 21 bf 44 e6 e9 3e
       0.61944544 0.23581202 -0.63201463 0.4568349
000240 47 cd 00 bf 7b a8 10 3c 4c 76 93 3d 23 98 9d 3e
       -0.5031323 0.008829231 0.07200298 0.30780134
000250 13 ae b8 3d 64 60 d6 ba cd 2f a1 3d 77 aa 94 be
       0.09017577 -0.0016355631 0.078704454 -0.29036304
000260 fb 6d dd 3d aa 33 f4 bd ad c3 86 bd e1 fc 47 3d
       0.10811993 -0.11923917 -0.06580291 0.04882515
000270 8b 52 78 bd 6d 67 14 bc 20 28 a9 3e 70 20 1d bf
       -0.060625594 -0.009057862 0.33038425 -0.6137762
000280 4d 27 20 bf 42 55 f2 be 1f dd b2 bb cb ee 70 3d
       -0.6255997 -0.47330672 -0.0054584886 0.05882148
000290 ff 54 0e bf f2 d6 55 be b7 be 80 bd 01 0c 9f 3d
       -0.55598444 -0.20882776 -0.06286376 0.077659614
0002a0 3b 85 04 3e 78 82 0f 3e 48 76 23 bd 7f 03 13 3d
       0.12941448 0.14014614 -0.039907724 0.035892006
0002b0 f9 3a a9 bd e2 21 21 3f d2 b2 e2 3e c5 ca b9 3e
       -0.08263201 0.62942326 0.44277054 0.36287513
0002c0 97 6f 1e bf 03 68 01 3e b4 6f 87 3d 25 d5 13 be
       -0.6188902 0.12637334 0.066131026 -0.14436777
0002d0 98 43 4a bd cd 52 36 ba 0a 8a 3b bd 77 76 dc 3e
       -0.04938087 -0.00069550873 -0.04578594 0.43059132
0002e0 4e 4a 7c bd 93 ce 79 bd 9f c7 d6 3c c1 1b 8a bc
       -0.0615943 -0.06098802 0.026218234 -0.016858937
0002f0 4d 49 88 bd 44 23 65 bd 9c 4c 02 3f ee aa 16 3e
       -0.06654606 -0.055941835 0.50898147 0.14713642

encoder.lstm.weight_hh_l0 f4 [192, 64]
000000 11 92 52 3e ae 57 c4 bd 0a bf 19 be 9f 61 b7 3e
       0.20563532 -0.09587036 -0.15014282 0.35816666
000010 fe 87 cd 3c 59 ee 82 3d cf 16 a5 bd 24 61 38 be
       0.02508926 0.063931175 -0.08060991 -0.18005806
000020 75 8c f2 bd f0 89 0f 3e d3 e7 c5 3d f9 e0 41 3e
       -0.11843196 0.14017463 0.096633576 0.18933477
000030 d6 0a ac be 7f 5f c7 bd 3a 28 4b 3e 2a 00 0d be
       -0.33602017 -0.09735011 0.19839564 -0.13769594
000040 bf ae e2 3d 8c 45 8a be cb 88 5b bd 2d f9 3d bd
       0.110684864 -0.27006185 -0.053597253 -0.04638021
000050 f1 3e 8b bc 7d 39 8b be c3 13 77 be 21 50 ee 3d
       -0.016997786 -0.27192298 -0.24128632 0.11636377
000060 1e 39 b8 3c 34 63 e0 bd b2 77 4e 3e ed db b4 be
       0.022488173 -0.109564215 0.20162848 -0.3532404
000070 d7 af 38 3e ff 0c 95 3e 18 27 01 be f3 c3 ce 3b
       0.18035828 0.29111478 -0.1261257 0.00630998
000080 d9 9f b6 3d 92 16 81 bc b1 c8 58 3e c0 5e ec be
       0.08917207 -0.015757833 0.21170308 -0.4616604
000090 22 0f b6 3e e1 72 83 3e 4c 04 a4 3e ab 00 ce bd
       0.3555842 0.25673583 0.32034528 -0.10058721
0000a0 df a3 09 be 00 c6 b3 3d c9 d5 6a 3d 59 ef b9 be
       -0.13441418 0.08778 0.057332788 -0.3631542
0000b0 88 18 db 3a 39 6a ee bd 58 63 c1 bd 70 b0 ab bd
       0.0016715685 -0.11641354 -0.094427764 -0.08383262
0000c0 4c d0 83 bd 70 69 03 be 42 0a 3e be be ab 9e 3e
       -0.06436214 -0.1283319 -0.185586 0.30990404
0000d0 ca e4 d5 3d 6a 92 a0 bd 31 81 bc 3e 1c 90 3a 3d
       0.10444029 -0.07840426 0.36817315 0.04554759
0000e0 19 c9 65 3e ac 54 e0 3e 32 eb fc bd 78 98 94 3d
       0.22439994 0.438146 -0.123495474 0.072556436
0000f0 77 20 50 3e 40 15 46 3e 01 5b 95 bc df 48 c0 bc
       0.20324884 0.19344044 -0.01823187 -0.023472248
000100 4e a0 f5 bd 86 4d c2 be 61 b5 75 be a9 a3 11 3f
       -0.11993466 -0.3794977 -0.23994972 0.5689035
000110 25 62 73 be 1b 8e 9e bd 92 1a cf bd b6 27 d3 be
       -0.23767908 -0.07741948 -0.1011249 -0.41241235
000120 27 07 5d be b9 c0 cf 3e 8f b3 8c be 13 31 2a 3d
       -0.2158476 0.40576723 -0.27480742 0.041550707
000130 31 9d 03 bf 57 89 92 3d 79 df 92 3e d9 f1 af be
       -0.5141173 0.07155102 0.2868612 -0.34364203
000140 03 51 84 3d 4e 82 ed be a9 28 5d 3e 4d 92 bf be
       0.06460764 -0.46388477 0.21597542 -0.37416306
000150 0d d2 2f bd 5e 7a 07 be 11 dd bb be f6 c5 08 3e
       -0.04292493 -0.13230273 -0.36692098 0.13356766
000160 b6 99 f7 be d2 56 45 be 74 b8 7b 3e 57 6d 56 be
       -0.4835946 -0.192714 0.24582082 -0.20940147
000170 ca 91 da 3e 1e 91 26 3e 50 b2 85 bd 77 ef 8b 3e
       0.42689353 0.16266295 -0.06528151 0.27331135
000180 91 88 92 3e 80 d6 12 3d af 68 b7 3e 86 eb 1a bf
       0.28619817 0.035849094 0.35822055 -0.6051563
000190 0f b3 ea 3e b9 de b2 3e e0 02 91 3e 1f 0e 47 3d
       0.45839736 0.3493555 0.28322506 0.04859745
0001a0 6f 97 e3 be 13 b1 20 3e 64 38 96 3e 99 08 ec be
       -0.44451472 0.15692548 0.29339898 -0.4610031
0001b0 66 ae a4 3e 68 05 3f be 10 1d 3a be be 61 a9 be
       0.32164305 -0.18654406 -0.18175149 -0.33082384
0001c0 51 17 6a 3e 74 3f e6 be 87 45 5e be 24 89 c0 3e
       0.22860457 -0.44970286 -0.2170621 0.3760463
0001d0 6e 07 25 3f c5 42 ad 3d b0 6a 32 3f 20 f1 eb 3b
       0.6446446 0.08460001 0.6969404 0.007200375
0001e0 ff 74 6b 3d 59 46 73 3e 67 67 e4 be ad b7 df 3e
       0.057484623 0.23757304 -0.4461014 0.4369482
0001f0 61 e4 f2 3e db 99 8c 3e d9 e0 8d be b4 ee 9a be
       0.47439864 0.27461132 -0.27710608 -0.3026024
000200 21 e2 a4 be 76 31 a6 bd b6 fa 36 be 7d 12 73 3d
       -0.32203773 -0.08114903 -0.17869076 0.059343804
000210 fe a2 ae 3d 6b 8d 91 3d 90 6b e4 bc 3e cf 03 3b
       0.08527182 0.071070515 -0.027883321 0.002011254
000220 8c b7 c1 3c 8d d7 92 bd 66 05 e6 bd 90 9d b4 bc
       0.023647092 -0.07170019 -0.112314984 -0.022047788
000230 9d 5b 54 be 6a f3 fd bd 39 76 69 3e f4 12 a1 bd
       -0.20738073 -0.12399943 0.22799005 -0.07864943
000240 d7 d5 9a 3e c3 0d f0 bd 26 88 e1 3d 0a 80 93 3d
       0.30241272 -0.11721375 0.110122964 0.07202156
000250 57 5b 8e 3e 0e 9d 91 bc 13 e1 c9 bd 69 0e f8 3d
       0.27804062 -0.017775085 -0.098573826 0.121121235
000260 ea b3 10 bd bd 78 bc be 1e 85 b1 3e ec 26 10 be
       -0.03532783 -0.36810866 0.34671873 -0.14077348
000270 ac c9 76 be aa 06 55 be ef df a0 bd 0a 38 ab 3d
       -0.24100369 -0.20803323 -0.07855212 0.08360298
000280 4c 71 04 3e 8f 7e 5f bd 57 3d b2 bd 6a de 3e be
       0.12933844 -0.054564055 -0.08703106 -0.18639532
000290 bc 84 14 3e 87 73 48 3e 06 0b 52 bd 04 99 01 3e
       0.14503759 0.1957532 -0.051280044 0.12656027
0002a0 9c 48 a9 be 98 0f bc 3d c4 29 46 3e a4 2a a6 be
       -0.3306321 0.09182662 0.1935187 -0.32454407
0002b0 10 99 ae bc c8 35 89 3c 2d c1 c9 bd aa 2d 01 be
       -0.02131322 0.016749278 -0.098512985 -0.12615076
0002c0 10 f0 16 3e 08 e9 24 be ec 96 a9 3d 33 97 42 3e
       0.14740014 -0.1610452 0.08280739 0.1900299
0002d0 75 09 0f 3e 37 d2 4a 3e af a6 35 3e 36 d8 29 3e
       0.13968451 0.19806753 0.17739366 0.16586384
0002e0 ab 54 d7 3c 4e f0 51 3e 7e 5a 6b bd c4 66 6b bd
       0.02628549 0.20501825 -0.057459347 -0.05747105
0002f0 79 f5 40 3d 5f 5d 7d 3e e0 05 a5 bd d9 01 92 be
       0.0471091 0.2474265 -0.08057761 -0.28517035
000300 e5 6c bc be 93 9a 00 be 00 b5 04 be 13 80 64 3e
       -0.3680183 -0.12558965 -0.12959671 0.22314481
000310 31 85 4f 3e d9 b5 21 3e 95 60 b9 3d 90 3a 88 be
       0.20265652 0.15792026 0.09051625 -0.2660718
000320 65 33 57 be ee 30 98 3e 63 40 d4 bd 61 93 27 3e
       -0.21015699 0.2972483 -0.10363843 0.16364814
000330 95 f8 69 be c9 8b 25 3d ba ec 8d 3e b7 69 5b be
       -0.22848733 0.040416513 0.2771967 -0.21427046
000340 0a c4 d2 3e 24 1f 80 be e4 34 52 3e 9e 8b bf bd
       0.4116519 -0.25023758 0.20527989 -0.09352802
000350 ff 8d cb 3e 0c 16 83 3d 3a 37 a1 be 9c f8 33 3e
       0.39756772 0.064006895 -0.31487447 0.17575306
000360 27 e7 a4 3d ab ad eb be a5 83 eb 3e 01 35 a9 be
       0.08051901 -0.46030936 0.45998874 -0.3304825
000370 9a 2e 84 3e d5 69 9a 3d 33 26 a6 be e2 68 31 3e
       0.25816804 0.07539717 -0.3245102 0.17325166
000380 f1 8c 51 3e c5 fc cb bb 9f 05 30 3e 3a 05 a8 be
       0.20463921 -0.006225201 0.17189644 -0.32816488
000390 18 c5 5d 3e 1f 0b 3e 3e 9f a7 36 3e e8 dd 04 be
       0.21657217 0.1855893 0.1783738 -0.12975276
0003a0 3e 21 ca be 47 ce 82 bc d4 c7 14 3e f6 3d 95 be
       -0.39478487 -0.015967501 0.14529353 -0.29148835
0003b0 c7 14 f4 bd 43 71 f5 bc 2f cf 1a bd b4 b9 1d be
       -0.119180255 -0.029961234 -0.037795242 -0.15402871
0003c0 f7 2c db bb 73 2c 95 be 93 06 27 be d7 84 ca 3e
       -0.00668871 -0.29135475 -0.16311102 0.39554474
0003d0 c0 8d b2 3e 05 98 a5 bd 0e 35 42 3e a9 c0 48 3e
       0.34873772 -0.08085636 0.18965551 0.19604744
0003e0 f2 5d 1a be 83 e7 83 3e 7e a7 b1 be eb 2c 21 3e
       -0.150749 0.25762567 -0.346981 0.15739791
0003f0 8c 0c 7a 3e 70 99 29 3e a6 8d e6 bd f1 e1 03 bf
       0.24418849 0.16562438 -0.11257486 -0.51516634

encoder.lstm.bias_ih_l0 f4 [192]
000000 ad 6c e7 be 31 35 cd be 67 d8 3f bd 79 8c f6 be
       -0.452001 -0.40079644 -0.046837237 -0.48154047
000010 74 5e 31 be 32 99 5c bf 73 d9 87 be a2 9e 94 be
       -0.17321187 -0.8617126 -0.26533088 -0.29027277
000020 d8 d9 a6 be 6a 5a 95 3d f7 cf b1 bf e3 ad 94 bd
       -0.32588077 0.07292636 -1.3891591 -0.07259729
000030 a4 12 10 bf 5e 80 13 be 2d 44 90 bc ea 2d ba be
       -0.56278443 -0.14404437 -0.017610634 -0.36363155
000040 e6 a6 68 bd 14 2b 18 bf ca 70 1c be 33 5c ce be
       -0.05679979 -0.5944073 -0.152774 -0.40304717
000050 88 50 94 be 92 cd 3c bf c7 b0 9c be 19 62 12 bf
       -0.2896769 -0.73751175 -0.3060362 -0.57180935
000060 48 21 14 bf ad 77 a0 be 91 13 8e bd 33 94 8e be
       -0.57863283 -0.31341305 -0.06937326 -0.27847442
000070 d0 4a 9a be 13 ec 5d be d2 aa c1 be 6b 2e 52 be
       -0.30135202 -0.21672086 -0.37825638 -0.2052552
000080 97 ec 2c bf 15 8b 62 bf 0b 37 ae be 3f b3 b0 be
       -0.6754851 -0.8849347 -0.3402637 -0.34511754
000090 50 c9 be be 50 fb 8b be 73 c9 68 be bb f8 da be
       -0.37262964 -0.27340174 -0.22733097 -0.4276789
0000a0 3f 76 27 be fb 13 2e be 8c 59 ef be ac a6 6c bd
       -0.16353701 -0.1699981 -0.46748006 -0.05777614
0000b0 45 8c 03 be 44 77 ba be 3b 95 5c bf 54 fa 1f bf
       -0.12846477 -0.36419117 -0.8616521 -0.62491345
0000c0 f8 93 a2 be 0c c5 e1 be e8 8f f2 be e3 23 c5 be
       -0.31753516 -0.44095647 -0.47375417 -0.38503942
0000d0 28 93 89 be 23 f8 c0 be 9b de 8d be f7 42 31 be
       -0.26870084 -0.37689313 -0.27708897 -0.17310701
0000e0 0f 5d aa be e8 a0 39 bf ba d9 0a be e7 85 0c be
       -0.33274123 -0.7251115 -0.13559619 -0.13722955
0000f0 96 1c 99 be 3b 95 ca be 7b 5c 85 be 60 98 b3 bd
       -0.29904622 -0.3956698 -0.2604712 -0.087692976
000100 57 dd 0d 40 e1 85 3d 3e dd 22 5e 3f 4d ce de 3e
       2.2166345 0.18508102 0.8677195 0.4351677
000110 60 62 52 3f e9 44 16 40 92 7c 9c 3c 2e 61 ba 3e
       0.8218136 2.347956 0.019102369 0.36402267
000120 75 4a bb 3e 42 2b 03 3e 67 75 73 bf 4e 5e 16 3f
       0.36580244 0.1280947 -0.95101017 0.5873765
000130 44 c2 44 be c0 59 50 bd c2 08 3d bf 85 35 83 bd
       -0.19214731 -0.050866842 -0.7384149 -0.064066924
000140 0b e7 21 be 0a d0 98 3f ae 75 55 3f 2d 70 c6 3e
       -0.15810792 1.1938488 0.8338269 0.38757458
000150 ad 6d 0f 3f 3f 6a 55 40 dd 10 eb 3e a9 31 0f 3e
       0.56026727 3.3346097 0.45911303 0.13983788
000160 a9 9d e8 3d bc 52 a7 3e bb de 1b 3c f5 d6 fd 3e
       0.11358196 0.3268031 0.009513552 0.49578062
000170 9c ab 31 3f b7 0b 81 3f bd 04 3c 3e ae 0c 29 bf
       0.6940248 1.00817 0.18361183 -0.6603497
000180 96 03 29 bf 76 fb c0 be 6d 2c 93 3f 04 28 13 3f
       -0.66021097 -0.3769185 1.1497933 0.57482934
000190 e7 80 ab bd a2 49 9d 3e 80 e0 4b 3f 75 21 72 3f
       -0.083741955 0.3072024 0.79639435 0.945823
0001a0 b4 a5 20 be e0 b1 b9 3e 74 79 89 3e cd 35 a1 3e
       -0.1568821 0.3626852 0.26850474 0.3148636
0001b0 90 74 bd 3e 40 c4 04 bf e8 4e f4 be 61 1e 97 3e
       0.37002993 -0.51861954 -0.4771645 0.29515365
0001c0 cc ad c8 be e1 5e 96 3e bb f1 4b 3f a6 97 e1 3e
       -0.39195096 0.29369262 0.79665726 0.4406101
0001d0 ab 0d e2 3e ff 75 7b 40 2c 4d 1b 3f 42 cc bb bd
       0.44151053 3.929077 0.6066463 -0.091698185
0001e0 b0 44 4a 3f 25 f6 b2 3e b3 15 33 3f 3d 78 8a 3f
       0.7901106 0.34953418 0.69954985 1.0817944
0001f0 e5 c7 c9 3e f3 46 88 3e c3 96 16 bf ce 91 07 3e
       0.3941032 0.2661663 -0.58823794 0.13239214
000200 b5 1b fa 3a c1 28 44 bd 39 c7 20 be dd 9c 63 3c
       0.0019081744 -0.04789043 -0.15700997 0.01389238
000210 25 30 c1 bc fa 8f 9a 3a 32 e2 b3 bd 5b 80 e5 bc
       -0.023582527 0.0011792176 -0.08783378 -0.028015306
000220 d3 08 94 bc 9e 84 ca 3c 39 f6 48 be a2 cf 37 3d
       -0.018070614 0.02472144 -0.19625176 0.04487575
000230 17 5a 46 bd 6f 16 5f bd 4c 3f b5 3d 8a 4f dd bd
       -0.04842576 -0.054464754 0.088499635 -0.108061865
000240 a5 dd ad 3a 36 ce f9 bb 8b d5 38 3d 65 4c 9c bd
       0.0013264908 -0.007623459 0.045125525 -0.076317586
000250 5f bb 2e 3c ce b8 f2 ba b0 1e 1f 3b 63 f4 b1 3d
       0.01066479 -0.0018518211 0.0024279766 0.08689191
000260 31 0f 1b bd 5b 88 b7 3d 09 89 d0 3b 84 2b 0a bd
       -0.037856285 0.089615546 0.006363992 -0.033732906
000270 f9 63 2d 3d df 18 d3 3b 54 f2 fc bd ab e1 3d 3e
       0.04233167 0.006442174 -0.12350908 0.18543117
000280 98 12 1c 3e 53 6c 1e 3e f2 7b 6f bd 6a 9e 95 bd
       0.15241468 0.1547101 -0.058467813 -0.07305606
000290 ba a3 60 3d 3d b5 23 3d 23 91 83 3d df c8 39 bc
       0.05484364 0.039967764 0.06424167 -0.011339395
0002a0 5c 04 38 3c fb bf 74 bd 09 1d 1a 3d c8 9b 9e 3c
       0.011231508 -0.0597534 0.037625346 0.019361392
0002b0 86 61 cd bb 78 e4 fd bd dd 4f e0 bd d4 b6 a4 bd
       -0.006267729 -0.123970926 -0.10952733 -0.08042684
0002c0 58 00 ce 3d 9d c8 ab bc 11 b0 7d bd b8 77 85 3d
       0.10058659 -0.020969683 -0.061935488 0.06516975
0002d0 26 c7 f4 3c bb 35 16 bd 44 e0 a9 3c 7c 62 f9 bd
       0.029880118 -0.036672335 0.020736821 -0.121769875
0002e0 f2 a7 1f bd 34 74 88 3c 18 c8 87 3c ae 6e ba bb
       -0.038978525 0.016656972 0.016574904 -0.0056894636
0002f0 7d 41 e1 3c e4 91 6c 3b 75 2b c2 bd c8 ff be bd
       0.027497048 0.00360977 -0.09480945 -0.0932613

encoder.lstm.bias_hh_l0 f4 [192]
000000 a5 91 2c bf c1 69 c3 be 39 3c 8e be f8 96 97 be
       -0.67409736 -0.3816662 -0.2778032 -0.29607368
000010 14 a8 c0 be 2a ac 65 bf 05 3f 9b be 84 27 49 be
       -0.37628233 -0.89715827 -0.30321518 -0.1964398
000020 20 55 be be 4b b9 bb bd 60 e3 9a bf 3a b7 c3 bd
       -0.3717432 -0.09166201 -1.2100639 -0.09556432
000030 ce c4 e4 be e4 ef 0f be 59 7a 6c be 6b 41 01 be
       -0.446814 -0.14056355 -0.23093547 -0.12622611
000040 03 94 63 bd 19 d0 12 bf f1 2a 64 bd cd 56 bf be
       -0.055561077 -0.5734878 -0.055705015 -0.3737091
000050 b4 63 91 be c1 dc 3f bf 3b 28 88 be 2c fb 26 bf
       -0.2839638 -0.7494622 -0.26593193 -0.6522701
000060 53 55 07 bf ec 05 be be 67 01 69 3d a9 f3 8e be
       -0.5286457 -0.37113893 0.056886103 -0.27920273
000070 ff 59 96 be e0 94 b3 be 53 ed 06 bf 7b 3b 79 be
       -0.29365537 -0.3507452 -0.5270588 -0.24339096
000080 ff 9e 28 bf f0 f2 88 bf 1e bc a0 be 6b 70 7b be
       -0.6586761 -1.0699139 -0.31393522 -0.24554603
000090 71 6d 04 bf 1b 05 d3 be 1c 50 75 be bf 98 e3 be
       -0.51729494 -0.41214833 -0.2395634 -0.44452474
0000a0 f9 d0 8b bd b6 6e 86 be 37 96 d9 be 8f dc 4e 3c
       -0.06826968 -0.2625634 -0.42497417 0.012625827
0000b0 26 28 4d be 81 47 0a bf 6a c0 25 bf 4a 12 0e bf
       -0.20034847 -0.54015356 -0.64746726 -0.55496657
0000c0 9e af 4f be 0f b4 ae be af 2f a8 be 6c 41 c9 be
       -0.20281836 -0.3412175 -0.3284888 -0.39307725
0000d0 87 5d bb be 79 ba 99 be 24 e7 38 be bc 36 b9 be
       -0.36594793 -0.3002508 -0.18056923 -0.36174572
0000e0 aa 87 a7 be cf 97 46 bf 9b 8b 9d be ba f0 b5 be
       -0.3272069 -0.7757539 -0.30770573 -0.35535222
0000f0 31 30 a6 be d1 57 cc be c5 e4 a5 be 8b 25 d9 bd
       -0.32458642 -0.3991075 -0.324011 -0.10602864
000100 8d 71 0a 40 20 2e 4a 3e f0 fd 7a 3f 69 5e e3 3e
       2.1631806 0.19744158 0.9804373 0.44407967
000110 9e 89 43 3f 1a b7 12 40 7a d0 a9 3c fe 05 a7 3e
       0.7638186 2.2924256 0.020729292 0.3262176
000120 b2 e2 89 3e 2b bc b8 3d ad 31 85 bf 68 ae 0f 3f
       0.26930767 0.09020265 -1.0405785 0.561255
000130 dc 90 10 be 6d 63 31 be f1 aa 3e bf 5b 5c 14 bd
       -0.1411776 -0.17323084 -0.74479586 -0.03622089
000140 eb 86 4c be 32 da 9d 3f 57 9e 3a 3f 0e 1f 01 3f
       -0.19973342 1.2332213 0.7289786 0.5043801
000150 bf 7f 17 3f 8e 20 55 40 05 98 1b 3f be 39 db 3d
       0.591793 3.330112 0.6077884 0.10704373
000160 ac df 2e 3e 3a bc 8b 3e 41 b4 84 3d 61 a5 09 3f
       0.17077512 0.27292043 0.06479693 0.53767973
000170 75 99 15 3f 82 9d 82 3f 41 00 2a 3d 14 03 33 bf
       0.5843728 1.0204318 0.04150415 -0.6992657
000180 48 24 1f bf 21 1b 01 bf 19 df 76 3f ee 5c 00 3f
       -0.62164736 -0.5043202 0.9643417 0.501418
000190 1e cb 17 be 1f 88 a2 3e da d4 24 3f 0b f7 48 3f
       -0.14823577 0.31744477 0.64387286 0.7850196
0001a0 85 44 bb bd 3e f6 7e 3e f8 87 9e 3e 1c 8d fd 3e
       -0.091439284 0.24898621 0.3096311 0.4952172
0001b0 5f cb cf 3e d2 d6 1b bf 7d 3a cf be 01 b7 64 3e
       0.40584847 -0.60874665 -0.4047431 0.22335435
0001c0 30 de e8 be 58 f3 9a 3e 6c d4 59 3f c6 23 ad 3e
       -0.45482016 0.30263782 0.85089755 0.33816355
0001d0 9b 26 d3 3e 96 7a 7b 40 e2 ec 30 3f 45 68 5b 3c
       0.4124039 3.929357 0.69111454 0.013391559
0001e0 54 c5 46 3f c6 dc a4 3e 4e ec 2b 3f 09 f3 86 3f
       0.7764485 0.32199687 0.6715745 1.0542918
0001f0 8f 33 c4 3e d5 3b 94 3e 8e e5 f0 be 33 42 88 bc
       0.38320586 0.28951898 -0.47050136 -0.016633129
000200 e1 68 58 bc 42 e4 6e 3d 2e 42 f6 3d 48 9c 85 3b
       -0.013208599 0.058323152 0.120243415 0.004077468
000210 cd 39 a8 bb d6 d8 08 3d e5 29 6b bc 4d ae 52 3d
       -0.0051338435 0.033409916 -0.01435325 0.051435757
000220 a4 68 c2 bd a4 39 74 bd 7e 4b 59 3b 9b 92 21 3e
       -0.09492615 -0.059625283 0.003315657 0.15778582
000230 17 3b 6d bd 43 f1 83 3c 6c 23 10 3e 76 36 c4 bd
       -0.05791768 0.016106253 0.14076012 -0.095807
000240 df 9b 63 3e a5 4c c6 3c 4b 46 27 be 4d 6c 5e bd
       0.22227429 0.024206469 -0.16335408 -0.054302502
000250 90 7c 8f bd b8 62 e6 ba f6 b8 70 bd 41 c6 5c bd
       -0.0700618 -0.0017577028 -0.058770142 -0.053900007
000260 9b c7 7a 3b 9e 1f f8 bc 7e 70 af 3d 8c be 76 3d
       0.0038265947 -0.030288514 0.08566378 0.060240313
000270 64 97 d4 bc 50 0e 9d bc 3d 7c 19 3d 28 1d bb 3d
       -0.025951095 -0.019171864 0.037472 0.091364205
000280 99 5a b8 bc f1 36 80 ba e2 97 20 3e 89 bc 2d 3e
       -0.022504138 -0.0009781999 0.15682939 0.16966452
000290 9f 1e 88 3d 00 31 3c 3d 59 20 f3 bd 62 0a 71 bd
       0.066464655 0.045945168 -0.11871404 -0.058847792
0002a0 54 1c f9 bd ea e7 8d bd ed 89 ab bd e6 37 47 bd
       -0.12163606 -0.06929 -0.08375917 -0.048637293
0002b0 eb f6 9a 3d b3 35 91 bd 96 f4 33 bd 6d fd 83 bd
       0.07566627 -0.070903204 -0.043934427 -0.064448215
0002c0 79 77 bc 3d 0d 48 7a bd 9c 2a a6 bd 8f 41 9d bd
       0.09202475 -0.06110387 -0.08113596 -0.0767852
0002d0 92 3e 2a bd 28 c9 eb 3d a0 71 cb bc 47 92 eb bd
       -0.041563578 0.11512977 -0.024834454 -0.115025096
0002e0 50 2a 1d 3e 56 4f 12 bd d2 60 69 bd 63 d8 c4 3c
       0.15348172 -0.035720192 -0.0569771 0.024028962
0002f0 50 e9 ef bc c8 ba d0 3c 72 0d f8 bd e8 93 b6 bd
       -0.029286057 0.02547969 -0.121119395 -0.0891493

encoder.lstm.weight_ih_l0_reverse f4 [192, 1]
000000 3f ea 0e bf bd 7c 89 be a0 35 59 b9 88 60 cc be
       -0.5582618 -0.2685298 -0.0002071471 -0.39917397
000010 ef 90 ae 3e 8d a9 40 3c 6b 01 96 3c 73 be 95 be
       0.3409495 0.011759174 0.018311223 -0.29246864
000020 e5 28 2f be b4 b1 d2 bc bc a2 4c bc 7b 14 4c 3e
       -0.17105444 -0.025719501 -0.012489971 0.19929688
000030 96 4a ac bd b3 d4 3e bd 6b bf b3 3e ef 50 0b 3f
       -0.08412664 -0.046589565 0.35106978 0.5442037
000040 ad d7 9e bd 82 a2 dd be 19 bc 83 bd 5b 69 22 3c
       -0.07755981 -0.43288046 -0.06432361 0.009912814
000050 0a 6c 92 3a 95 63 17 3e 02 59 67 be c3 d6 11 bf
       0.0011171114 0.14784081 -0.22592548 -0.56968325
000060 1b d9 b0 3d d5 c9 37 bc a6 d2 02 bf b0 b1 4c bf
       0.086351596 -0.011217554 -0.51102674 -0.7995863
000070 e9 5a 09 3c 1d f7 79 bd 20 20 d6 be 99 36 f5 be
       0.008383491 -0.06102668 -0.41821384 -0.47893217
000080 20 7d 36 bc 30 e0 48 be 64 0e cd bd 0e 30 b0 3e
       -0.011138231 -0.1961677 -0.100125104 0.34411663
000090 b0 b9 87 bc dc 13 a5 bd ec 13 8e be 62 e0 07 3e
       -0.016568035 -0.080604285 -0.27749574 0.13269189
0000a0 b2 3a 0a 3f a3 b7 64 3d f5 49 0c 3d ef 3d 08 bf
       0.5399581 0.055839192 0.03425022 -0.53219503
0000b0 c9 a1 e0 bd 00 7d bc be 82 93 08 bd b8 ac 29 bf
       -0.10968358 -0.36814117 -0.0333438 -0.6627917
0000c0 77 ba 56 3e de ac 07 bf 44 e4 d8 bd 68 c7 94 3e
       0.20969568 -0.5299815 -0.10590413 0.29058385
0000d0 04 9b 1e 3d 46 66 38 bd d1 14 41 3e 1c 17 8e 3e
       0.038722053 -0.04501941 0.18855597 0.27752006
0000e0 4a 76 16 3d 77 2b fc bd 34 8d 76 3e b4 47 8c bc
       0.036733903 -0.12312978 0.24077302 -0.017124034
0000f0 40 39 17 bf ac a7 83 3d dd 58 da 3d ac 8d 25 3d
       -0.5907173 0.06428465 0.106614806 0.040418312
000100 f2 d8 2d bb fc 98 db bb cc 63 f9 bb 4d 9c 97 bb
       -0.0026527015 -0.006701587 -0.0076107737 -0.004626787
000110 ad 11 c0 bb 74 d4 02 bc c8 31 e4 bb 3a d3 2b be
       -0.005861482 -0.007985223 -0.006963942 -0.16779795
000120 de 05 2d 3e 54 17 ce 3d 43 8e da b9 08 1b fe 3d
       0.1689677 0.10063043 -0.00041686193 0.124074996
000130 f6 44 db bd a8 68 0e bc aa 92 4d 3d 89 1f df 3d
       -0.10706513 -0.008691944 0.050188698 0.10894687
000140 cf bd 1a bc 4e 49 e5 bd e7 d4 3a bb e7 0f a7 bb
       -0.009444668 -0.111956224 -0.0028508247 -0.0050983313
000150 d0 7b 8c 3c 95 ed a9 bb 5b 65 23 bc ef 88 ac bb
       0.017148882 -0.0051857927 -0.0099728955 -0.005265347
000160 c4 5c 94 3a 2e 5d 2a bc bf e3 ea 3d 91 2e 0a be
       0.001131915 -0.010398192 0.1146922 -0.13494326
000170 23 f0 2c bc df c8 0e be 4b e6 f6 bd cc 7b 49 bc
       -0.0105553 -0.13943814 -0.12055644 -0.012297582
000180 4d 25 cf ba a7 4f 15 3e c3 b2 ea bd d6 a5 0a bc
       -0.0015803963 0.14581166 -0.11459877 -0.00846239
000190 d3 46 01 bc 7e ff 06 be 78 a6 45 bb f6 c9 f7 3d
       -0.007890421 -0.131834 -0.0030159038 0.12099068
0001a0 af a9 8c bd 33 ba c5 bb b0 bd e6 3d 85 73 d8 3d
       -0.06868302 -0.0060341596 0.11266649 0.105689086
0001b0 ab 64 27 be b8 26 40 bc 3b 2d 2a bc 8c 51 87 3d
       -0.16346996 -0.011727981 -0.01038676 0.06607351
0001c0 13 b5 2d be 14 b5 98 bd e8 00 f7 bd 1c 0c 00 3e
       -0.16963606 -0.07456413 -0.1206072 0.1250462
0001d0 0e 9c f5 3d 6c a7 1a be 0f f9 fa 3d 0e 32 8b 3d
       0.11992656 -0.15102929 0.122545354 0.067966565
0001e0 da f2 d9 bb 70 e2 fd bb 24 5c 03 bc d2 8c 51 b7
       -0.0066512646 -0.0077479407 -0.0080175735 -1.2490158e-05
0001f0 f4 2e 17 3e 53 c5 b1 3a 88 ac 36 3d 3b 68 0a 3d
       0.14764005 0.0013562836 0.044598132 0.03379081
000200 3c 7c bc 3b 5e 90 a1 b8 22 68 65 3b c1 3b 57 bb
       0.0057521146 -7.703969e-05 0.0035004695 -0.0032842013
000210 e5 8f f8 bb 53 b8 b9 ba eb ad 11 3b 04 8c 24 be
       -0.007585513 -0.0014169313 0.0022228907 -0.16069037
000220 9c 51 0a 3e ad f2 50 3d 61 79 49 bb 19 b2 6a 3d
       0.13507694 0.051012684 -0.0030742513 0.057298753
000230 29 8d 3c 3d 3f 04 23 3b a2 c0 78 bc ed 06 44 3d
       0.04603306 0.0024874357 -0.015182646 0.047858167
000240 f3 8d f1 b9 6c f4 eb 3e 16 fc fd ba b9 b4 96 bb
       -0.00046072862 0.46084917 -0.0019377496 -0.0045991805
000250 81 23 13 39 75 5c 94 3b 70 b7 6f 3b 2d e3 f2 bb
       0.00014032239 0.0045276233 0.0036577843 -0.0074123354
000260 5b 74 56 bb 95 68 5b bb 6c 07 f6 ba c9 b6 0f 3f
       -0.0032723162 -0.0033479084 -0.0018770522 0.56138283
000270 0b 57 10 ba 47 e9 a7 bd d4 3b 3a bd 56 e2 f2 bb
       -0.00055061345 -0.08198791 -0.045467213 -0.0074122353
000280 75 32 2b ba 20 5c 8e 3d 12 d9 96 bd c6 92 60 39
       -0.0006530651 0.06951165 -0.073656216 0.00021416982
000290 72 88 90 3a 71 cf 94 bd 96 ca 4f 3b c8 12 95 3d
       0.0011026992 -0.07266129 0.0031706444 0.07278973
0002a0 13 0d 2d 3d 5a 30 e6 bb b3 b3 94 3d 0f ec 86 bd
       0.042248797 -0.007024807 0.072608374 -0.06587993
0002b0 12 8f 72 be 67 d6 ed 3b 61 47 90 3a 8a 7d 55 3c
       -0.2368739 0.0072582248 0.0011007601 0.013030419
0002c0 cf a8 82 3e fb be 84 bc df 64 7e bd 22 7f 99 bd
       0.25519416 -0.016204348 -0.062107917 -0.07494952
0002d0 db c9 43 bd d6 0c 77 bd 55 f0 72 3d 93 91 c3 bc
       -0.047799926 -0.060314976 0.05931123 -0.023873126
0002e0 fe 4e a3 3a 97 0f ad 3b 90 f2 8c bb 81 7d 08 3b
       0.0012459455 0.0052813995 -0.0043013766 0.002082676
0002f0 bb d1 55 bd ac b7 1d bb 1c a2 b7 bb 98 5f 83 3b
       -0.052201968 -0.0024065776 -0.0056040417 0.0040091984
