model_save/seq2seq_2layers_minmax.pth (torch, 739760 bytes, 33 tensors)

encoder.fc.weight f4 [64, 128]
0	0x3e937402	0.28799444
1	0x3c94e381	0.018174889
2	0x3e873c7e	0.2641334
3	0xbe3bb282	-0.18329814
4	0xbeed9e16	-0.46409672
5	0xbe1633a3	-0.14668135
6	0xbe738d4b	-0.23784368
7	0x3db06d4e	0.08614598
8	0x3bb0bb12	0.0053933943
9	0x3e06fbdc	0.13182014
10	0xbde6be36	-0.112667486
11	0x3e8a71a6	0.27039832
12	0x3e0ebebc	0.13939947
13	0x3e5e8abf	0.21732615
14	0xbc8ce55c	-0.01719921
15	0xbc748d76	-0.014926305
16	0xbe22fb4d	-0.15916176
17	0xbedbb7c8	-0.4291365
18	0xbdd44eeb	-0.10366615
19	0xbdbc92e0	-0.09207702
20	0x3d56dba6	0.052455567
21	0xbd3bbc4b	-0.045833867
22	0x3c352491	0.011056081
23	0x3dccd9f2	0.10002507
24	0x3da086a4	0.07838181
25	0x3d8660e1	0.06561447
26	0xbe223ebf	-0.15844248
27	0x3ed4f697	0.41594383
28	0xbd2e6807	-0.042579677
29	0x3dc4d363	0.09610631
30	0xbe1bb4c5	-0.15205677
31	0xbe934f3a	-0.28771383
32	0xbe7c2247	-0.24622451
33	0x3e67dd41	0.22642995
34	0xbe186c08	-0.1488496
35	0xbcaf8421	-0.021425309
36	0x3cde1825	0.027111122
37	0x3cab64d6	0.020922106
38	0x3e1a50da	0.15069905
39	0x3daf7a35	0.08568231
40	0xbb7e8e0c	-0.003884199
41	0x3dbe566b	0.09293827
42	0xbe095564	-0.1341148
43	0x3e0264a4	0.12733704
44	0xbdfe0de8	-0.12404996
45	0x3e901084	0.281376
46	0xbef38702	-0.4756394
47	0x3d9d1e38	0.076717794
48	0x3e88d68e	0.26726192
49	0x3ecc2642	0.39872938
50	0x3d1deefc	0.03855799
51	0xbc13e9bd	-0.0090278955
52	0x3e81a265	0.2531921
53	0xbea4b0af	-0.3216605
54	0x3e1c94d4	0.15291148
55	0xbd05b863	-0.032646548
56	0x3df55e0b	0.11980828
57	0xbe20e01a	-0.15710488
58	0xbe7b63d8	-0.24549806
59	0xbe751832	-0.23935011
60	0x3e743846	0.23849592
61	0x3dfe3521	0.12412477
62	0xbef77a25	-0.48335376
63	0xbd9e1543	-0.07718899
64	0x3d9f901e	0.0779116
65	0x3d67a28c	0.0565515
66	0xbdfca65d	-0.12336419
67	0x3e05b033	0.13055496
68	0xbe6da9db	-0.23209326
69	0x3de91e70	0.113827586
70	0x3cd1647c	0.02556061
71	0x3dbc6f27	0.09200888
72	0x3c9d4ae5	0.019200752
73	0xbb2e5a11	-0.0026603977
74	0x3e48b37f	0.19599722
75	0xbdc8c3a4	-0.098029405
76	0x3d59613a	0.053071238
77	0x3d4c2e2d	0.049848724
78	0x3dda8af3	0.10671034
79	0xbec3ef29	-0.38268402
80	0x3d7b1759	0.061301563
81	0x3d561985	0.05227043
82	0xbdb14d45	-0.08657316
83	0x3e7259c8	0.23667061
84	0xbd006541	-0.031346563
85	0x3c640f76	0.013919702
86	0xbba8fc1b	-0.0051570064
87	0xbd2633c8	-0.040576726
88	0xbeb4298d	-0.3518795
89	0xbc981b7f	-0.018567799
90	0x3e5c9d18	0.21544302
91	0xbd3093cb	-0.043109696
92	0xbe7d7efd	-0.24755473
93	0xbe3d262a	-0.1847159
94	0x3e261dbd	0.16222282
95	0x3d3aad31	0.045575324
96	0xbd5fee03	-0.054670345
97	0x3d908187	0.070559554
98	0xbd9dd736	-0.07707064
99	0x3c428a6f	0.011873825
100	0x3d263158	0.0405744
101	0x3d9e4af6	0.077291414
102	0x3dfdf8ef	0.12400996
103	0xbe8ea03c	-0.27856624
104	0x3ddb201e	0.10699485
105	0xbc8cfd38	-0.017210588
106	0xbe289252	-0.16462067
107	0x3cd40b1a	0.0258842
108	0x3e01965a	0.12655011
109	0xbd8feeeb	-0.07027992
110	0xbd977c8e	-0.07396804
111	0x3da5a1c1	0.08087493
112	0xbde75467	-0.11295395
113	0xbd3af0b3	-0.045639705
114	0xbce389b9	-0.027775632
115	0x3e3afb36	0.18259892
116	0x3dc39d43	0.0955148
117	0xbdba0b67	-0.09084206
118	0x3e3ab9ce	0.18234941
119	0x3a891a8b	0.0010460181
120	0x3e0dd2f0	0.13849998
121	0xbe4d7ea5	-0.20067842
122	0x3d46c3e2	0.048526652
123	0xbcd64e36	-0.02616034
124	0x3ea57fcf	0.32324073
125	0xbd21752c	-0.039418384
126	0xbe15bfd6	-0.14623961
127	0x3e0b467b	0.13601105
128	0x3dcc0d52	0.09963478
129	0xbeb905a1	-0.36137107
130	0xbeb33751	-0.3500314
131	0xbee0a918	-0.43879008
132	0xbe17b14d	-0.14813729
133	0xbe2dd332	-0.16975096
134	0xbeb5d8bf	-0.35516927
135	0xbe57e258	-0.21082437
136	0x3e09fc2b	0.134751
137	0xbe5a017d	-0.2128963
138	0x3d10417d	0.035218704
139	0x3e8212a3	0.25404844
140	0x3d117c98	0.035519212
141	0xbd936121	-0.0719626
142	0xbe35b878	-0.1774615
143	0x3e7d41ed	0.2473218
144	0xbe89fb84	-0.26949704
145	0xbdbf4c5d	-0.09340737
146	0xbd170129	-0.03686634
147	0xbd8af3b1	-0.06784762
148	0xbeb8f599	-0.36124876
149	0x3e883d71	0.26609376
150	0x3be2b447	0.0069184634
151	0x3d81da1a	0.06340428
152	0x3db7a202	0.089664474
153	0xbe0f646f	-0.14003156
154	0x3dacf6a8	0.084454834
155	0x3e9921a3	0.29908475
156	0xbec2be10	-0.3803563
157	0xbde45835	-0.11149637
158	0xbe923f15	-0.28563753
159	0x3ea71423	0.3263255
160	0x3ea3ad36	0.31968087
161	0xbdb5384b	-0.08848628
162	0x3ea4c641	0.32182506
163	0xbdddf5ce	-0.10837899
164	0xbc0666c9	-0.008203217
165	0xbbc2030e	-0.0059207743
166	0x3dd8c851	0.10585082
167	0x3eb6ea06	0.3572542
168	0xbd473382	-0.048633106
169	0x3d0bc1c9	0.034120355
170	0xbe2716c7	-0.16317283
171	0xbeb8c608	-0.36088586
172	0x3e7dadf9	0.24773397
173	0x3f02cdc0	0.510952
174	0xbdebc5d4	-0.11512342
175	0xbe3ca84f	-0.1842358
176	0x3cffeb20	0.031240046
177	0xbd3df135	-0.04637261
178	0x3d1affb4	0.037841514
179	0x3d242763	0.040076625
180	0xbc6ec2a3	-0.014572772
181	0xbcb75a43	-0.022381907
182	0xbe671408	-0.22566235
183	0x3d72bb55	0.059260685
184	0xbe9edd62	-0.31028277
185	0xbe2528ff	-0.1612892
186	0xbdbd16dd	-0.092328764
187	0xbd928512	-0.071542874
188	0x3f0ae935	0.54262096
189	0x3db2600e	0.08709727
190	0x3e18b30e	0.14912054
191	0x3e7c7994	0.24655753
192	0x3d022f08	0.031783134
193	0xbe2b72c4	-0.16742998
194	0x3ea2d9b7	0.31806728
195	0x3dd9eb18	0.10640544
196	0x3e1a2e1c	0.15056652
197	0x3e467279	0.19379605
198	0x3e3e7db8	0.18602645
199	0x3d41d4b4	0.04732199
200	0x3e48daca	0.19614711
201	0xbe9a31fc	-0.3011626
202	0xbd24001f	-0.040039178
203	0xbe69b060	-0.22821188
204	0x3dbb3940	0.09141779
205	0x3e935bf3	0.2878109
206	0xbe5090da	-0.20367756
207	0xbccee96b	-0.025257787
208	0x3e27fbd7	0.16404663
209	0xbd8d2dcb	-0.068935
210	0x3db2dd4a	0.08733614
211	0x3e602d71	0.21892335
212	0xbe45bf67	-0.19311295
213	0x3e9f1d6a	0.3107713
214	0xbe9ac1f6	-0.30226105
215	0xbc0374c3	-0.008023444
216	0xbe2e2383	-0.17005734
217	0x3d2cacec	0.0421571
218	0xbda703f5	-0.081550516
219	0xbb2358cb	-0.002492475
220	0x3e00d296	0.12580332
221	0xbea5eeb5	-0.32408682
222	0x3d700685	0.058599968
223	0x3d9fcbff	0.07802581
224	0x3e8de5ac	0.27714288
225	0xbd9ad682	-0.07560445
226	0x3d1d8128	0.03845325
227	0xbe010e6c	-0.12603158
228	0x3d80ff7c	0.0629873
229	0x3d2a7e3e	0.0416243
230	0x3ebeb676	0.37248582
231	0x3e4db81d	0.20089765
232	0x3ee4725e	0.44618505
233	0x3e9d26bb	0.30693612
234	0xbe8b938f	-0.27261016
235	0x3e945d33	0.28977355
236	0xbf105831	-0.5638457
237	0x3e001ed6	0.12511763
238	0xbe81afb3	-0.2532936
239	0xbdbc61a6	-0.091983125
240	0xbe99f60d	-0.30070534
241	0xbd062955	-0.03275426
242	0x3cdfa5c8	0.02730073
243	0xbdaa7091	-0.083222516
244	0xbc113c7a	-0.008864516
245	0x3d8a2da9	0.0674699
246	0x3d0eb72f	0.034842666
247	0xbe6b2bd6	-0.22965941
248	0x3d3fbae8	0.046809107
249	0xbf22b79c	-0.63561416
250	0xbd3f1318	-0.04664907
251	0xbb55cf5b	-0.0032624814
252	0x3e95b26b	0.29237685
253	0xbda3f50f	-0.080057256
254	0xbe622192	-0.22083119
255	0xbe7cf3d2	-0.24702385

encoder.fc.bias f4 [64]
0	0x3e118e17	0.14214359
1	0xbe8f59a8	-0.2799809
2	0x3f0e9c2f	0.5570707
3	0x3dff29ab	0.124591194
4	0xbd4bbfb2	-0.04974336
5	0x3d3f73d6	0.04674133
6	0x3e6719bc	0.2256841
7	0xbde6e2b1	-0.11273707
8	0xbe15dc2c	-0.1463477
9	0xbe2710de	-0.16315028
10	0x3e152795	0.1456588
11	0xb95d7aed	-0.00021121996
12	0xbcfb52ab	-0.030679068
13	0x3e98f046	0.29870814
14	0x3b6b0ddd	0.0035866417
15	0x3d93d173	0.07217684
16	0xbd8734e9	-0.06601889
17	0xbde2a504	-0.110666305
18	0xbdf2f816	-0.11863725
19	0x3ec6c408	0.38821435
20	0xbea87065	-0.3289825
21	0x3da83e3b	0.082149945
22	0xbe87c8d5	-0.2652041
23	0x3f13a5e8	0.5767503
24	0xbd142150	-0.03616458
25	0x3e76ea97	0.24112926
26	0xbe19020b	-0.14942186
27	0xbde99d14	-0.114069134
28	0x3d469c80	0.048489094
29	0xbe737d0f	-0.23778175
30	0x3e8b8c12	0.27255303
31	0xbdc565bf	-0.09638547
32	0xbe2bc1aa	-0.16773096
33	0xbdde1d32	-0.10845412
34	0xbda787bc	-0.08180186
35	0x3f1674c9	0.5877195
36	0xbecdd28c	-0.40199697
37	0xbdbab80c	-0.091171354
38	0xbd86d649	-0.065838404
39	0xbdfeee84	-0.12447837
40	0x3e560796	0.20901331
41	0x3cb7f027	0.02245338
42	0xbb390057	-0.0028228962
43	0xbd1ee593	-0.038793158
44	0x3dc84356	0.09778468
45	0xbca1a2f7	-0.019731028
46	0x3dc2543a	0.09488721
47	0xbd9f0827	-0.07765227
48	0x3e1b1e4c	0.15148276
49	0x3e6da4cd	0.23207398
50	0x3e17a4c8	0.14808953
51	0x3e1aa595	0.15102227
52	0x3d29eb3a	0.041484095
53	0x3e0003e2	0.12501481
54	0xbee00695	-0.43755022
55	0xbddc58cc	-0.10759124
56	0x3e402307	0.18763362
57	0x3e2228eb	0.15835921
58	0x3e3be1d0	0.1834786
59	0x3c97bbc2	0.018522147
60	0xbe3a839b	-0.18214266
61	0xbbd34d8e	-0.006448454
62	0x3e6f6ea9	0.23382057
63	0xbdcc27e7	-0.09968548

encoder.lstm.weight_ih_l0 f4 [192, 1]
0	0x3f4d64aa	0.80231726
1	0xbf804460	-1.0020866
2	0xbd53cc9c	-0.051708803
3	0xbf8a794b	-1.0818266
4	0xbedf449e	-0.43607038
5	0xbf2e6690	-0.6812525
6	0xbf7670bf	-0.96265787
7	0xbe82bc35	-0.25534216
8	0xbf37e4ae	-0.7183331
9	0xbfc83ace	-1.5642946
10	0xbf24b76d	-0.64342386
11	0x3e80f5cd	0.2518753
12	0xbf98c4d6	-1.193507
13	0x3d34d2b0	0.04414624
14	0xbf96e629	-1.1788989
15	0xbfbafd9d	-1.4608647
16	0xbf87c1d5	-1.0606028
17	0xbe9cfb31	-0.30660394
18	0xbf0af49a	-0.5427948
19	0xbf7a60fd	-0.9780424
20	0xbfe49f2f	-1.7861079
21	0xbf55c6e2	-0.83506596
22	0xbf8fca20	-1.1233559
23	0xbf7ed512	-0.9954387
24	0xbf937512	-1.1520102
25	0xbefdfc62	-0.49606615
26	0xbf480390	-0.78130436
27	0xbed1ea05	-0.40998855
28	0xbe6ec513	-0.23317365
29	0xbf7e3dfb	-0.99313325
30	0xbf235b46	-0.6381115
31	0xbeb2983b	-0.34881768
32	0xbe9f63f4	-0.31130946
33	0xbf69440f	-0.91119474
34	0x3f3ab3ef	0.72930807
35	0xbece0f34	-0.40245974
36	0x3e67f7e4	0.22653157
37	0xbf8eb626	-1.1149337
38	0xbe84950a	-0.25894958
39	0xbf6459f3	-0.8919975
40	0x3f329cd0	0.69770527
41	0xbf057825	-0.5213645
42	0xbf041c92	-0.51606095
43	0x3f288d99	0.6584106
44	0xbe988bd7	-0.2979419
45	0xbf9c6ea5	-1.2221266
46	0x3e64a9b1	0.22330357
47	0x3c139bcc	0.009009313
48	0xbf706521	-0.9390431
49	0x3e8c0259	0.2734554
50	0xbf16b8ad	-0.5887554
51	0x3ef00555	0.46879068
52	0xbf532832	-0.8248321
53	0xbfbd27e3	-1.4777797
54	0xbeb45e8c	-0.35228384
55	0xbf2a518e	-0.6653069
56	0xbefdc41c	-0.49563682
57	0x3f00bbcf	0.50286573
58	0x3dc05126	0.09390478
59	0xbf1afc63	-0.6054136
60	0xbfa04bc1	-1.2523118
61	0xbf7d007c	-0.98828864
62	0xbee8d635	-0.45475927
63	0x3e86e5ee	0.26347297
64	0xbe3afe80	-0.18261147
65	0x3e4e4ca4	0.20146424
66	0xbe0a159f	-0.1348481
67	0xbe707428	-0.2348181
68	0x3da6441f	0.08118462
69	0xbddb02dd	-0.106939055
70	0x3e698a9d	0.22806783
71	0xbe409bdf	-0.1880946
72	0xbe4c5373	-0.19953708
73	0xbe0ac4ba	-0.13551608
74	0xbdc24f7a	-0.09487815
75	0xbe2d44c6	-0.16920766
76	0x3e533e33	0.20629196
77	0x3e049033	0.12945633
78	0xbd8620fd	-0.06549261
79	0xbe4d4c06	-0.20048532
80	0xbe12ef66	-0.14349136
81	0xbda32a13	-0.079670094
82	0xbe252ddc	-0.16130775
83	0xbe3dad4d	-0.1852314
84	0xbdfd8b7d	-0.12380121
85	0x3e692deb	0.22771423
86	0xbe4a0d88	-0.19731724
87	0xbe46084c	-0.19339103
88	0xbe6e7028	-0.23284972
89	0xbe85936e	-0.26089042
90	0xbf2126e7	-0.62949985
91	0xbe426f5a	-0.1898779
92	0x3c8580c6	0.016296756
93	0x3e871bd4	0.2638842
94	0xbe4b9edc	-0.19884819
95	0xbe85f9d0	-0.26167154
96	0x3ea50104	0.32227337
97	0xbe46da1a	-0.19419137
98	0xbd05e2dd	-0.032687057
99	0xbde14380	-0.10999203
100	0xbe19f5ad	-0.15035124
101	0xbe522452	-0.20521668
102	0xbe16002b	-0.14648502
103	0xbdb09d50	-0.08623755
104	0xbdab0623	-0.0835078
105	0x3d3d632d	0.04623716
106	0xbe23d914	-0.16000777
107	0xbdabfc25	-0.08397702
108	0xbe5f860e	-0.21828482
109	0x3e11d0e4	0.14239842
110	0xbcaa631a	-0.020799208
111	0xbe39ce6a	-0.18145147
112	0xbe44dc5d	-0.19224687
113	0x3dce6655	0.10078112
114	0xbe09f86b	-0.1347367
115	0xbd8457f5	-0.06462089
116	0x3e1b8765	0.15188368
117	0xbe3a0d98	-0.18169248
118	0xbe41e699	-0.18935622
119	0xbe4f6f5b	-0.20257322
120	0xbe389d8c	-0.1802885
121	0xbe0f4138	-0.13989723
122	0x3abfa7ad	0.0014622115
123	0xbe0290ac	-0.127505
124	0xbe5354b9	-0.20637788
125	0xbe4073d0	-0.18794179
126	0x3c9a4dc0	0.018835902
127	0xbe0841a2	-0.13306287
128	0xbdb3b6f0	-0.08775127
129	0xbd6278f7	-0.055291142
130	0xbd9e6bf7	-0.077354364
131	0xbe212600	-0.15737152
132	0xbdf5ba0c	-0.11998376
133	0xbdb7ef56	-0.089811966
134	0xbf164604	-0.58700585
135	0x3ddcee70	0.10787666
136	0x3f080560	0.531332
137	0xbd985fa4	-0.07440117
138	0xbd50641c	-0.05087672
139	0xbe18cfd8	-0.14923036
140	0xbd098cde	-0.033581607
141	0x3e138148	0.14404786
142	0x3eebff08	0.4609301
143	0x3f113c8b	0.56733006
144	0xbdd7148a	-0.105019644
145	0x3d8e8df6	0.06960671
146	0x3de18138	0.11010975
147	0x3e2e779c	0.17037815
148	0xbefb1b81	-0.4904442
149	0x3f1fb86e	0.6239079
150	0x3f4cb9c7	0.79970974
151	0x3f3ef047	0.74585384
152	0x3e0906f7	0.13381563
153	0xbe1bff3b	-0.15234081
154	0xbf19c758	-0.600698
155	0x3e0b94ce	0.13630983
156	0xbe117203	-0.14203648
157	0xbeeae865	-0.45880428
158	0xbe4bef21	-0.19915439
159	0x3e2f7f17	0.17138325
160	0x3e72196c	0.2364251
161	0xbf0a3ae3	-0.53996104
162	0xbc35afd4	-0.011089284
163	0x3ea8b19c	0.32948005
164	0xbdb1fe57	-0.086910896
165	0xbe755a15	-0.23960145
166	0x3e011f7f	0.12609671
167	0x3f1b7c29	0.6073633
168	0xbda69e26	-0.08135633
169	0xbe45dba6	-0.1932207
170	0x3de75f9c	0.11297533
171	0x3b3081ec	0.0026932908
172	0xbe427cc5	-0.18992908
173	0x3de5a2c0	0.11212683
174	0x3c0711f5	0.008244027
175	0xbde9412f	-0.11389386
176	0xbe1cedc9	-0.15325083
177	0xbe0ed4a0	-0.13948298
178	0xbe4228c6	-0.18960866
179	0x3b68bda9	0.0035513437
180	0xbefe2332	-0.49636227
181	0xbdc7f88a	-0.09764202
182	0x3f1c1a14	0.6097729
183	0xbe1f709a	-0.15570298
184	0xbedd5287	-0.43227026
185	0xbdeb5987	-0.11491685
186	0xbadbd21c	-0.0016770991
187	0xbdce2da1	-0.10067297
188	0x3f20c792	0.6280452
189	0xbf0b8cdc	-0.5451181
190	0x3db482df	0.08814024
191	0x3e2a3e85	0.16625412

encoder.lstm.weight_hh_l0 f4 [192, 64]
0	0xbfa411d2	-1.2817938
1	0x3e8e1795	0.27752367
2	0xbf2f7013	-0.68530387
3	0xbdd8959f	-0.10575413
4	0x3f04c3f4	0.518615
5	0xbe2f9959	-0.17148341
6	0x3e716f90	0.23577714
7	0x3e2fd511	0.17171122
8	0x3d64ffcb	0.055908006
9	0xbb2ee8a6	-0.0026688962
10	0xbdf9aa22	-0.121906534
11	0xbd931d1d	-0.07183287
12	0x3eef76a2	0.46770197
13	0xbebf0fd2	-0.37316757
14	0x3d361ca1	0.044460896
15	0x3e7a09af	0.24417756
16	0xbd43f304	-0.04783918
17	0x3e66c77b	0.22537033
18	0x3f06849a	0.52546084
19	0x3d5dccbd	0.05415033
20	0xbe2a95f9	-0.16658773
21	0xbdd6e812	-0.10493483
22	0x3e683917	0.22678028
23	0x3cfa258c	0.030535482
24	0x3e3de533	0.18544464
25	0xbd7ca1f6	-0.061677895
26	0xbe60268e	-0.21889707
27	0x3ec66f1d	0.38756648
28	0x3e0e9d9e	0.13927314
29	0x3e0125c3	0.12612061
30	0x3e667ef6	0.22509369
31	0x3e1d24f3	0.15346126
32	0xbe4fb39d	-0.20283361
33	0xbe00188d	-0.12509365
34	0xbe7ef7a6	-0.24899158
35	0xbd2782e1	-0.0408963
36	0xbedb9135	-0.42884222
37	0xbd7b7b48	-0.061396867
38	0x3d91bbe3	0.07115915
39	0x3e67ac1e	0.22624251
40	0xbe845958	-0.25849414
41	0xbde6cda8	-0.112696946
42	0x3e216a06	0.15763101
43	0x3d34c074	0.04412885
44	0x3e28e4df	0.16493557
45	0xbe011bad	-0.12608214
46	0x3eff5921	0.49872687
47	0xbe6709df	-0.2256236
48	0xbe5cd009	-0.21563734
49	0x3ea2b215	0.3177649
50	0xbe121513	-0.14265852
51	0x3c858ac9	0.01630153
52	0x3e0ca114	0.13733321
53	0x3e31356b	0.17305534
54	0x3e2e605e	0.17028949
55	0xbe1ff77c	-0.15621752
56	0x3c21a2dd	0.00986549
57	0xbe8d4eaf	-0.27599093
58	0x3caf3ab7	0.021390302
59	0xbdea509f	-0.114411585
60	0x3dce5bd7	0.10076111
61	0xbe0894bb	-0.13337986
62	0xbe9b4b45	-0.30330864
63	0x3ed78c15	0.42099062
64	0xbead3398	-0.33828425
65	0xbe7db76f	-0.24777006
66	0xbed9f900	-0.42572784
67	0x3eaf4e8f	0.34239623
68	0xbe7d7409	-0.24751295
69	0xbe2a4549	-0.16627993
70	0x3db65650	0.089031816
71	0xbea2e144	-0.3181249
72	0xbea0cfd8	-0.31408572
73	0x3d58d0e0	0.052933574
74	0x3dff7b3f	0.12474679
75	0xbf24cc25	-0.64374
76	0xbeef48be	-0.46735185
77	0x3e42433b	0.18970959
78	0xbe2b1e37	-0.16710745
79	0xbefe5528	-0.49674344
80	0x3e07e281	0.13269998
81	0xbe8f9294	-0.28041518
82	0xbee562de	-0.44801992
83	0xbdbad749	-0.09123094
84	0x3ebb8dcf	0.3663163
85	0x3d094888	0.033516437
86	0xbebaf3b1	-0.36514047
87	0xbeca5fe7	-0.39526293
88	0xbf2ad8d8	-0.6673713
89	0x3f085cc7	0.53266567
90	0x3e47b210	0.19501519
91	0x3d9eb911	0.07750142
92	0xbe7bbdd0	-0.24584126
93	0xbce1b4c0	-0.027552009
94	0x3edd8f0b	0.43273196
95	0xbecd4bfa	-0.40097028
96	0x3e36dda5	0.17857988
97	0x3eb4b781	0.35296252
98	0xbe68176f	-0.22665189
99	0x3df1ad13	0.118005894
100	0x3f092a33	0.53580016
101	0x3ebe752b	0.37198767
102	0x3d0c44e2	0.03424538
103	0xbd88295a	-0.06648512
104	0xbec12fae	-0.3773169
105	0x3ec0c56a	0.37650615
106	0xbe95232d	-0.291284
107	0x3ebf1ad3	0.37325153
108	0xbe158444	-0.14601237
109	0x3e25f908	0.16208279
110	0x3f1469b5	0.57973796
111	0xbe8a0444	-0.2695638
112	0x3ec91380	0.3927269
113	0x3dfeaf3a	0.124357656
114	0x3e402c19	0.18766822
115	0x3c50dc83	0.012747887
116	0x3d8423e0	0.06452155
117	0x3e48a4c2	0.195941
118	0xbe9dea8d	-0.3084301
119	0x3d73d166	0.05952587
120	0xb8f2ffea	-0.00011587127
121	0x3f4b6fe1	0.7946759
122	0xbf674173	-0.9033424
123	0x3e6ba45b	0.23011915
124	0xbe974d73	-0.29551277
125	0x3e88195b	0.26581845
126	0xbd88c360	-0.0667789
127	0xbea06819	-0.3132942
128	0x3f4f07b1	0.8087111
129	0xbe35954b	-0.17732732
130	0x3cd25311	0.025674375
131	0xbef76328	-0.48317838
132	0xbeb7a8e0	-0.3587103
133	0x3eba121a	0.36341935
134	0xbf278ef9	-0.65452534
135	0x3e6df5d9	0.23238315
136	0x3de0cf09	0.10976989
137	0xbda694ba	-0.08133836
138	0xbe921818	-0.28534007
139	0x3f207b6a	0.62688315
140	0xbe2e8c70	-0.1704576
141	0xbec4b189	-0.384167
142	0x3e51128f	0.20417236
143	0x3dfbb4f7	0.12290376
144	0xbe1c0716	-0.15237078
145	0xbf3ea223	-0.7446615
146	0xbe802131	-0.25025323
147	0x3ece13ab	0.4024938
148	0xbe0dfe4b	-0.13866536
149	0x3dceb234	0.10092583
150	0xbe835fd7	-0.25659057
151	0xbdbf1906	-0.09330945
152	0x3ed18a49	0.40925816
153	0xbe60215e	-0.21887729
154	0x3deec452	0.11658539
155	0xbf828e49	-1.0199672
156	0x3da2bc1b	0.079460345
157	0xbeb9d922	-0.36298472
158	0x3ebbf213	0.36708125
159	0x3f129a77	0.57266945
160	0x3eda0c50	0.4258752
161	0xbd521484	-0.051289096
162	0xbe25e5fe	-0.16201016
163	0x3e112942	0.14175895
164	0xbd0fd067	-0.035110857
165	0xbec21951	-0.3790994
166	0xbf61dfe6	-0.88232267
167	0xbf003e19	-0.50094754
168	0x3f260e0d	0.6486519
169	0xbf9a3249	-1.2046596
170	0xbe44e6f5	-0.19228728
171	0x3df91520	0.121622324
172	0xbe714078	-0.23559749
173	0xbd7a0c29	-0.061046753
174	0xbea03d26	-0.31296653
175	0x3ebbef86	0.3670618
176	0x3bcdbae7	0.006278384
177	0xbeb172a9	-0.3465779
178	0xbf623cad	-0.88373834
179	0x3f815ddf	1.0106772
180	0xbcd279b5	-0.0256928
181	0x3ee20215	0.44142213
182	0xbb7d64ed	-0.0038664893
183	0x3f058e7b	0.5217053
184	0x3eca0402	0.39456183
185	0xbfb088c0	-1.3791733
186	0x3db3fe39	0.087887235
187	0x3f24acfe	0.64326465
188	0xbe5284ca	-0.20558468
189	0xbd23ce4d	-0.039991666
190	0x3f810c49	1.0081874
191	0x3f3daa6b	0.7408816
192	0x3e57b271	0.21064164
193	0x3ec0acaa	0.37631732
194	0x3dcb5fbf	0.099303715
195	0x3f19d5cd	0.6009186
196	0x3f09b88e	0.53797233
197	0x3eb6a9f5	0.35676542
198	0x3f0fd553	0.5618488
199	0xbe5f6923	-0.2181745
200	0xbef234f2	-0.4730602
201	0x3efbde31	0.49192956
202	0x3bc3b7de	0.0059728464
203	0x3fd9ccde	1.7015646
204	0xbe22ab42	-0.15885642
205	0x3da54866	0.080704495
206	0xbd3f5005	-0.046707172
207	0xbea15049	-0.31506565
208	0x3f30072e	0.68760955
209	0xbe0e671e	-0.13906524
210	0xbc60f0e1	-0.013729305
211	0xbf325b6d	-0.69670755
212	0x3e205c44	0.15660197
213	0xbe675067	-0.22589265
214	0xbe0e9ae2	-0.1392627
215	0xbd963c93	-0.07335772
216	0xbf197c00	-0.59954834
217	0x3ec3e644	0.38261616
218	0x3d893210	0.06699002
219	0xbeaa5fb9	-0.33276156
220	0x3e8a57fe	0.27020258
221	0x3df023b1	0.117255576
222	0x3e9f8591	0.3115659
223	0xbf001ff7	-0.50048774
224	0xbee35641	-0.44401744
225	0x3e1aef50	0.15130353
226	0x3f0074a7	0.50178
227	0xbcd8b977	-0.026455624
228	0x3f51621a	0.81790316
229	0x3f1a9e81	0.6039811
230	0xbe7cb041	-0.2467661
231	0xbe615d3c	-0.22008222
232	0x3f83e9ee	1.0305765
233	0x3eb6893a	0.3565157
234	0xbdf4f12d	-0.11960063
235	0x3e3047d8	0.17214906
236	0x3e2024ba	0.1563901
237	0xbd576373	-0.052585077
238	0xbf235d3c	-0.6381414
239	0x3f7f19a8	0.99648523
240	0x3ebfb175	0.37440076
241	0x3f37e2bd	0.7183035
242	0x3f599148	0.84987307
243	0xbe2381e0	-0.15967512
244	0xbed38d17	-0.4131858
245	0x3f10df6a	0.565909
246	0xbdf5f8df	-0.12010359
247	0x3ea6a2ce	0.32546085
248	0xbdd54392	-0.10413279
249	0x3d0fcb60	0.035106063
250	0x3f610636	0.879001
251	0x3f07db98	0.5306945
252	0xbebef4b1	-0.3729606
253	0x3e2aced5	0.16680463
254	0xbf3bf8f8	-0.7342677
255	0xbe8ab234	-0.27089083

encoder.lstm.bias_ih_l0 f4 [192]
0	0xbf0de0ec	-0.5542133
1	0xbf4c0ea9	-0.7970987
2	0xbe6d89ae	-0.23197052
3	0xbe74739e	-0.2387223
4	0xbf4a4a4d	-0.79019624
5	0x3dc0239d	0.09381793
6	0xbf4bfcdd	-0.79682714
7	0xbf36acff	-0.7135772
8	0xbdd55e58	-0.10418385
9	0xbf8721c0	-1.0557175
10	0xbeb04050	-0.34424067
11	0xbf05ed2d	-0.52315027
12	0xbf87a7f0	-1.0598125
13	0xbe9e9833	-0.30975494
14	0xbf984d0e	-1.1898515
15	0xc008ffc4	-2.1406107
16	0xbf030402	-0.5117799
17	0xbdec4268	-0.115361035
18	0xbe2a6cb8	-0.16643035
19	0xbecbe701	-0.3982468
20	0xc028ac98	-2.6355343
21	0xbe885480	-0.26626968
22	0xbe38e132	-0.18054655
23	0xbf506fa9	-0.8142038
24	0xbf84a4c7	-1.0362786
25	0xbea34faf	-0.3189673
26	0xbe5cba91	-0.21555544
27	0x3c511042	0.012760224
28	0xbf1f9ab3	-0.6234543
29	0xbf7efb4e	-0.9960221
30	0xbdee4b92	-0.11635508
31	0xbe960cd0	-0.2930665
32	0xbf016cee	-0.5055684
33	0xbf911f33	-1.1337646
34	0x3e00e31f	0.1258664
35	0xbf25b10b	-0.6472327
36	0xbf2f9926	-0.6859306
37	0xbf19b506	-0.60041845
38	0xbf34e4ee	-0.7066182
39	0xc03927c6	-2.8930526
40	0xbdf43d24	-0.11925724
41	0xbee47c9c	-0.4462632
42	0xbeb4b856	-0.35296887
43	0xbe54d9b5	-0.20786174
44	0xbece2de9	-0.40269402
45	0xbf13b4e9	-0.5769792
46	0xbe8b1e6a	-0.27171642
47	0xbd56dd91	-0.052457396
48	0xbf5ed677	-0.87046
49	0xbf3afde0	-0.7304363
50	0xbef5da18	-0.48017955
51	0xbf2f2895	-0.684213
52	0xbe7b2dae	-0.24529144
53	0xbe6cfc15	-0.23143037
54	0xbf41e31d	-0.7573717
55	0xbe596ae5	-0.21232183
56	0xbf3b7a12	-0.7323314
57	0xbe947fc3	-0.29003724
58	0xbec1d5d4	-0.3785845
59	0xbeb4a1bf	-0.35279652
60	0xbf038f86	-0.51390874
61	0xbf1b16a8	-0.60581446
62	0xbfab129e	-1.3365057
63	0xbda38333	-0.07984009
64	0x3fa90455	1.3204447
65	0x3f3b85c1	0.7325097
66	0x3f888f8e	1.066881
67	0x3f61f2be	0.8826102
68	0x3f175927	0.5912041
69	0x3ecccc07	0.3999941
70	0xbebd95bb	-0.37028298
71	0x3fc206ff	1.5158385
72	0xbeb7609e	-0.358159
73	0x3fafb0c9	1.3725826
74	0x3fd9e7e0	1.7023888
75	0x3f49e7c3	0.78869265
76	0x3e958cf6	0.29209107
77	0x3e02c0d2	0.12768868
78	0x3fb53e7e	1.4159696
79	0xbe40391c	-0.18771785
80	0x3f8f7f71	1.1210767
81	0x3f9c8535	1.2228152
82	0x3fa3df96	1.2802608
83	0x3f693dcd	0.91109926
84	0x3f5ba429	0.85797364
85	0xbe63ce83	-0.22246747
86	0xbf6b5173	-0.91921157
87	0xbf4f3655	-0.8094228
88	0x3f410426	0.75396955
89	0x3ebc1b5f	0.36739632
90	0xbf182a4c	-0.5943954
91	0x3fc80119	1.5625335
92	0x3faf6554	1.3702798
93	0xbddbc5bf	-0.107310764
94	0xbe258d30	-0.1616714
95	0x3f5e2a71	0.8678351
96	0x3f6e8e66	0.9318603
97	0xbef27917	-0.4735801
98	0x3f9916be	1.1960065
99	0x3f7547ea	0.9581286
100	0x3f47bc60	0.7802181
101	0x3f8798ae	1.0593469
102	0x3f7c1b1d	0.9847887
103	0x3eb03ca3	0.34421262
104	0x3f6ad6da	0.9173409
105	0x3f41aaab	0.75651044
106	0x3f865968	1.0496035
107	0x3fd74e93	1.6820854
108	0x3e9a3a0b	0.30122408
109	0xbd8188c0	-0.06324911
110	0x3f7af3a2	0.98028004
111	0x3f8bc93d	1.0920788
112	0x3f7d4932	0.9893981
113	0x3f589ca3	0.8461401
114	0x3f8a7700	1.0817566
115	0x3fed5906	1.8542793
116	0x3f29a59b	0.6626832
117	0x3f867e3b	1.0507272
118	0xbddc3d7c	-0.10753915
119	0x3f5d1986	0.8636707
120	0xbed2bcea	-0.41159755
121	0x3fa12b29	1.2591296
122	0x3fa89c87	1.3172768
123	0x3ec79f2a	0.3898862
124	0xbf4b3ded	-0.79391366
125	0xbee81043	-0.45324907
126	0x3f7834d5	0.96955615
127	0x3f8d0eb3	1.1020111
128	0xbc90d05d	-0.01767748
129	0xbc85150e	-0.016245391
130	0xbc3c2ef3	-0.011485803
131	0x3d9338dc	0.071885794
132	0x3cfd6294	0.030930795
133	0x3d277f8b	0.04089312
134	0x3e0e4faa	0.13897577
135	0xbd10c8c0	-0.0353477
136	0xbd7cb8b0	-0.06169957
137	0x3cab3616	0.020899814
138	0x3c73fd77	0.014891974
139	0xbab933bb	-0.0014129797
140	0x3cc22ac9	0.023702042
141	0xbd6b2af3	-0.057414006
142	0xbdebdc0f	-0.11516582
143	0xbdfe7e5d	-0.12426446
144	0x3d4c4f99	0.049880598
145	0xbd038b72	-0.032115407
146	0xbda91038	-0.082550466
147	0xbda4000e	-0.08007823
148	0x3dffcc38	0.124901235
149	0xbe202a0f	-0.15641044
150	0xbdc1244d	-0.09430752
151	0xbe051ad4	-0.12998515
152	0xbd0fbb20	-0.035090566
153	0x3cecdae2	0.028912965
154	0x3db3105a	0.08743353
155	0xbe04c3de	-0.12965342
156	0x3d272d3d	0.040814627
157	0x3df20782	0.11817838
158	0x3d596a20	0.053079724
159	0xbd347e75	-0.04406591
160	0x3d367b6f	0.04455131
161	0x3e058950	0.13040662
162	0x3d7265f6	0.05917927
163	0xbdb18394	-0.08667675
164	0x3cc9d2a8	0.024636582
165	0x3d99334f	0.074804895
166	0xbd373a23	-0.044733178
167	0xbe0c5fdc	-0.13708442
168	0xbdafced6	-0.08584373
169	0x3d9abb05	0.075552024
170	0xbdec7139	-0.11545033
171	0xbce09e8f	-0.027419357
172	0xbca51a84	-0.020154245
173	0xbd983254	-0.07431474
174	0x3d89ee97	0.067349605
175	0x3c61ae19	0.013774418
176	0x3d4e3dac	0.050351784
177	0xbd294ee7	-0.041335013
178	0x3d7ecbb1	0.062205974
179	0xbb688509	-0.0035479686
180	0x3da0dff1	0.078552134
181	0x3db7ee93	0.08981051
182	0xbe1b5571	-0.15169312
183	0x3d56c428	0.052433163
184	0x3dff6c60	0.12471843
185	0x3d1c3900	0.038140297
186	0xbc053f86	-0.008132821
187	0x3d88519e	0.06656192
188	0xbdeea8d3	-0.116532944
189	0x3dd74a3d	0.10512207
190	0xbcbbb180	-0.022911787
191	0xbd74ce31	-0.059766952

encoder.lstm.bias_hh_l0 f4 [192]
0	0xbf3f5694	-0.7474148
1	0xbf5a181c	-0.8519304
2	0xbe5caeab	-0.21551006
3	0xbe98ec11	-0.29867604
4	0xbf64641e	-0.89215267
5	0x3d37975c	0.044822082
6	0xbf58a828	-0.84631586
7	0xbf41b153	-0.756612
8	0xbe20039d	-0.15626378
9	0xbf967011	-1.175295
10	0xbe100a1e	-0.1406636
11	0xbf1a800e	-0.60351646
12	0xbf8a7510	-1.0816975
13	0xbef164fa	-0.47147352
14	0xbf9e9cba	-1.2391579
15	0xbffa97d0	-1.957758
16	0xbec95eeb	-0.3933023
17	0xbdf3ac79	-0.11898131
18	0xbe43e970	-0.19132018
19	0xbf0c6a23	-0.5484945
20	0xc01e6ebe	-2.4755092
21	0xbea6e651	-0.32597592
22	0xbe281fc4	-0.16418368
23	0xbf217f8c	-0.63085246
24	0xbf9b2304	-1.2120061
25	0xbeda1cac	-0.426
26	0xbe1a0bc0	-0.15043545
27	0xbdc2e6b0	-0.095166564
28	0xbf20b67c	-0.6277845
29	0xbf8c509d	-1.0962101
30	0xbeb07cab	-0.34470114
31	0xbecf0f60	-0.40441418
32	0xbf0db0e5	-0.55348045
33	0xbf88cf32	-1.0688231
34	0xbbd03627	-0.0063541117
35	0xbf269a72	-0.65079415
36	0xbf2f3e8c	-0.68454814
37	0xbef809cd	-0.48444977
38	0xbf29ae17	-0.66281265
39	0xc03b27e1	-2.924309
40	0xbe45f0ed	-0.19330187
41	0xbeba6e06	-0.36412066
42	0xbeb9bf55	-0.36278787
43	0xbeb25a8f	-0.34834716
44	0xbe7c38b7	-0.2463101
45	0xbf1ac7ac	-0.60460925
46	0xbd82bfbc	-0.06384227
47	0xbdeb2204	-0.11481097
48	0xbf3f5e23	-0.74753016
49	0xbf2ae788	-0.6675954
50	0xbee7e909	-0.4529498
51	0xbf090759	-0.53526837
52	0xbea1d2ab	-0.3160604
53	0xbeaa22e2	-0.33229738
54	0xbf52ed52	-0.8239337
55	0xbed93c4d	-0.42428818
56	0xbf1d4eb7	-0.61448234
57	0xbee11d60	-0.43967724
58	0xbed5a713	-0.4172903
59	0xbe8cc00c	-0.2749027
60	0xbeb8210d	-0.35962716
61	0xbf15b0d9	-0.58472973
62	0xbfaf38d0	-1.3689213
63	0xbdef855d	-0.11695359
64	0x3fa4337f	1.2828215
65	0x3f69c3f0	0.913146
66	0x3f7d6d5c	0.98994994
67	0x3f5b5040	0.85669327
68	0x3ef667d1	0.4812608
69	0x3edfa931	0.4368377
70	0xbeb25f1f	-0.34838197
71	0x3fafe64a	1.3742154
72	0xbea9ce3a	-0.3316515
73	0x3fac5721	1.346409
74	0x3fd9fbab	1.7029928
75	0x3f26ccd6	0.65156305
76	0x3ec78c63	0.38974294
77	0x3e96fd1a	0.29489976
78	0x3fbbb696	1.4665096
79	0xbdc42101	-0.095766075
80	0x3f76afce	0.96362007
81	0x3f9b3f1b	1.2128633
82	0x3fb97b8c	1.4490829
83	0x3f559702	0.83433545
84	0x3f7d0509	0.9883581
85	0xbea1e7b6	-0.31622094
86	0xbf625118	-0.8840499
87	0xbf54f144	-0.8318064
88	0x3f31a488	0.6939168
89	0x3f07544e	0.52863014
90	0xbf041504	-0.5159457
91	0x3fae59b3	1.3621124
92	0x3fa6cdbf	1.3031539
93	0x3ca28742	0.019839887
94	0xbe819220	-0.25306797
95	0x3f5a3c31	0.85248095
96	0x3f438d95	0.7638791
97	0xbef0ff5b	-0.4706982
98	0x3f8c64a0	1.0968208
99	0x3f5324b5	0.82477885
100	0x3f6d747a	0.92755854
101	0x3f5ff884	0.8748858
102	0x3f8f8871	1.1213514
103	0x3eb87576	0.36027116
104	0x3f4042b8	0.75101805
105	0x3f1ca587	0.61190075
106	0x3f89b737	1.0759038
107	0x3fed1324	1.8521466
108	0x3e570aa4	0.21000153
109	0xbd48ef1c	-0.049056157
110	0x3f68a918	0.90883017
111	0x3f81c1a1	1.0137216
112	0x3f5be0bd	0.858898
113	0x3f7a407f	0.97754663
114	0x3f80938b	1.0045027
115	0x3ff9e814	1.952395
116	0x3f2201f0	0.63284206
117	0x3f73125f	0.9494991
118	0xbdce3f92	-0.10070719
119	0x3f6a1850	0.9144335
120	0xbee53031	-0.4476333
121	0x3f8e3041	1.1108476
122	0x3faff7de	1.3747518
123	0x3f00d220	0.50320625
124	0xbf80ecec	-1.0072303
125	0xbeb47cb3	-0.35251388
126	0x3f723ee2	0.946272
127	0x3f85eb78	1.0462484
128	0x3dd31a98	0.10307807
129	0xbe3c967e	-0.18416783
130	0x3d88a717	0.06672495
131	0xbe04b942	-0.12961295
132	0xbd14ad18	-0.036297888
133	0xbd2c2821	-0.042030457
134	0xbcb3f81b	-0.021968892
135	0x3d30a748	0.04312828
136	0xbe3005c4	-0.171897
137	0xbdc97589	-0.09836871
138	0xbbd721d0	-0.00656531
139	0x3d34ab04	0.044108406
140	0xbe41a5f6	-0.18910965
141	0x3d81226f	0.06305396
142	0x3d96360e	0.07334529
143	0x3bb12fc1	0.005407304
144	0xbe1577c5	-0.1459647
145	0x3d4368d9	0.047707412
146	0x3e074b96	0.13212427
147	0x3e180cd1	0.14848639
148	0xbc2c2c54	-0.0105086155
149	0xbdf979eb	-0.12181457
150	0xbe1edafc	-0.15513223
151	0xbd9161de	-0.07098745
152	0x3d57c21e	0.05267536
153	0x3cc2d55f	0.023783384
154	0x3e259e6a	0.16173711
155	0x3e79488c	0.2434408
156	0xbbc674fa	-0.006056425
157	0xbcc78c22	-0.024358813
158	0xbc3b6f6d	-0.01144014
159	0x3c4c6805	0.012475972
160	0xbd4bc8ce	-0.04975205
161	0x3cfb908c	0.030708574
162	0xbdc54782	-0.0963278
163	0x3dc9034f	0.09815084
164	0x3d3f764e	0.046743684
165	0xbdd1ac2c	-0.10237917
166	0x3dd44c9c	0.103661746
167	0xbab8c389	-0.001409636
168	0x3e6caedd	0.2311358
169	0xbc9fcfd6	-0.019508284
170	0x3e84a437	0.25906536
171	0x3d6c36fc	0.057669625
172	0x3e19e3a7	0.15028249
173	0x3e46461d	0.19362684
174	0xbe138ff4	-0.14410383
175	0x3cc99e8e	0.024611738
176	0xbd9c3f41	-0.07629252
177	0x3cbdd0c7	0.023170842
178	0xbd877c83	-0.066155456
179	0xbcab79f8	-0.020932183
180	0x3de19874	0.11015406
181	0xbe671d1f	-0.22569703
182	0x3d2393a0	0.039935708
183	0xbdcea9e6	-0.10090999
184	0xbd3ac803	-0.045600902
185	0x3c12a524	0.008950505
186	0x3cdac937	0.026707275
187	0xbe166d6b	-0.14690177
188	0xbd8e9c68	-0.06963426
189	0x3d8cf02d	0.068817474
190	0x3b0fecf1	0.0021961296
191	0x3d47f14c	0.048814103

encoder.lstm.weight_ih_l0_reverse f4 [192, 1]
0	0x3eb488d2	0.35260636
1	0xbe9d0226	-0.30665702
2	0xbe91acf4	-0.28452265
3	0x3e207b9e	0.15672156
4	0xbf07c127	-0.530291
5	0x3b2531ec	0.0025206758
6	0xbd8c5fca	-0.06854208
7	0xbb178019	-0.0023117124
8	0x3ecd7464	0.40127861
9	0xbc8a21bd	-0.01686179
10	0x3e8ba67d	0.27275458
11	0xbc57f6ef	-0.013181432
12	0x3acbaa6a	0.0015538458
13	0xbe8193c1	-0.2530804
14	0xbf38fa53	-0.72256964
15	0xbdaf5b6d	-0.0856236
16	0xbf24a502	-0.6431428
17	0x3d02066d	0.03174441
18	0x3bcf28b6	0.006321992
19	0xbf24b464	-0.64337754
20	0xbf6cce00	-0.9250183
21	0x3a8db4cd	0.0010811329
22	0x3dee5394	0.11637035
23	0x3c7ab6aa	0.01530234
24	0xbc90d06f	-0.017677514
25	0xbd2e628c	-0.04257445
26	0x3e6c1082	0.23053172
27	0xbda2ec10	-0.079551816
28	0xbf4465f3	-0.7671806
29	0xbf18decf	-0.5971498
30	0x3d0e9c6d	0.034817148
31	0xbb8f08db	-0.0043650693
32	0x3e21c2d6	0.1579698
33	0xbdb2bc54	-0.08727327
34	0x3c8cb053	0.017173922
35	0x3f135554	0.57552075
36	0xbedbb7f0	-0.4291377
37	0x3c2d3cf1	0.010573612
38	0x3d88bd76	0.06676762
39	0xbb91657f	-0.004437148
40	0x3bf609c4	0.0075084884
41	0x3ada466f	0.0016653071
42	0xbeaaf57f	-0.33390424
43	0x3e89519d	0.26820078
44	0xbee473eb	-0.44619688
45	0xbf31af5e	-0.69408214
46	0xbbee64ae	-0.0072751855
47	0xbf5a7edb	-0.85349816
48	0xbd1a4b7b	-0.03766964
49	0xbcb13cb7	-0.021635396
50	0x3f019db2	0.5063125
51	0x3e8a6141	0.27027324
52	0xbf05eaeb	-0.5231158
53	0xbf0e55ee	-0.5559987
54	0xbc758ad3	-0.014986712
55	0xbea13cbe	-0.31491655
56	0xbf68c62e	-0.909274
57	0x3e7a2c58	0.24430978
58	0xbf2bff6a	-0.67186606
59	0x3de4e715	0.11176888
60	0x3d8702a7	0.06592303
61	0xbf8849b7	-1.0647496
62	0x3e84c7a6	0.2593357
63	0xbc1a75ca	-0.009427497
64	0xbbccf9a7	-0.006255347
65	0x3e0c822b	0.1372153
66	0xbb9cc21c	-0.004783882
67	0xbde1c7ca	-0.11024435
68	0x3de85621	0.11344553
69	0xbc4dd753	-0.012563544
70	0xbbb40462	-0.0054936865
71	0x3c1936ec	0.009351473
72	0xbbe20f5d	-0.006898804
73	0xbbd554aa	-0.006510337
74	0xbe12081e	-0.14260909
75	0xbaa536eb	-0.0012604868
76	0xbb9278bc	-0.004469959
77	0xbb89b0eb	-0.0042019985
78	0xbdf9d50e	-0.1219884
79	0xbe00688e	-0.12539884
80	0xbde893d4	-0.11356321
81	0xbbb81fa0	-0.0056190044
82	0xbdc97ecf	-0.0983864
83	0xbe0f0a7c	-0.13968843
84	0xbdcb46b8	-0.09925598
85	0xbb2f2c2f	-0.0026729216
86	0xbc7507b9	-0.0149554545
87	0xbc0f3d62	-0.008742662
88	0xbbd76191	-0.00657291
89	0xbc270d7c	-0.010196086
90	0xbb301217	-0.002686625
91	0xbc3c7c1c	-0.011504199
92	0xbdae34b1	-0.08506144
93	0xbc31c3dd	-0.01084992
94	0xbdb4f4c7	-0.0883575
95	0xbbed1fc9	-0.007236455
96	0xbc5df922	-0.013548167
97	0xbc8ac640	-0.016940236
98	0xb9320289	-0.00016976347
99	0x3e0c21f6	0.1368483
100	0xbc26f064	-0.0101891495
101	0xbac6408b	-0.0015125436
102	0xbc435656	-0.01192244
103	0xbb83746d	-0.004011682
104	0xba888590	-0.0010415781
105	0xbb95d3a7	-0.00457235
106	0xbbc9bd8a	-0.006156628
107	0xbddc1728	-0.10746604
108	0xbc414fac	-0.01179878
109	0xba89d642	-0.0010516124
110	0xbc04dff9	-0.00811004
111	0xbe07d275	-0.13263877
112	0xbbc1a9c1	-0.005910129
113	0xbb552e0a	-0.0032528662
114	0xbdcdf43f	-0.10056352
115	0xbc5d3bc2	-0.013503017
116	0xbb602271	-0.0034200216
117	0xbc5b8439	-0.013398224
118	0xbc06493a	-0.0081961695
119	0xbbf4b4b6	-0.0074678315
120	0xbe3055c8	-0.17220223
121	0xbb986ace	-0.004651404
122	0xbb89548a	-0.004190986
123	0x3a91cde7	0.0011123986
124	0x3c075ba0	0.008261591
125	0xbdec1ec9	-0.11529309
126	0xbb054e97	-0.0020341033
127	0xba9463a6	-0.0011321201
128	0xbc0b6953	-0.008508998
129	0x3dd5f24a	0.104466036
130	0x3c15847b	0.009125824
131	0xbd8ce322	-0.0687926
132	0xbd9620e9	-0.07330496
133	0xbb910ea3	-0.0044267937
134	0x3b8b924b	0.004259383
135	0xbb60a9ca	-0.003428089
136	0xbc0ccba3	-0.008593473
137	0x3a878c49	0.0010341491
138	0xbdb4aa50	-0.08821547
139	0x3b01ff24	0.0019835914
140	0xbaa23ce9	-0.0012377772
141	0x3c571bac	0.013129156
142	0xbd9caedd	-0.0765054
143	0xbdc1d289	-0.094639845
144	0xbdb2aa6b	-0.08723911
145	0xbbfba59d	-0.0076796548
146	0xbda70347	-0.08154922
147	0xbd91e5a7	-0.07123881
148	0x3d670305	0.056399364
149	0x3b4af2b7	0.0030967423
150	0x3b2f2f4f	0.002673108
151	0x3bd1dc4a	0.0064044343
152	0xbbb92ac7	-0.0056508514
153	0x3b680e66	0.0035408973
154	0x3afb05ca	0.0019151506
155	0x378ba1cd	1.6645436e-05
156	0x3d5b48ab	0.0535361
157	0x3b19095f	0.0023351533
158	0xbc03d843	-0.008047166
159	0x3c0ef410	0.008725181
160	0x3bff30a3	0.0077877804
161	0xbbab6a43	-0.0052311732
162	0xbc1e1537	-0.009648613
163	0xbdc06fd6	-0.09396331
164	0x3c47a06b	0.012184243
165	0x3c0d7008	0.008632667
166	0x3c331307	0.010929829
167	0xbc3730e1	-0.011181087
168	0xbba8bbe1	-0.00514935
169	0x3c1893d7	0.0093125915
170	0x3af131df	0.0018401704
171	0xbd8ea220	-0.06964517
172	0xbb87ca1b	-0.004143966
173	0xbb3c349a	-0.0028717876
174	0xbb9fe6c3	-0.004879804
175	0xbd96042f	-0.07325017
176	0x3b38896f	0.0028158089
177	0x39881deb	0.00025962232
178	0xbd5c69d7	-0.053811874
179	0x398d608d	0.00026965552
180	0xbb4108af	-0.0029454639
181	0x3c48a29d	0.012245801
182	0xbacdd41f	-0.0015703476
183	0x3b79bd8e	0.0038107368
184	0x3f0ff315	0.5623029
185	0xbbabf57a	-0.005247769
186	0xbc1fe44b	-0.009759019
187	0xba5ac535	-0.0008345426
188	0xbc63e857	-0.013910375
189	0xbd99b095	-0.075043835
190	0x380420c8	3.1501782e-05
191	0x3b3fab02	0.0029246216

encoder.lstm.weight_hh_l0_reverse f4 [192, 64]
0	0xbf860864	-1.0471311
1	0x3e102ada	0.14078847
2	0x3ea464d0	0.32108164
3	0xbe03da75	-0.12876303
4	0xbefdb509	-0.4955218
5	0x3debbaa7	0.115102105
6	0x3e437488	0.19087422
7	0xbb7e6b98	-0.0038821455
8	0x3dafa446	0.085762545
9	0xbcba0845	-0.022709021
10	0x3db9af57	0.090666465
11	0x3e9d4a24	0.30720627
12	0x3e5f9c26	0.2183691
13	0xbd991d96	-0.07476346
14	0x3ce936aa	0.028468449
15	0xbeac3d78	-0.33640647
16	0xbea7141d	-0.32632533
17	0x3d9edee8	0.0775736
18	0xbe803000	-0.2503662
19	0x3d587646	0.05284717
20	0xbae15b0d	-0.0017193273
21	0x3b91b381	0.0044464474
22	0xbe2a786f	-0.16647504
23	0x3e066651	0.13124968
24	0xbdbef3e4	-0.09323862
25	0x3d80aaec	0.06282601
26	0x3b9f8dc2	0.004869194
27	0x3d66428e	0.056215815
28	0x3eac2287	0.33620092
29	0xbd4eb7fa	-0.050468422
30	0xbebd663b	-0.36992058
31	0x3cb9ee53	0.02269665
32	0x3c6a6e91	0.014308588
33	0xbaca19b4	-0.0015419037
34	0xbe4759d2	-0.19467857
35	0xbf0d4923	-0.5518972
36	0xbc87798f	-0.016537456
37	0x3d294b74	0.041331723
38	0x3d46fa5f	0.048578616
39	0xbe057e59	-0.13036479
40	0x3dc5dc02	0.09661104
41	0xbe193b84	-0.1496411
42	0xbdb34237	-0.08752864
43	0xbd7cec9a	-0.06174908
44	0xbdc63489	-0.09677989
45	0x3d1ace85	0.03779461
46	0xbe9432cc	-0.28945005
47	0x3e0811c4	0.13288027
48	0xbc81320f	-0.01577094
49	0xbd12a769	-0.035804186
50	0xbe026eff	-0.12737654
51	0xbe44929f	-0.19196557
52	0x3defb1de	0.11703847
53	0x3e01d62e	0.1267936
54	0xbe0bebb1	-0.13664128
55	0x3dde700c	0.10861215
56	0x3e8172b1	0.25282815
57	0xbeda78c4	-0.42670262
58	0xbdae894e	-0.085222825
59	0xbe5e1c73	-0.2169054
60	0xbf1cc25c	-0.6123407
61	0xbda7b2c2	-0.08188392
62	0x3e66fdbf	0.22557734
63	0x3ca00a4b	0.019536158
64	0xbdd8d155	-0.10586802
65	0x3c97246a	0.01844998
66	0xbd90570a	-0.070478514
67	0x3f1a30e6	0.60230863
68	0xbe2c87d3	-0.16848688
69	0xbe9137e7	-0.28362963
70	0xbd4d7a8c	-0.050165698
71	0x3dc689a1	0.096942194
72	0xbdaac4f3	-0.08338346
73	0xbc91649c	-0.01774817
74	0x3f04abf7	0.518249
75	0x3deeba71	0.116566546
76	0xbe003826	-0.12521419
77	0xbe222930	-0.15836024
78	0x3f13351a	0.575029
79	0x3eb3c526	0.3511135
80	0x3f113ae6	0.56730497
81	0xbda4b9f0	-0.08043277
82	0x3ee40a55	0.44539133
83	0x3f158c5e	0.5841731
84	0xbee52a3d	-0.44758788
85	0x3d879061	0.06619335
86	0x3c96232e	0.018327322
87	0x3cae1439	0.021249877
88	0x3b4894a4	0.0030606175
89	0x3c7acf5a	0.0153082255
90	0x3e0a646b	0.13514869
91	0x3e6152c6	0.22004232
92	0xbeda9d28	-0.42698026
93	0x3d1fc75c	0.039008483
94	0x3dd8256c	0.10554013
95	0x3d8bd61e	0.06827949
96	0xbcd7d8b1	-0.026348444
97	0x3b0ee3af	0.002180319
98	0xbdd92d82	-0.10604383
99	0xbd953b6e	-0.07286726
100	0xbc3d5ea0	-0.011558205
101	0xbd84e9a7	-0.06489878
102	0xbce3c9bc	-0.027806155
103	0xbdab8d40	-0.08376551
104	0xbd9913ca	-0.074744776
105	0xbd3d4337	-0.04620668
106	0x3d1783a3	0.036990773
107	0x3ec2fbb8	0.3808267
108	0xbe413ca2	-0.18870786
109	0xbdd78522	-0.1052344
110	0xbc1745d6	-0.009232959
111	0x3edae853	0.42755374
112	0x3e318854	0.17337161
113	0x3def6dd7	0.11690872
114	0x3f0ebcf7	0.5575709
115	0xbd854213	-0.06506743
116	0x3dd7b6c2	0.10532905
117	0x3d88effc	0.066863984
118	0x3dfa2cdc	0.122155875
119	0x3d1f7837	0.038933005
120	0xbf33ef9f	-0.7028751
121	0x3d85985e	0.06523202
122	0x3d478d3a	0.04871867
123	0x3d4b029f	0.049563047
124	0x3d420294	0.04736574
125	0x3eedc079	0.46435907
126	0xbda86ebb	-0.08224245
127	0x3c0b5ee6	0.008506512
128	0x3da02483	0.07819464
129	0x3d12a5ce	0.035802655
130	0xbe32e8fa	-0.17471686
131	0x3e72221f	0.23645829
132	0xbdc26f0c	-0.09493837
133	0x3c8e719e	0.017388161
134	0x3de38983	0.11110213
135	0xbc9ec2df	-0.019380031
136	0xbe1dc5b9	-0.15407456
137	0x3e2e1950	0.17001843
138	0x3e5bf171	0.21478821
139	0xb9a88af4	-0.00032146985
140	0xbdc298af	-0.09501778
141	0xbdf9a7df	-0.12190222
142	0x3e4b5e11	0.19860102
143	0x3de24dbc	0.11049983
144	0x3dd6bcdb	0.1048524
145	0x3c518493	0.012787956
146	0x3d9c1819	0.07621784
147	0x3d15d956	0.03658422
148	0xbe717390	-0.2357924
149	0x3dc9a020	0.098449945
150	0x3d665312	0.056231566
151	0xbc88c557	-0.016695661
152	0xbda001d5	-0.078128494
153	0xbc2e4e7b	-0.010638828
154	0x3dcf45f6	0.10120766
155	0xbbc78b8b	-0.006089633
156	0xbdfb8dac	-0.12282881
157	0x3e4712ea	0.19440809
158	0x3d6031d1	0.05473501
159	0xbe06386b	-0.13107459
160	0x3b8b5616	0.0042522056
161	0xbca25a9a	-0.019818593
162	0xbdf0c6b7	-0.11756652
163	0xbd6a7922	-0.057244428
164	0x3da30dd5	0.079616226
165	0x3dd95f19	0.106138416
166	0xbdfc0bb4	-0.1230692
167	0xbd81e663	-0.06342771
168	0xbb4614f4	-0.0030224891
169	0x3dc08dca	0.09402044
170	0x3c91fd8e	0.0178211
171	0x3e55f486	0.2089406
172	0xbe194515	-0.14967759
173	0xbd37dbdf	-0.04488742
174	0x3d5aa054	0.053375557
175	0x3deb382c	0.11485323
176	0x3c4ca40e	0.012490286
177	0x3da42a11	0.08015836
178	0x3b4923ca	0.0030691498
179	0x3cf8fdb1	0.030394407
180	0xbd550d1f	-0.052014466
181	0xbc919ebe	-0.01777589
182	0xbd911f3a	-0.07086034
183	0x3d0af4ca	0.033924855
184	0xbda464e9	-0.080270596
185	0x3dd714a5	0.105019845
186	0x3e22f2ad	0.15912886
187	0xbd3b703e	-0.04576134
188	0x3c4052c4	0.011738483
189	0x3e3455d9	0.17610873
190	0xbd60e9ad	-0.05491035
191	0x3d528830	0.05139941
192	0xbe4888d7	-0.1958345
193	0xbded8baa	-0.115989044
194	0x3e10bcb6	0.14134488
195	0xbf26d3fe	-0.65167224
196	0x3c428195	0.011871715
197	0x3e28d4aa	0.16487375
198	0x3e160e75	0.14653952
199	0xbe866fd7	-0.26257202
200	0xbe24624e	-0.16053125
201	0xbd34804e	-0.044067673
202	0xbe8c5a0f	-0.2741246
203	0xbd19adb4	-0.03751917
204	0x3d0dfff7	0.034667935
205	0x3e2789e6	0.16361198
206	0xbea8e284	-0.32985318
207	0xbe9a13d3	-0.3009325
208	0xbe57557a	-0.210287
209	0x3ea3dcd7	0.32004425
210	0x3cda907b	0.026680222
211	0xbed332a9	-0.41249588
212	0x3ecb38b2	0.39691693
213	0xbe1d1725	-0.1534086
214	0x3d6b3842	0.0574267
215	0xbd0a2dbe	-0.03373503
216	0x3d37bd36	0.04485818
217	0xbdcb3128	-0.09921485
218	0x3d74fb6d	0.05981009
219	0xbd3bd9cc	-0.045862004
220	0x3eb02464	0.34402764
221	0xbc0261a0	-0.007957846
222	0x3d6f8b54	0.058482483
223	0xbc31264b	-0.010812352
224	0xbd32fd7e	-0.04369878
225	0x3d121f23	0.035674226
226	0x3cda81da	0.026673246
227	0xbd13e14b	-0.036103528
228	0xbc878548	-0.016543046
229	0xbb8bf04f	-0.0042705904
230	0x3dfa6e03	0.12228014
231	0x3e2a5126	0.16632518
232	0xbdd9d0fc	-0.10635564
233	0x3dfa6670	0.1222657
234	0xbe6b7b55	-0.22996266
235	0xbecfcf94	-0.40588057
236	0x3dffaa12	0.1248361
237	0xbd486978	-0.048928708
238	0xbe215bac	-0.15757626
239	0xbef795bb	-0.48356423
240	0xbe1d5249	-0.1536342
241	0xbc7b716d	-0.015346867
242	0xbef5c5aa	-0.48002368
243	0x3de790c7	0.11306911
244	0x3d2c1fe5	0.042022604
245	0xbcfb17fb	-0.030651083
246	0xbdc7133b	-0.09720465
247	0x3d8b2d97	0.06795805
248	0xbee820b3	-0.45337448
249	0xbde000e4	-0.1093767
250	0xbd053160	-0.03251779
251	0x3da36644	0.0797849
252	0xbdd585c5	-0.10425905
253	0xbed1d22a	-0.40980655
254	0x3dcf7447	0.101296
255	0x3d903b0d	0.07042513

encoder.lstm.bias_ih_l0_reverse f4 [192]
0	0xbecd7578	-0.40128684
1	0xbdc8b36d	-0.09799848
2	0xbe3ac0c6	-0.182376
3	0x3da2de0f	0.079525106
4	0xbd31d6c8	-0.043417722
5	0xbf17e1b9	-0.593288
6	0xbecc9988	-0.39960885
7	0xbf8d26f2	-1.102751
8	0xbe9274d7	-0.28604767
9	0xbf2160ae	-0.63038146
10	0x3e8264ff	0.2546768
11	0xbf3a360e	-0.7273873
12	0xbf87df58	-1.0615034
13	0xbf090191	-0.53518015
14	0x3e2fe414	0.17176849
15	0xbd43f0d1	-0.047837082
16	0x3edb3fad	0.42822018
17	0xbf28e519	-0.65974575
18	0xbbce0236	-0.0062868847
19	0xbe50e6ad	-0.20400496
20	0xbe0dbb32	-0.1384094
21	0xbf56b2d3	-0.83866614
22	0xbe241118	-0.16022146
23	0xbf5d0d33	-0.86348265
24	0xbf4a51d4	-0.7903111
25	0xbf54e054	-0.831548
26	0xbeb91745	-0.36150566
27	0xbf5208da	-0.82044756
28	0xbd864cd6	-0.06557624
29	0xbf17e219	-0.5932937
30	0xbf4ef700	-0.8084564
31	0xbf6588d7	-0.89661926
32	0xbf5591c2	-0.83425534
33	0xbf6eae83	-0.93235034
34	0xbf389354	-0.72099805
35	0x3e173836	0.14767537
36	0xbf3cc60d	-0.737397
37	0xbf183dc7	-0.59469265
38	0xbeb9bac0	-0.3627529
39	0xbf4d8194	-0.80275846
40	0xbf271c7f	-0.65277857
41	0xbf71df48	-0.94481325
42	0xbf21333f	-0.6296882
43	0xbd600627	-0.054693367
44	0xbf3dc0f7	-0.74122566
45	0xbf6db6a7	-0.9285683
46	0xbf49c088	-0.78809404
47	0xbe49eebe	-0.19719979
48	0xbeef0fef	-0.46691844
49	0xbf313096	-0.6921476
50	0xbea52a84	-0.32259
51	0xbe59c8cc	-0.21268004
52	0xbed8e8a7	-0.42365
53	0xbeea93d6	-0.45815915
54	0xbf59b705	-0.8504489
55	0xbf1deaae	-0.6168622
56	0xbf32f41c	-0.6990373
57	0xbf1994f6	-0.5999292
58	0xbef0db35	-0.47042242
59	0xbf053121	-0.5202809
60	0xbee12dbc	-0.43980205
61	0xbd8594e9	-0.06522543
62	0xbf219fab	-0.6313426
63	0xbf5eab36	-0.8698
64	0x40651248	3.5792408
65	0x3e3b2b14	0.18278152
66	0x407d97e7	3.9623964
67	0x3f809bcc	1.0047545
68	0x3e0dd3de	0.13850352
69	0x4076abed	3.8542435
70	0x4088b59a	4.272168
71	0x40581623	3.376351
72	0x4080dfab	4.027303
73	0x40853a54	4.16337
74	0x3f7fa77a	0.99864924
75	0x40810e6b	4.03301
76	0x4082a8b2	4.0830927
77	0x407e896f	3.9771383
78	0x3f7ba6d6	0.98301446
79	0x3e8963cb	0.26833948
80	0x3ee6a0f5	0.45044675
81	0x4074e5cd	3.826526
82	0x3e96023a	0.29298574
83	0x3f7677c4	0.962765
84	0x3f8ece1a	1.1156647
85	0x4085dbeb	4.1830955
86	0x40853f43	4.1639724
87	0x4081b685	4.05353
88	0x40865250	4.197548
89	0x40857bf2	4.17138
90	0x4082bff5	4.0859323
91	0x408483ff	4.141113
92	0x3f4d31d9	0.80154186
93	0x407ffab1	3.999676
94	0x3f9675a0	1.1754646
95	0x407ebfc7	3.9804552
96	0x4086d89f	4.213943
97	0x4085712a	4.170064
98	0x4086741b	4.201673
99	0x3efaf8c8	0.4901793
100	0x40843950	4.131996
101	0x4081fc8e	4.0620794
102	0x4082872e	4.0790014
103	0x408540df	4.164169
104	0x40837257	4.1077075
105	0x408359a2	4.1046915
106	0x4073967f	3.8060606
107	0x3f79e2c3	0.97611636
108	0x4081350d	4.037726
109	0x4084397d	4.1320176
110	0x4083e385	4.1215234
111	0x3f5d6935	0.8648866
112	0x40855231	4.166283
113	0x408480c2	4.1407175
114	0x3f445473	0.7669136
115	0x4083ee8e	4.1228704
116	0x40828a1c	4.079359
117	0x40849e1a	4.1442995
118	0x408758d6	4.229594
119	0x40819b7d	4.0502305
120	0xbf1ce1b6	-0.6128191
121	0x407c053d	3.9378197
122	0x4082d0d0	4.08799
123	0x40864fa9	4.197224
124	0x402b3566	2.6751342
125	0x3f836e99	1.0268127
126	0x40837d5b	4.109052
127	0x40877bbe	4.2338552
128	0xbd3c1da0	-0.04592669
129	0x3e0c50af	0.13702653
130	0xbd305798	-0.043052286
131	0x3c1c99b7	0.009558133
132	0xbd6c6d4f	-0.057721432
133	0xbbb504a5	-0.0055242353
134	0xbc149715	-0.009069224
135	0x3c1200c7	0.008911318
136	0xbd8ce297	-0.06879156
137	0xbc158987	-0.009127027
138	0x3bb779b1	0.0055992235
139	0x37f47061	2.9139397e-05
140	0x3aa80eb6	0.0012821767
141	0xbcadb347	-0.02120365
142	0x3e0fb185	0.14032562
143	0x3e8631cc	0.26209867
144	0x3e1bfaf4	0.1523245
145	0x3b9a91bf	0.0047170813
146	0x3dc3e3b2	0.09564914
147	0x3dbfc0f2	0.09362973
148	0xbe2192bc	-0.15778631
149	0x3bad67a6	0.005291897
150	0xbd344e24	-0.044019833
151	0x3ba43af1	0.005011909
152	0x3b7391cb	0.0037165757
153	0x39906677	0.00027542163
154	0x3d2b8009	0.04187015
155	0xbaa8236e	-0.0012827942
156	0xbdadd065	-0.08487014
157	0x3c59ad5a	0.013285959
158	0xb9ea59e5	-0.00044698935
159	0xbbb6457d	-0.005562483
160	0x3a9e0e01	0.0012058617
161	0xbbbbf165	-0.0057355636
162	0xbba9bcdb	-0.005179984
163	0xbd86ed17	-0.0658819
164	0xbc684dbc	-0.01417869
165	0xbbf373cb	-0.007429575
166	0x3cc55fb6	0.02409349
167	0x3b38f163	0.002822005
168	0x3c03fe5b	0.008056249
169	0x3aad9361	0.0013242775
170	0xbbd2596f	-0.0064193527
171	0xbc9442a6	-0.018098187
172	0xbae95a82	-0.0017803463
173	0xbc7560fb	-0.014976735
174	0x3bbb6e82	0.0057199607
175	0x3e38ebc8	0.18058693
176	0xbb029a85	-0.0019928527
177	0xbad2dafb	-0.001608699
178	0xbd3a7e80	-0.045530796
179	0xbd585268	-0.052812964
180	0x3d049caf	0.032375988
181	0xbd07ac72	-0.03312344
182	0x3b107e70	0.002204802
183	0x3c97592a	0.018475134
184	0xbd9b1e1f	-0.075741045
185	0xbcef2974	-0.029194571
186	0x3cbebe17	0.023284001
187	0xbc4036e5	-0.011731838
188	0xbba3ce8e	-0.0049989885
189	0x3e14cedc	0.14532036
190	0x3d083926	0.033257626
191	0xbc0d8d55	-0.008639653
